saves_ar/soc_lm/model.pth (torch, 273650 bytes, 72 tensors)

input_proj.weight f4 [32, 6]
000000 95 2e 82 3e cf bf 4f 3e 14 84 a4 be a5 57 45 3e
       0.25426164 0.20288013 -0.32132018 0.19271715
000010 32 95 9c be 61 aa 89 3e d3 62 89 3e f2 81 62 3e
       -0.30582577 0.268878 0.2683321 0.22119883
000020 09 ea 72 3d 06 f0 a7 be 94 bb 35 3e 1e 09 57 be
       0.059305225 -0.3280031 0.17747337 -0.20999572
000030 64 a9 04 3e 85 c8 87 be 7a 62 7b be f2 1e df bd
       0.12955242 -0.26520172 -0.24549285 -0.10894574
000040 7f 04 9f 3e 17 26 39 be a5 11 3b 3e 88 4c d4 be
       0.31058118 -0.18080936 0.1826845 -0.4146464
000050 73 73 d5 be 64 53 69 3e b5 47 b0 bd f9 ff d9 be
       -0.41689643 0.22785717 -0.08607427 -0.42578104
000060 63 c2 82 be 7c 26 4f be b8 fb df 3d 42 28 ef bd
       -0.2553893 -0.20229524 0.109366834 -0.116776004
000070 a4 09 5c be 82 05 82 be b1 30 67 3e 23 4f bf 3b
       -0.21488053 -0.25394827 0.22577168 0.0058382913
000080 1f e9 82 bd 51 62 8b 3e f4 5c b7 be 20 ac fe bd
       -0.063921206 0.27223447 -0.35813105 -0.12435174
000090 44 71 e5 bc 87 2d 20 3e 74 d6 25 3e 87 36 c5 3e
       -0.02800811 0.15642367 0.16195089 0.38518164
0000a0 aa ac aa 3d 33 15 79 3e d9 70 56 be e3 62 b3 bd
       0.08333714 0.24324493 -0.20941485 -0.087590955
0000b0 f2 48 b2 bd fd 09 6b bd 9e 8f 78 3e f5 f6 9d 3e
       -0.087053195 -0.057382572 0.24273536 0.30852476
0000c0 01 f3 ea bc 2c f9 0c 3e 26 be f1 3c 1d 51 a1 3e
       -0.028680326 0.13766927 0.029509615 0.31507197
0000d0 04 6a 95 3e e3 ec ca 3e 98 51 5c be 65 42 cf 3d
       0.29182446 0.39633855 -0.215155 0.101200856
0000e0 9c b8 25 3d 88 b8 ff 3d 10 60 2d be ba fd 3c be
       0.04045926 0.124863684 -0.16931176 -0.18456164
0000f0 bf 66 41 be ff dd a2 be 8e 95 d3 3e b6 28 8d be
       -0.18886851 -0.31809995 0.4132504 -0.27570122
000100 4c af 0c 3e 80 65 22 3e e9 4c ae be 0c 67 55 3e
       0.13738745 0.15859032 -0.34043053 0.2084009
000110 d1 25 09 be 30 5a ab 3d 55 1b 17 3e 27 e9 00 3e
       -0.13393332 0.08366811 0.1475652 0.1258894
000120 9c e2 98 3e af 29 98 bd a3 ae 59 be 64 07 57 3e
       0.2986039 -0.074298255 -0.21258025 0.20998913
000130 9c df d7 3d 1a 20 33 bd 4b 8a a8 3e 09 20 a8 be
       0.10540697 -0.043731786 0.3291801 -0.3283694
000140 a9 1f 9e bd 62 e1 cc be 1c be 51 bd 8c df 22 bd
       -0.077208824 -0.40015703 -0.051206693 -0.039763972
000150 5d d4 b6 3c f5 3d 40 bd eb c0 87 bd c8 e9 eb 3d
       0.02231806 -0.046934087 -0.06628593 0.115191996
000160 0a b3 25 be d2 ad 33 be b5 6d 9d 3e 48 61 93 be
       -0.16181579 -0.17546776 0.30747762 -0.28785157
000170 78 88 9f be b6 85 7e 3e 87 36 8a bd 7b b6 37 3e
       -0.31158805 0.24855694 -0.067486815 0.17940705
000180 cc 54 95 3e 54 c5 9f 3e 38 89 8f 3e 3c db c4 3e
       0.29166257 0.31205237 0.28034377 0.38448513
000190 b0 ec 0e be 8f f6 82 bb e7 2d f1 bc 65 90 82 bd
       -0.13957477 -0.003996677 -0.029440833 -0.06375197
0001a0 1a 4f b1 3e 7b f4 c1 be 84 a3 9f bb fd b8 54 be
       0.34630662 -0.37881836 -0.0048717875 -0.20773692
0001b0 e3 8c 8b 3e e1 3e a2 3e 13 f1 55 be 9d bc c2 3e
       0.27255926 0.31688598 -0.20892744 0.38034526
0001c0 85 4c c2 be ca 87 7f 3e 28 a2 53 3d 00 af 00 3e
       -0.37949005 0.24954143 0.051668316 0.12566757
0001d0 a3 7b a3 be d5 1f d5 bd 9b 1a 0a 3e 6a c8 9f be
       -0.31930265 -0.10406462 0.13486712 -0.3120759
0001e0 bc 54 1b be cb 80 46 3d 23 b2 b3 3e 3c 2a 38 3d
       -0.15169042 0.04846267 0.35096845 0.044962153
0001f0 8e c4 d8 bd cb 9a 11 bd 58 42 97 3e a8 d3 b6 bd
       -0.10584365 -0.035548013 0.29542804 -0.08927089
000200 eb fe 9e bd dd c9 97 3e e0 9b 4c be ec 57 b6 bd
       -0.077634655 0.29646197 -0.19981337 -0.089034885
000210 ed 2b 44 be 35 f9 77 be 84 16 48 3e fd 59 d4 3d
       -0.19157381 -0.24216159 0.19539839 0.103687264
000220 a3 f0 d5 3e 27 52 ed bc 5c a7 43 3d 58 c0 b0 bd
       0.41785154 -0.028969837 0.04776703 -0.08630437
000230 c7 e4 9d be a5 ee ac 3e c0 97 09 3b 92 a1 8d bd
       -0.30838606 0.3377582 0.002099499 -0.06915583
000240 ee 3c fe bc 1e 1b 36 be 87 a1 8e be a0 b4 9b 3d
       -0.031034913 -0.17783782 -0.2785761 0.07602811
000250 90 cf be 3e 85 08 cb be 09 a5 ab 3e 32 2c cd be
       0.37267733 -0.39654937 0.3352435 -0.4007278
000260 de d5 e1 3d 4d ba 12 be 89 a9 a1 3e 8b a3 ba 3e
       0.1102712 -0.1432888 0.31574658 0.36452898
000270 86 f9 19 bd 84 b2 50 3e 20 cd 8c 3e b6 61 d3 bd
       -0.03759148 0.20380598 0.27500248 -0.10321371
000280 17 9e fa 3d 3e 41 f8 3c 91 6b 62 3e 89 e6 a6 3e
       0.122371845 0.030304547 0.22111346 0.3259776
000290 a8 67 9e 3c 2e ce 82 3e ff 31 ab be 00 a2 84 be
       0.019336537 0.25547928 -0.33436581 -0.25904846
0002a0 27 f5 c1 bd 69 4b b6 3e 65 f2 18 3d 89 9d 91 3e
       -0.09470587 0.35604408 0.03734054 0.28440502
0002b0 01 01 2a 3c 11 1e b2 3d ad 8c 1a be 42 ad b4 3e
       0.010376216 0.08697141 -0.15092726 0.35288435
0002c0 43 b6 55 be bc e2 80 be 7e b1 90 3e d1 fd 82 be
       -0.20870309 -0.25172985 0.28260416 -0.25584272
0002d0 83 1e 46 3e c1 f3 21 3e 44 2c 81 bd 38 78 77 3d
       0.19347577 0.15815641 -0.06307271 0.060417384
0002e0 ef 12 df be 42 e4 53 be e5 d2 01 3e b9 80 a0 bd
       -0.43569133 -0.20692542 0.12678106 -0.07837052
0002f0 cd 71 40 3e 8e af 8b be 4e 91 80 bd 59 07 01 be
       0.18793412 -0.27282375 -0.06277715 -0.12600459

input_proj.bias f4 [32]
000000 dd e5 a8 3e 8d 04 37 be 6c 60 b8 be ed d5 93 be
       0.32987872 -0.1787283 -0.36011064 -0.2887415
000010 8f d0 a0 3e 5b b2 da bc 34 76 3e 3b ba e7 c3 3d
       0.31409118 -0.026696375 0.0029062154 0.09565683
000020 b5 8f 94 be 67 a9 4e 3e 59 64 2f 3e 79 36 01 3e
       -0.2901589 0.2018181 0.17128123 0.12618436
000030 30 8f a1 3e e7 ae 3d 3e c1 7c 91 3e 05 ef 1b bd
       0.31554556 0.18523751 0.28415492 -0.038069744
000040 ed eb 14 3e 89 81 5b bd 31 2b e7 3d 44 31 a6 3e
       0.14543124 -0.05359033 0.11287535 0.32459462
000050 bc d0 62 be 10 93 ae be 7e ff ab bd ad d3 fb be
       -0.22149938 -0.34096575 -0.08398341 -0.49184933
000060 68 24 1c be 86 c1 25 be e4 44 5f be 0e 1f 58 3e
       -0.15248263 -0.16187105 -0.21803623 0.21105596
000070 51 88 62 be c4 2f d5 3d dc 40 25 3e 84 44 e4 3e
       -0.22122313 0.10409501 0.16138023 0.44583523

mamba.layers.0.mixer.A_log f4 [64, 16]
000000 00 00 00 00 10 54 2f 3f 0d f2 8a 3f 10 54 af 3f
       0.0 0.68487644 1.0855118 1.3697529
000010 cb 8b cb 3f d8 9b e2 3f ee 1a f6 3f b7 7e 03 40
       1.5902036 1.770381 1.9226968 2.054609
000020 0d f2 0a 40 d8 9a 11 40 25 a2 17 40 99 23 1d 40
       2.1710236 2.275076 2.3692715 2.4552977
000030 31 32 22 40 32 e2 26 40 8c 3f 2b 40 10 54 2f 40
       2.5343134 2.6075559 2.6757536 2.7395058
000040 00 00 00 00 10 54 2f 3f 0d f2 8a 3f 10 54 af 3f
       0.0 0.68487644 1.0855118 1.3697529
000050 cb 8b cb 3f d8 9b e2 3f ee 1a f6 3f b7 7e 03 40
       1.5902036 1.770381 1.9226968 2.054609
000060 0d f2 0a 40 d8 9a 11 40 25 a2 17 40 99 23 1d 40
       2.1710236 2.275076 2.3692715 2.4552977
000070 31 32 22 40 32 e2 26 40 8c 3f 2b 40 10 54 2f 40
       2.5343134 2.6075559 2.6757536 2.7395058
000080 00 00 00 00 10 54 2f 3f 0d f2 8a 3f 10 54 af 3f
       0.0 0.68487644 1.0855118 1.3697529
000090 cb 8b cb 3f d8 9b e2 3f ee 1a f6 3f b7 7e 03 40
       1.5902036 1.770381 1.9226968 2.054609
0000a0 0d f2 0a 40 d8 9a 11 40 25 a2 17 40 99 23 1d 40
       2.1710236 2.275076 2.3692715 2.4552977
0000b0 31 32 22 40 32 e2 26 40 8c 3f 2b 40 10 54 2f 40
       2.5343134 2.6075559 2.6757536 2.7395058
0000c0 00 00 00 00 10 54 2f 3f 0d f2 8a 3f 10 54 af 3f
       0.0 0.68487644 1.0855118 1.3697529
0000d0 cb 8b cb 3f d8 9b e2 3f ee 1a f6 3f b7 7e 03 40
       1.5902036 1.770381 1.9226968 2.054609
0000e0 0d f2 0a 40 d8 9a 11 40 25 a2 17 40 99 23 1d 40
       2.1710236 2.275076 2.3692715 2.4552977
0000f0 31 32 22 40 32 e2 26 40 8c 3f 2b 40 10 54 2f 40
       2.5343134 2.6075559 2.6757536 2.7395058
000100 00 00 00 00 10 54 2f 3f 0d f2 8a 3f 10 54 af 3f
       0.0 0.68487644 1.0855118 1.3697529
000110 cb 8b cb 3f d8 9b e2 3f ee 1a f6 3f b7 7e 03 40
       1.5902036 1.770381 1.9226968 2.054609
000120 0d f2 0a 40 d8 9a 11 40 25 a2 17 40 99 23 1d 40
       2.1710236 2.275076 2.3692715 2.4552977
000130 31 32 22 40 32 e2 26 40 8c 3f 2b 40 10 54 2f 40
       2.5343134 2.6075559 2.6757536 2.7395058
000140 00 00 00 00 10 54 2f 3f 0d f2 8a 3f 10 54 af 3f
       0.0 0.68487644 1.0855118 1.3697529
000150 cb 8b cb 3f d8 9b e2 3f ee 1a f6 3f b7 7e 03 40
       1.5902036 1.770381 1.9226968 2.054609
000160 0d f2 0a 40 d8 9a 11 40 25 a2 17 40 99 23 1d 40
       2.1710236 2.275076 2.3692715 2.4552977
000170 31 32 22 40 32 e2 26 40 8c 3f 2b 40 10 54 2f 40
       2.5343134 2.6075559 2.6757536 2.7395058
000180 00 00 00 00 10 54 2f 3f 0d f2 8a 3f 10 54 af 3f
       0.0 0.68487644 1.0855118 1.3697529
000190 cb 8b cb 3f d8 9b e2 3f ee 1a f6 3f b7 7e 03 40
       1.5902036 1.770381 1.9226968 2.054609
0001a0 0d f2 0a 40 d8 9a 11 40 25 a2 17 40 99 23 1d 40
       2.1710236 2.275076 2.3692715 2.4552977
0001b0 31 32 22 40 32 e2 26 40 8c 3f 2b 40 10 54 2f 40
       2.5343134 2.6075559 2.6757536 2.7395058
0001c0 00 00 00 00 10 54 2f 3f 0d f2 8a 3f 10 54 af 3f
       0.0 0.68487644 1.0855118 1.3697529
0001d0 cb 8b cb 3f d8 9b e2 3f ee 1a f6 3f b7 7e 03 40
       1.5902036 1.770381 1.9226968 2.054609
0001e0 0d f2 0a 40 d8 9a 11 40 25 a2 17 40 99 23 1d 40
       2.1710236 2.275076 2.3692715 2.4552977
0001f0 31 32 22 40 32 e2 26 40 8c 3f 2b 40 10 54 2f 40
       2.5343134 2.6075559 2.6757536 2.7395058
000200 00 00 00 00 10 54 2f 3f 0d f2 8a 3f 10 54 af 3f
       0.0 0.68487644 1.0855118 1.3697529
000210 cb 8b cb 3f d8 9b e2 3f ee 1a f6 3f b7 7e 03 40
       1.5902036 1.770381 1.9226968 2.054609
000220 0d f2 0a 40 d8 9a 11 40 25 a2 17 40 99 23 1d 40
       2.1710236 2.275076 2.3692715 2.4552977
000230 31 32 22 40 32 e2 26 40 8c 3f 2b 40 10 54 2f 40
       2.5343134 2.6075559 2.6757536 2.7395058
000240 00 00 00 00 10 54 2f 3f 0d f2 8a 3f 10 54 af 3f
       0.0 0.68487644 1.0855118 1.3697529
000250 cb 8b cb 3f d8 9b e2 3f ee 1a f6 3f b7 7e 03 40
       1.5902036 1.770381 1.9226968 2.054609
000260 0d f2 0a 40 d8 9a 11 40 25 a2 17 40 99 23 1d 40
       2.1710236 2.275076 2.3692715 2.4552977
000270 31 32 22 40 32 e2 26 40 8c 3f 2b 40 10 54 2f 40
       2.5343134 2.6075559 2.6757536 2.7395058
000280 00 00 00 00 10 54 2f 3f 0d f2 8a 3f 10 54 af 3f
       0.0 0.68487644 1.0855118 1.3697529
000290 cb 8b cb 3f d8 9b e2 3f ee 1a f6 3f b7 7e 03 40
       1.5902036 1.770381 1.9226968 2.054609
0002a0 0d f2 0a 40 d8 9a 11 40 25 a2 17 40 99 23 1d 40
       2.1710236 2.275076 2.3692715 2.4552977
0002b0 31 32 22 40 32 e2 26 40 8c 3f 2b 40 10 54 2f 40
       2.5343134 2.6075559 2.6757536 2.7395058
0002c0 00 00 00 00 10 54 2f 3f 0d f2 8a 3f 10 54 af 3f
       0.0 0.68487644 1.0855118 1.3697529
0002d0 cb 8b cb 3f d8 9b e2 3f ee 1a f6 3f b7 7e 03 40
       1.5902036 1.770381 1.9226968 2.054609
0002e0 0d f2 0a 40 d8 9a 11 40 25 a2 17 40 99 23 1d 40
       2.1710236 2.275076 2.3692715 2.4552977
0002f0 31 32 22 40 32 e2 26 40 8c 3f 2b 40 10 54 2f 40
       2.5343134 2.6075559 2.6757536 2.7395058
000300 00 00 00 00 10 54 2f 3f 0d f2 8a 3f 10 54 af 3f
       0.0 0.68487644 1.0855118 1.3697529
000310 cb 8b cb 3f d8 9b e2 3f ee 1a f6 3f b7 7e 03 40
       1.5902036 1.770381 1.9226968 2.054609
000320 0d f2 0a 40 d8 9a 11 40 25 a2 17 40 99 23 1d 40
       2.1710236 2.275076 2.3692715 2.4552977
000330 31 32 22 40 32 e2 26 40 8c 3f 2b 40 10 54 2f 40
       2.5343134 2.6075559 2.6757536 2.7395058
000340 00 00 00 00 10 54 2f 3f 0d f2 8a 3f 10 54 af 3f
       0.0 0.68487644 1.0855118 1.3697529
000350 cb 8b cb 3f d8 9b e2 3f ee 1a f6 3f b7 7e 03 40
       1.5902036 1.770381 1.9226968 2.054609
000360 0d f2 0a 40 d8 9a 11 40 25 a2 17 40 99 23 1d 40
       2.1710236 2.275076 2.3692715 2.4552977
000370 31 32 22 40 32 e2 26 40 8c 3f 2b 40 10 54 2f 40
       2.5343134 2.6075559 2.6757536 2.7395058
000380 00 00 00 00 10 54 2f 3f 0d f2 8a 3f 10 54 af 3f
       0.0 0.68487644 1.0855118 1.3697529
000390 cb 8b cb 3f d8 9b e2 3f ee 1a f6 3f b7 7e 03 40
       1.5902036 1.770381 1.9226968 2.054609
0003a0 0d f2 0a 40 d8 9a 11 40 25 a2 17 40 99 23 1d 40
       2.1710236 2.275076 2.3692715 2.4552977
0003b0 31 32 22 40 32 e2 26 40 8c 3f 2b 40 10 54 2f 40
       2.5343134 2.6075559 2.6757536 2.7395058
0003c0 00 00 00 00 10 54 2f 3f 0d f2 8a 3f 10 54 af 3f
       0.0 0.68487644 1.0855118 1.3697529
0003d0 cb 8b cb 3f d8 9b e2 3f ee 1a f6 3f b7 7e 03 40
       1.5902036 1.770381 1.9226968 2.054609
0003e0 0d f2 0a 40 d8 9a 11 40 25 a2 17 40 99 23 1d 40
       2.1710236 2.275076 2.3692715 2.4552977
0003f0 31 32 22 40 32 e2 26 40 8c 3f 2b 40 10 54 2f 40
       2.5343134 2.6075559 2.6757536 2.7395058

mamba.layers.0.mixer.D f4 [64]
000000 10 84 7d 3f 23 b6 81 3f b9 a1 7a 3f 9e 0d 7b 3f
       0.99029636 1.0133709 0.9790302 0.98067653
000010 14 0f 8a 3f 16 8b 7a 3f f7 dc 80 3f 4a 58 83 3f
       1.0785851 0.9786848 1.0067433 1.0261319
000020 ef a5 85 3f a4 c9 7a 3f 9f 16 7c 3f 53 b3 7a 3f
       1.0441264 0.9796393 0.9847202 0.9792988
000030 f3 c0 7a 3f 5b 51 8f 3f 6b 4d 7f 3f 88 cc 87 3f
       0.9795067 1.1196703 0.99727505 1.0609293
000040 3d 0a 8e 3f 2c 01 7e 3f 0e 74 78 3f f7 ea 7d 3f
       1.1096874 0.9922054 0.97052085 0.9918665
000050 28 23 80 3f 0e 57 80 3f ee 71 86 3f 32 0c 81 3f
       1.0010729 1.0026567 1.0503519 1.0081847
000060 41 10 78 3f e1 a2 80 3f eb 11 7a 3f 48 8e 7d 3f
       0.968998 1.0049707 0.9768359 0.9904523
000070 05 ba 77 3f 5e 7a 77 3f 13 ed 7d 3f 0c b1 7c 3f
       0.9676822 0.9667109 0.9918987 0.9870765
000080 00 31 77 3f f5 e8 7f 3f dd a1 79 3f 61 95 7b 3f
       0.96559143 0.9996484 0.9751261 0.9827481
000090 2f a7 84 3f a6 f5 80 3f f6 a8 82 3f b3 17 7e 3f
       1.036352 1.0074966 1.0207813 0.9925491
0000a0 74 6d 7f 3f 8b a3 85 3f e5 9e 7c 3f ed af 86 3f
       0.9977639 1.0440534 0.98679954 1.0522438
0000b0 35 10 7e 3f e0 48 7b 3f 18 4f 7b 3f 46 ce 79 3f
       0.9924348 0.98158073 0.9816756 0.97580373
0000c0 c0 98 7f 3f 41 c3 82 3f a4 e9 7e 3f a8 80 81 3f
       0.99842453 1.0215837 0.9957526 1.0117388
0000d0 bd 0e 7c 3f 8f d0 7d 3f d2 fc 83 3f 36 b4 7b 3f
       0.9845999 0.9914636 1.031153 0.98321855
0000e0 1e 37 7e 3f 8b 46 87 3f df 7d 7f 3f f2 3e 83 3f
       0.9930285 1.0568403 0.9980144 1.0253584
0000f0 d7 af 7b 3f 63 ff 81 3f 42 96 7d 3f 45 cb 82 3f
       0.98315185 1.0156063 0.990574 1.0218283

mamba.layers.0.mixer.in_proj.weight f4 [128, 32]
000000 4c 42 04 3e 2f ce f0 3d ce 43 c1 3d 4a 9c ca bc
       0.12915915 0.117580764 0.09436761 -0.024732728
000010 1b 39 4b bd a5 b4 e3 bd 48 04 7f 3d 1a 66 e1 3d
       -0.049615007 -0.111184396 0.062259942 0.110058025
000020 69 9e 1b be a7 6d 10 3e 75 11 b5 3c c7 f7 5c 3c
       -0.15197147 0.14104329 0.02210305 0.013486809
000030 35 19 0b 3e bf fe e1 bd 0c b0 e0 3d 0d 30 dd 3d
       0.13583834 -0.11034917 0.10971078 0.108001806
000040 b3 d8 9f bd c6 94 ba 3d b2 1e 08 bd 7c d9 01 3e
       -0.07805004 0.091104075 -0.0332324 0.1268062
000050 78 a2 ee 3d bc 47 14 ba 99 04 10 3e 05 40 3c be
       0.11652082 -0.0005656441 0.14064254 -0.18383797
000060 6c 75 ed bd e6 ac 59 bd 6f 53 d6 bd d8 65 1f 3d
       -0.11594662 -0.053143404 -0.104651324 0.038915485
000070 07 f8 08 be f6 cd 88 bd b6 3a 0f 3d f4 02 56 3e
       -0.13375865 -0.06679909 0.0349681 0.20899564
000080 d3 8f ef 3c 7f 7d cc 3d 07 65 11 3e c3 d3 5d bd
       0.029243385 0.09984874 0.14198695 -0.05415703
000090 ed cc 7c 3d 75 49 e7 bc f7 d1 54 3d df 34 8f bd
       0.06171887 -0.02823327 0.05195805 -0.06992506
0000a0 71 7f 10 3d 2b 00 a8 bc da 19 51 bd a3 41 d4 bc
       0.035277788 -0.020507893 -0.051050045 -0.025910204
0000b0 30 71 7b 3d cc 5c eb 3c 4f 86 57 3e c0 1c 81 3d
       0.06138724 0.028730772 0.21047328 0.06304312
0000c0 f3 c4 28 be 9c d4 1a 3e dc ae 45 be d2 8e 71 bd
       -0.1648138 0.15120167 -0.19304985 -0.058974095
0000d0 87 ce 31 be 64 3c f9 3d ae f5 23 3e 69 34 8d bd
       -0.1736394 0.12169722 0.16011688 -0.06894762
0000e0 89 53 da 3d 98 93 37 3d 37 8f b4 bb 6f 5d 08 3d
       0.10660464 0.04481849 -0.0055102366 0.03329223
0000f0 80 ba a9 bc 6f 31 cf bd 29 41 71 bd f7 52 da bb
       -0.020718813 -0.101168506 -0.058900032 -0.006662722
000100 1d 15 78 bd 68 c9 10 3e 63 4e f3 3d c3 e0 b0 3b
       -0.06056701 0.1413933 0.118801855 0.0053978874
000110 1e b4 02 3c fa d8 ae 3d 6f c8 bc bb 8e 88 c2 3d
       0.007977514 0.08537479 -0.0057611982 0.09498702
000120 95 4e 96 3a ae e4 d1 bd a0 21 cb 3c 0b 07 d3 bd
       0.0011467511 -0.10248695 0.024796307 -0.10304078
000130 33 bf ac bc b0 ad 29 be 80 82 e5 bc ee 5a 23 3e
       -0.021087265 -0.16570163 -0.028016329 0.15952656
000140 de 61 e9 bc 48 b9 76 3d c2 4a 1a be 51 1b 2e be
       -0.02848905 0.06023529 -0.1506758 -0.17002608
000150 b5 02 c9 bd dc 59 e1 ba c7 b4 14 3d f5 54 2b be
       -0.098149695 -0.0017192918 0.036305215 -0.16731627
000160 84 94 23 3e 69 39 b8 bc 97 9f 3f bd 74 24 94 3d
       0.15974623 -0.022488313 -0.046783056 0.072335154
000170 32 ff 61 bc 49 bc 67 bd 3b 31 43 be fa f8 c3 bd
       -0.013793753 -0.056576047 -0.19061749 -0.09568973
000180 90 9d bb 3c 2f 80 0b 3e 83 8e a3 3d c5 91 97 bc
       0.02290228 0.13623117 0.07986166 -0.018502126
000190 39 a6 b8 3c 43 52 27 bd 25 9d ce bc f3 eb 4c 3e
       0.022540199 -0.040849935 -0.025221417 0.20011882
0001a0 34 fa cd bd 3a 24 9e 3c ee cc 4e bd de 9e 21 be
       -0.10057488 0.019304384 -0.050488405 -0.1578326
0001b0 86 71 77 be f6 98 cf bc 5d 33 0d be 04 8c 4c 3d
       -0.241644 -0.025341492 -0.13789125 0.049938217
0001c0 70 6e 9c 3c e4 4f 02 3e f5 eb 0c 3e 50 79 9d 3d
       0.01909563 0.12725788 0.13761885 0.07689154
0001d0 83 b2 fb 3c a6 13 ef 3b d6 01 05 bd e5 e9 1a 3d
       0.03072477 0.0072960434 -0.032472454 0.037820715
0001e0 f2 d9 e2 bd 34 43 ff bd 46 86 e4 bd df 62 f1 3d
       -0.11076726 -0.1246399 -0.11158423 0.11786436
0001f0 af 97 52 3c 2c 8c 62 bd bf e4 4b bd 7b bd 66 bd
       0.012853547 -0.05530946 -0.049778696 -0.056333046
000200 61 42 69 3e 37 06 36 be 41 8d 3d 3c 62 ea b4 bd
       0.22779228 -0.17775808 0.011569322 -0.088337675
000210 4d 2b 32 3e aa 09 e7 3c e6 47 60 3e 4b ff a8 bd
       0.1739933 0.02820285 0.21902427 -0.08251818
000220 24 be d4 3d d3 56 91 3d 07 39 12 be ec 13 16 3d
       0.10387829 0.070966385 -0.14279567 0.036640093
000230 93 7c ec 3d db ed e2 bd d5 90 91 bd 37 27 a9 3d
       0.11547198 -0.110805236 -0.07107703 0.08259433
000240 04 6d a0 3d 96 50 1b be 80 74 14 3e 82 f5 36 3e
       0.07833293 -0.1516746 0.14497566 0.17867091
000250 c7 57 10 be 70 70 8d 3d d2 f1 13 bc 67 46 87 be
       -0.14095984 0.069062114 -0.009029822 -0.264209
000260 92 87 9f 3d 51 fa a3 3d f5 a1 57 3e 49 33 79 bd
       0.0778953 0.080067284 0.21057875 -0.060839925
000270 b6 0d 92 3d 0e a0 e7 3d 36 8b 8f 3d a8 d5 6d 3d
       0.071315214 0.11309825 0.07008974 0.058065087
000280 c3 56 06 3d 74 ae fc 3d 12 04 ca 3d b4 c8 f5 bd
       0.032797586 0.12337962 0.098640576 -0.12001172
000290 b5 9a 35 3d f6 24 92 3d 7c cb 27 3e 21 3c fc 3d
       0.044336993 0.07135956 0.16386217 0.12316156
0002a0 72 08 99 3d 5e 52 1a 3e d6 ef 3b be 8c e5 0c be
       0.07472314 0.15070483 -0.18353209 -0.1375944
0002b0 7a 20 24 3e 24 79 2c bd 6a 74 17 3d 04 0d ef bd
       0.16028014 -0.042107716 0.036976255 -0.116724044
0002c0 f5 9e 8b 3c bd ca e8 bd 83 57 26 3d a8 bd 37 3d
       0.01704357 -0.11366794 0.0406108 0.044858605
0002d0 9f ec a3 3d e8 7d e7 3d 0f cc c2 bd d7 68 1a bd
       0.08004116 0.113033116 -0.09511577 -0.03769764
0002e0 39 9b dc bd 62 ec 00 be e7 ef 49 3d 83 a3 1c be
       -0.10771794 -0.12590173 0.049301054 -0.1529675
0002f0 b6 69 30 bd b7 93 ea bd 59 cf 75 bd 4f 97 25 3e
       -0.043069564 -0.114539556 -0.060012195 0.16171001
000300 63 32 ec bd 7d 15 13 bb 99 86 03 be 15 de c2 3a
       -0.11533048 -0.0022443228 -0.12844314 0.0014867211
000310 be 78 28 3e cc 00 59 bd 88 1c 93 bd 44 38 37 3e
       0.1645231 -0.052979276 -0.07183176 0.17892557
000320 6d ba 37 3e 64 41 aa bd 57 53 99 3d a5 52 cf bd
       0.1794221 -0.083132535 0.07486599 -0.10123185
000330 48 b4 cf 3a 02 ae 5f bd 34 9b da bd 0b a8 1f 3e
       0.0015846575 -0.054609306 -0.10674134 0.15591447
000340 10 6c 0a be ee 4c 09 be 9a f2 cd 3c fd 01 08 be
       -0.13517785 -0.13408253 0.025140096 -0.13282008
000350 bb e0 e2 3c 3d 59 d0 3d 3f 0a c2 3c e8 57 0a 3e
       0.02769505 0.10173271 0.023686526 0.13510096
000360 07 b4 df 3d bc 4e 06 3e 33 91 eb ba 54 27 2e be
       0.10923009 0.13115972 -0.001797235 -0.1700719
000370 24 96 ab 3d d4 9a 00 be f5 94 cc bd 81 64 4c be
       0.083782464 -0.12559062 -0.09989349 -0.19960214
000380 8d 0b 3c 3e 09 54 8a 3b 17 11 f2 3d 9e 7d c9 bc
       0.18363781 0.0042214436 0.11819666 -0.024596032
000390 53 d7 a2 bc a1 4d b6 bc b0 7e 11 3e 12 75 48 be
       -0.019878065 -0.022253813 0.14208484 -0.19575909
0003a0 03 d4 49 3e 3f 66 13 3e 99 44 d6 bb de a4 b7 3d
       0.19709782 0.14394473 -0.006538939 0.08966993
0003b0 35 b6 83 3e 7d d1 8e 3d 2b 5c 4b 3e c1 7f e9 bc
       0.2572495 0.069735505 0.19859378 -0.0285033
0003c0 eb 7f b3 3d c9 34 37 be 55 10 d2 3d 36 6a 28 3e
       0.08764633 -0.1789123 0.10257021 0.16446766
0003d0 04 dd 84 be 82 70 a3 bd 36 32 25 bc c7 72 ce 3d
       -0.25949872 -0.079804435 -0.010082772 0.10080486
0003e0 62 31 06 bd 58 f1 07 be 2a 48 73 3d 40 14 0b bd
       -0.03276194 -0.13275659 0.059394993 -0.03395486
0003f0 aa 1b f7 3c e7 ca fc 3c 8f a2 34 bd a2 56 12 3e
       0.030164558 0.03085847 -0.04410034 0.1429086

mamba.layers.0.mixer.conv1d.weight f4 [64, 1, 4]
000000 c8 84 87 3e fc 42 e2 be 52 3d 32 be 26 0f f2 be
       0.26468492 -0.4419173 -0.17406204 -0.47277182
000010 00 6f 15 be 73 06 a2 3e f2 a0 b4 3e 5b 21 ed be
       -0.14593124 0.31645545 0.35279042 -0.4631451
000020 76 6a f0 bd 61 93 a7 3e 59 9b b6 bd c8 d0 52 3d
       -0.11739056 0.3272963 -0.08916349 0.05146864
000030 1c 2a 95 3d 37 ca 11 be 2e 6f f5 be c8 d0 8f 3d
       0.07283422 -0.14237295 -0.47936386 0.07022244
000040 a0 3d e4 3e 9c ee f2 3e aa 9e db 3e cf f4 ad be
       0.44578266 0.4744767 0.4289449 -0.33975837
000050 2a 86 14 3d c2 16 a4 be 49 7f ca 3e d5 2c 71 be
       0.03626076 -0.32048613 0.39550236 -0.23552258
000060 44 fe ab 3e df e3 d6 be 3f 55 09 3e 52 dc 53 be
       0.33592427 -0.41970727 0.13411425 -0.20689514
000070 5f d6 8e be 12 c5 5d be f0 32 f3 3e 1e e3 8d be
       -0.27897927 -0.21657208 0.474998 -0.2771234
000080 8f d1 a0 3e 8b d0 d6 bd 0f 39 f6 3e 6d be 09 3e
       0.3140988 -0.10488995 0.48090407 0.13451548
000090 de 35 c6 3e e1 0e c3 3d 3d 32 dd bd 1c e7 c5 3e
       0.38712972 0.09524322 -0.10800598 0.38652885
0000a0 72 02 70 be dd ea 5f be 24 10 d2 3e 18 25 22 3d
       -0.23438433 -0.21866937 0.4102794 0.039586157
0000b0 72 5e ec 3e 8e 80 d1 be a3 6f 97 3e 67 f8 a0 3d
       0.46165806 -0.40918392 0.2957736 0.07859879
0000c0 dc aa 83 3e 82 12 6e 3e 02 94 9b 3e 44 ea 7d 3e
       0.25716293 0.23249248 0.30386358 0.24796396
0000d0 fe a0 ca 3c b2 a9 f7 be 6e c7 22 3e 30 8e 3b be
       0.02473497 -0.48371655 0.15896389 -0.18315959
0000e0 e8 8a 21 be a5 5d 8a 3e 64 b6 96 be ae 0b 91 be
       -0.15775645 0.2702457 -0.29436028 -0.28329223
0000f0 c5 35 2e 3e f9 69 bb be 0a a8 66 bd 37 17 82 be
       0.17012699 -0.36604288 -0.0563126 -0.25408337
000100 87 3d e3 be ad 88 08 be 7e 7b c5 be 01 ee 8c be
       -0.4438288 -0.13333388 -0.3857078 -0.27525333
000110 36 06 83 be a7 24 f0 3d 15 30 1f bc 3f 9f c9 be
       -0.25590676 0.11725741 -0.0097160535 -0.39379308
000120 20 02 bf 3e cd ba c3 3e f9 f3 39 be a0 b0 88 3e
       0.3730631 0.38228455 -0.18159474 0.26697254
000130 61 98 fa 3e a5 e6 cb 3d 04 5e a0 be 7e 2d a8 3d
       0.4894438 0.09956101 -0.31321728 0.08211802
000140 f1 9e b1 be fc f7 18 bc 99 d4 7c be 99 e9 ab bd
       -0.34691575 -0.009336468 -0.24690475 -0.083941646
000150 ec bb f1 3e 62 3b 83 3e e0 3a 18 3e 21 a4 17 3e
       0.47213686 0.25631243 0.14866209 0.14808704
000160 3d 43 af bc 63 29 7d 3e ee 9a a6 3e cf 67 af 3e
       -0.021394366 0.24722819 0.32540077 0.34258887
000170 16 b2 8c 3e 92 eb 6d be 3d f6 83 3e 5f f7 b1 3e
       0.2747962 -0.23234394 0.25773802 0.34759042
000180 60 c7 58 3e 37 7e cf 3e e8 78 a5 3d 29 ab d6 3e
       0.21169806 0.40525982 0.08079702 0.4192746
000190 ef d4 8e 3d 2c 11 82 3e 99 26 56 bd ff e9 b7 3e
       0.069742076 0.25403726 -0.052282903 0.35920712
0001a0 61 e1 d3 be 3a 36 75 3e 24 d4 dd 3e b7 3b 56 be
       -0.41382888 0.23946467 0.43325913 -0.20921217
0001b0 fb 7b c8 bd c8 4b c8 be 04 9e 88 be 3c 8f 88 be
       -0.097892724 -0.39120317 -0.26683056 -0.2667178
0001c0 ff a3 36 be 44 f2 6e bd 37 85 86 3e 70 db 0d 3a
       -0.17835997 -0.05833651 0.2627351 0.0005411422
0001d0 da e9 db bd 73 f5 af 3d 20 4c db 3e 85 46 12 3e
       -0.10737963 0.085917376 0.42831516 0.14284714
0001e0 83 ed 81 be 03 a7 d9 3d 54 0d 89 be bf 32 80 be
       -0.2537652 0.10627558 -0.2676798 -0.25038716
0001f0 c7 ab 9a be 36 75 22 3e 70 08 b2 3e 41 72 4d 3e
       -0.3020918 0.15865025 0.34772062 0.20063116
000200 6d 24 20 be da e6 b2 3e 68 4a 5c bd 64 9c ac be
       -0.15638895 0.3494175 -0.053781897 -0.33713067
000210 eb d5 ad 3e d1 50 8f 3d d6 b7 ee be 84 e9 d1 3e
       0.3395227 0.069978364 -0.4662463 0.4099847
000220 1d 57 99 bd 27 ec 01 3e f9 6d 86 3d ce 60 d5 bb
       -0.07487319 0.12687741 0.06563944 -0.006511784
000230 ba ca 29 3e a5 f3 06 3e c5 f4 9b be 4a 57 88 be
       0.1658124 0.1317888 -0.30460182 -0.26629096
000240 df 5c e3 be 11 f7 80 bd 50 2b 05 be 02 6e ad 3e
       -0.44406793 -0.06297124 -0.13004804 0.33872992
000250 fc 82 b7 3e 30 ae ef 3d 19 83 b6 3e 0e af 82 3d
       0.3584212 0.117031455 0.35646895 0.06381045
000260 e2 6f ea bc 80 83 95 be 07 f3 f4 3e 37 7c b8 be
       -0.028617803 -0.2920189 0.47841665 -0.36032268
000270 3f e1 b4 be e6 06 a9 be 77 d6 1b 3d 30 0a 07 be
       -0.353281 -0.33013076 0.038046326 -0.1318748
000280 a1 3e 8f be 12 35 ca 3e 6a 05 88 3e 94 7e 0f 3e
       -0.2797747 0.39493614 0.2656663 0.1401313
000290 2e f2 c3 be 70 c2 66 3e 65 33 7d 3e 37 b4 9d be
       -0.38270706 0.2253511 0.24726637 -0.30801556
0002a0 32 c7 38 3e 45 7d c1 bd 6c 1d b9 be 51 ce 11 be
       0.18044737 -0.094477214 -0.3615526 -0.1423886
0002b0 1d 60 dd be cc d4 25 3e da 0d bb 3e 35 40 8f 3e
       -0.4323739 0.16194457 0.36534005 0.27978674
0002c0 79 46 d8 be 38 c4 9c bd 5d cd 42 3e fb 3d 44 be
       -0.42241266 -0.07654613 0.19023652 -0.19164269
0002d0 12 7a 8c be a2 52 42 bd 5a 9e 38 bd 37 62 45 3d
       -0.27436882 -0.047442086 -0.04507289 0.048189368
0002e0 a8 3d 08 3c c6 d0 64 be 4d 30 d0 3e fb 3e e4 be
       0.008315481 -0.22345266 0.4066185 -0.445793
0002f0 4d 77 a8 3e 15 fa 2d be bf cd 68 be eb 0d d0 be
       0.3290352 -0.1698993 -0.22734736 -0.4063562
000300 4e a4 73 bc 21 59 e8 be 6b 13 b9 bd 81 01 9e bd
       -0.014870716 -0.453805 -0.09036907 -0.077151306
000310 a4 a9 b0 3e 91 8f c7 3e e1 a3 d9 be 1b d7 8e 3e
       0.34504426 0.3897672 -0.42507842 0.27898487
000320 67 48 a2 be 25 dc a6 be 5b 21 2d bd ee 23 c8 3e
       -0.31695864 -0.32589832 -0.04226814 0.39089912
000330 f1 b1 e7 3e 82 67 e5 3e 1f 7e a4 be 9a 61 a3 be
       0.45252946 0.44805533 -0.32127473 -0.31910402
000340 6d eb c6 be ff a7 db 3e cc 21 16 3e 67 45 8c 3d
       -0.3885149 0.42901608 0.1466133 0.06849175
000350 4f 19 3d bd 60 da c0 3e 49 fc e1 be 27 1b 4a 3e
       -0.046166714 0.37666607 -0.4413779 0.1973692
000360 ec e0 2e be da 12 bd bd 25 92 7f 3e d6 63 7f 3e
       -0.17077988 -0.09232111 0.24958093 0.24940428
000370 ff 90 9c be 7a b8 e5 be 8c fd 90 3e 5a 97 f1 3e
       -0.30579373 -0.44867307 0.2831844 0.47185785
000380 08 f6 43 3e a2 e3 95 3c 33 17 7d 3e c4 9f a9 be
       0.19136822 0.01829702 0.24715881 -0.33129704
000390 5b 01 e3 3c 20 94 99 3e 70 6e f1 3e 41 e5 8f be
       0.027710607 0.29995823 0.4715457 -0.28104594
0003a0 14 92 d2 3e 33 07 2d be c7 94 c6 bc f6 19 ad be
       0.41127074 -0.16897278 -0.024240864 -0.3380887
0003b0 64 c5 eb be f8 ee aa 3e 4e 78 44 3d ae 3d d2 be
       -0.46049035 0.33385444 0.047966294 -0.41062683
0003c0 76 b0 aa 3e 71 a4 d7 bc 14 fc e5 3e de e5 bf 3e
       0.33337754 -0.026323529 0.44918883 0.37480062
0003d0 1f ca f7 be 7b f1 83 3d f5 8e 83 be 65 d9 eb be
       -0.48396394 0.06442543 -0.25695005 -0.46064296
0003e0 86 d5 6d bd 70 bf dd bd 09 f9 5a be c8 63 b0 bc
       -0.05806496 -0.108275294 -0.21384062 -0.021531954
0003f0 f1 80 4c 3e 9b 66 aa 3c 6c 07 7a be a2 6a 4f 3d
       0.19971062 0.02080088 -0.24416894 0.050638802

mamba.layers.0.mixer.conv1d.bias f4 [64]
000000 2e 7e f9 3e 6a 34 a4 3e 0c d2 04 3e f8 17 a2 3e
       0.4872908 0.3207124 0.12970752 0.31658912
000010 50 5b cd bd fd a9 34 3e ae 4d b2 3e 8f f3 36 bb
       -0.10027182 0.1764297 0.3482489 -0.0027916168
000020 1d 3e 51 3e a3 99 3a be 0b c9 f0 bd 8a 8b 0b 3e
       0.2043385 -0.1822267 -0.11757096 0.13627449
000030 7a 98 00 3e 02 9e 0a 3f 10 a6 90 be 09 17 e1 bd
       0.12558165 0.5414735 -0.28251696 -0.10990722
000040 22 49 da be 45 b2 b9 be bf e3 8f be 7c 9e 9a 3e
       -0.4263392 -0.3626882 -0.28103444 0.3019904
000050 8a a6 a7 3e 12 1a 15 be cb f9 ba bd e8 a7 c4 be
       0.32744247 -0.14560726 -0.091296755 -0.38409352
000060 c2 21 d6 be 50 ad 30 be ca e2 40 3e dc 34 b5 3e
       -0.4182263 -0.17253613 0.18836513 0.3539189
000070 ef f8 eb 3e 8d fd ce be 51 3f 01 be ba 75 88 be
       0.4608836 -0.4042782 -0.1262181 -0.26652318
000080 c4 79 6f be 60 f5 c7 be 5d 43 b1 be 78 39 ee be
       -0.23386294 -0.39054394 -0.34621707 -0.4652822
000090 bb d9 ba be f3 3a d6 be 99 9a 76 3e 8d c7 0d 3e
       -0.3649424 -0.4184185 0.24082412 0.13845654
0000a0 34 47 eb 3d be b7 83 bd b3 35 a6 be 1a 13 fb 3c
       0.1148819 -0.064315304 -0.32462844 0.030648757
0000b0 c7 90 de 3e b8 34 e7 bc 3e 47 c4 be 3c 36 9d 3e
       0.4346983 -0.02822338 -0.38335603 0.3070544
0000c0 1a 7c 9e be 45 3b 01 bf 7f 6e 6b 3e 19 6b e2 3e
       -0.30954057 -0.50481063 0.2299137 0.44222334
0000d0 62 2a d8 be 6b 21 a7 3e 82 8e c9 3b 63 88 8c 3d
       -0.42219836 0.32642683 0.0061510215 0.06861951
0000e0 3d d2 15 be e5 98 e8 be 12 ab 0a bd c9 a3 80 be
       -0.14630981 -0.4542915 -0.03385455 -0.25124958
0000f0 00 54 cc 3e 6b 63 d2 be 11 cd ac 3e ff f1 50 3e
       0.39907837 -0.41091475 0.33750203 0.20404814

mamba.layers.0.mixer.x_proj.weight f4 [34, 64]
000000 ae 08 09 3e 4e 22 33 3e 9a 3f 73 3e d6 18 47 3e
       0.13382217 0.17493555 0.23754731 0.19443068
000010 b0 37 2d 3e 79 f9 ac 3e 81 2d a5 3e 49 19 6b bd
       0.16915774 0.33784083 0.3226128 -0.05739716
000020 6a cf ab 3e 51 cb 93 be d8 30 b8 be 92 cb f3 3d
       0.33556682 -0.28866056 -0.35974765 0.11904062
000030 c8 02 97 3e 6e 78 97 3e b2 ed bd be 34 9f 5c be
       0.2949431 0.29584068 -0.3709541 -0.21545106
000040 9f 9c 86 be 8f 82 e6 bd 55 94 a4 be 3d 2f 58 3e
       -0.26291367 -0.11255371 -0.32144418 0.2111177
000050 0f 25 8f 3e c8 70 2f be 28 06 2c 3e bd 3e 29 be
       0.2795796 -0.17132866 0.16799223 -0.16527839
000060 ee 8c e2 bd 5c a6 17 bd cd 73 9c 3e e1 5b 90 3e
       -0.110620365 -0.037023887 0.305571 0.28195098
000070 50 ce 5a 3e 39 98 92 be 6f e5 b1 be 28 df 6b be
       0.21367764 -0.28631762 -0.34745356 -0.23034346
000080 e1 59 c1 be 2e 52 38 be cd 13 8d be fc 8e 98 be
       -0.37763885 -0.18000099 -0.2755417 -0.29796588
000090 d6 04 ae be f3 98 98 be 93 f8 58 3e 8b af bc 3e
       -0.33988065 -0.2980419 0.21188574 0.3685268
0000a0 48 01 83 3d 20 f2 e4 be 0b d4 43 be c3 04 72 be
       0.06396729 -0.44715977 -0.19123857 -0.23634629
0000b0 5b 90 7f 3e 50 fc 14 3e 55 61 89 be de 9a db 3d
       0.24957411 0.14549375 -0.2683207 0.10722898
0000c0 e4 4a 49 be e7 b1 b9 be c8 6b 83 3e 29 26 38 3e
       -0.19657475 -0.3626854 0.25668168 0.17983307
0000d0 d5 84 81 be 72 35 91 3e 4a e3 fe 3d b2 22 90 bd
       -0.25296655 0.28361088 0.12445696 -0.070378676
0000e0 69 f5 54 be e9 64 b6 be ab 1d 01 be 9b 72 d4 be
       -0.20796742 -0.35623863 -0.12608974 -0.41493687
0000f0 5d ac ae bd 96 b6 92 be 09 13 17 3e a2 a0 97 3e
       -0.085289694 -0.28654927 0.14753355 0.2961474
000100 21 9d 0f 3e 83 d0 96 bd d3 39 ff bc 54 d1 33 3d
       0.14024784 -0.07363989 -0.031155502 0.043900803
000110 39 d3 05 3b ed 3c ff 3d a2 4c fc 3c 3e 8d 56 3c
       0.0020420088 0.124627925 0.03079826 0.013095198
000120 59 e4 54 3c bc 7a 71 bd e0 3d 7a 3d 43 22 9c 3d
       0.012993895 -0.05895494 0.061094165 0.076237224
000130 96 66 8b 3c 32 67 25 3e 56 4a e7 bd ac ab 1f be
       0.01701669 0.16152647 -0.11293475 -0.15592831
000140 43 0f ff 3c 50 07 ca 3d 21 98 d6 3d 39 19 28 3d
       0.031135207 0.09864676 0.10478235 0.04103968
000150 1a 7d b9 3d 9d f0 ad bc 2d 4b 0a be 64 2a 5f bd
       0.09057064 -0.021232897 -0.1350524 -0.054483786
000160 37 94 f1 3d f9 45 d2 bb 59 eb 3f 3d 72 57 8c 3c
       0.11795848 -0.006417033 0.046855304 0.01713154
000170 a6 96 81 bd b7 20 32 be e8 56 ce 3c 4c 65 8b 3c
       -0.06327562 -0.17395292 0.025187925 0.017016076
000180 4f 97 e2 3a bb a7 d7 ba e1 c9 0a be 39 ff 7a 3d
       0.0017287525 -0.0016453186 -0.13553573 0.061278556
000190 a8 09 46 be bf 26 16 be f8 67 0c 3e 39 e4 ce 3c
       -0.19339621 -0.14663218 0.13711536 0.02525531
0001a0 4b 6b ab bc b1 b7 4e bc 06 99 9a bc 07 c7 b3 bc
       -0.020925185 -0.012617038 -0.018871795 -0.02194549
0001b0 1b f1 3a 3c d4 83 68 3d 27 fd e7 bc e6 14 b9 3d
       0.011410023 0.056766346 -0.028318955 0.09037189
0001c0 f0 6a b1 bc 67 b6 e6 bd 20 35 4e bd 57 57 b5 3d
       -0.021657437 -0.11265259 -0.050343633 0.088545494
0001d0 f8 cc 5f bd 2f 5f 07 3e 17 d9 3f be ed a6 0c 3e
       -0.054638833 0.13219903 -0.18735157 0.13735552
0001e0 9a da 0d be fd 3d 12 bd 51 d2 32 be 67 f5 29 3d
       -0.13852921 -0.035703648 -0.17463042 0.0414938
0001f0 19 66 ac 3d 03 0e 07 be 39 5e 82 3b b4 3f 09 3d
       0.08417911 -0.13188939 0.0039785174 0.033508018
000200 3d 7d 12 bd 22 25 69 bd ba 6a 07 3d f9 a5 9c bd
       -0.035763968 -0.05692018 0.033060767 -0.07648844
000210 e7 1a 45 be 61 5c a6 bd 4a 61 fe bc e4 0d b9 bc
       -0.19248544 -0.08123089 -0.03105225 -0.022589631
000220 48 82 23 3d b4 c5 e3 3d e1 92 c9 bd a3 6d d7 bd
       0.039919168 0.11121693 -0.09842468 -0.105189584
000230 14 24 df bc 34 43 75 bc c2 a7 49 3a 2a d3 2b 3d
       -0.027238883 -0.014969636 0.00076925394 0.04194943
000240 eb 87 3b 3d 38 65 0e 3d 41 07 2f bd bd c1 22 bc
       0.04578392 0.0347645 -0.042731527 -0.009933886
000250 5c 17 b5 bd 02 67 29 bd c4 8d d7 bd d3 9f f3 3d
       -0.08842346 -0.041358 -0.105250865 0.118957184
000260 e8 9c c7 3d 31 18 48 bd 53 a7 04 be fa 45 cd bd
       0.09746724 -0.048851196 -0.12954454 -0.100231126
000270 8d 1e ad 3d 09 79 f1 3d 63 af da bd ec 33 06 be
       0.08453093 0.11790664 -0.106779836 -0.13105744
000280 02 b6 bd 3d 5b 6c d4 3c 73 73 b2 3d 68 56 a2 bb
       0.09263231 0.025930574 0.087134264 -0.004954148
000290 63 b2 b3 bd c7 09 ef bd 7b 7b 41 3d 8c 5d 90 3d
       -0.08774259 -0.11671787 0.0472369 0.07049093
0002a0 96 02 8b bd ca 92 3f 3d 63 2e 8d 3d e7 d8 aa 3c
       -0.067876026 0.04677085 0.06893613 0.02085538
0002b0 9e 04 02 be 43 d3 ff bd f2 c6 89 bb 27 f0 08 3d
       -0.12697074 -0.12491467 -0.0042046243 0.033432152
0002c0 aa 0c 76 bd d4 42 93 3c cf f3 ab 3d c2 29 c4 bd
       -0.06007067 0.017976202 0.08396112 -0.09578277
0002d0 ba 45 db 3c 85 55 86 3d b6 a6 53 3d 80 41 7e 3c
       0.026766647 0.0655928 0.05167266 0.015518546
0002e0 87 d2 a6 bd 49 9d 57 3d da a1 f9 bd 1d 16 21 3d
       -0.08145624 0.052640233 -0.12189074 0.03932773
0002f0 0b 63 9e bc fb 0a 9c bd e1 65 26 bd f0 ed eb bc
       -0.019334337 -0.07619282 -0.040624503 -0.02879998
000300 b9 9a ab 3d 16 af ca 3c 3b eb 22 bd 2a 49 09 3e
       0.083791204 0.02474169 -0.039775115 0.13406816
000310 43 d7 03 3e 97 a4 c0 3d 7e 56 d7 bc a4 5c d2 bd
       0.12875085 0.09406393 -0.02628636 -0.10271576
000320 3d c2 0f 3b e6 3e 1c be ef 93 9f bd 91 30 86 3d
       0.0021935843 -0.15258369 -0.07791888 0.06552232
000330 f0 cc 42 3e 09 17 f7 3d 7a af 15 be f9 6c 13 be
       0.1902349 0.120649405 -0.1461772 -0.14397039
000340 02 fe ac bd 49 c8 d5 3c 86 33 b9 bd 86 6e 17 3e
       -0.08446886 0.02609648 -0.090430304 0.14788255
000350 d4 c5 0d 3e 04 a0 b3 3d 22 75 48 3e 6c 69 8e 3c
       0.13844997 0.08770755 0.19575933 0.017384253
000360 df ed f9 bd ba 3d af 3d 0d 95 13 3e 1f 23 bd bd
       -0.122035734 0.08556695 0.14412327 -0.092352144
000370 bd aa 99 3d 25 16 d6 bd 4b a7 50 be 6e f4 17 be
       0.07503269 -0.104534425 -0.20376317 -0.14839336
000380 de 2b 87 be ac 3f 58 3d c4 24 27 bd 94 77 ba bc
       -0.26400656 0.052795097 -0.040806547 -0.022762097
000390 4b ea 1f be 29 f6 a1 bc ed 09 7d 3d 96 ef 54 3e
       -0.1561672 -0.019770699 0.061777044 0.2079452
0003a0 15 c1 37 bd 74 2e ad be f5 4d 81 39 07 5a 09 3d
       -0.04486187 -0.33824503 0.0002466288 0.033533122
0003b0 a8 d7 79 3e 22 a3 ed 3d ee b4 aa bd 9f 7d fd 3d
       0.24398673 0.11603381 -0.08335291 0.12377476
0003c0 04 49 5d bd 5f ef 9c bd ae c7 81 bc a5 5c 41 3d
       -0.05402471 -0.07662844 -0.015842285 0.047207493
0003d0 2a b9 01 be ba aa 03 3e df 5b 3e 3e 42 91 fb bd
       -0.1266829 0.12858096 0.18589734 -0.12283565
0003e0 be 08 40 bd ea f0 62 3c 90 7a 25 be b1 b3 93 bd
       -0.046883337 0.013851384 -0.16160035 -0.07212008
0003f0 6b 79 ba bd c0 c6 d8 3d fb 60 37 3e 80 89 16 bb
       -0.0910519 0.105847836 0.17908089 -0.002297014

mamba.layers.0.mixer.dt_proj.weight f4 [64, 2]
000000 d7 1e 1d 3d fc 01 0c bf e5 95 85 be 1c 21 0b 3e
       0.03835949 -0.5469053 -0.26090923 0.13586849
000010 a0 57 11 3e 65 60 04 bf 1c d6 2e bf 5c 2c b2 3e
       0.14193583 -0.51709586 -0.68295455 0.3479947
000020 89 c9 b3 3e d6 ec 82 3e 0d 05 96 be d3 ee 11 3d
       0.35114697 0.25571316 -0.29300728 0.03562815
000030 46 ee 7b 3d 23 78 8a bd 86 1f 5a 3d db 09 26 be
       0.061506532 -0.067611955 0.05325272 -0.16214697
000040 06 6e 1b 3f 08 81 0a 3e d3 2c be be c3 9e 7f bd
       0.6071476 0.13525784 -0.37143573 -0.062407266
000050 d7 e0 74 3f 8d ca 1a 3c 5e 12 1e 3e 4d b8 94 3d
       0.9565558 0.009447706 0.15436694 0.07261715
000060 05 19 6c 3e 78 74 ba be 0c 52 25 3f 51 bd d9 be
       0.23056419 -0.36416984 0.6457832 -0.4252725
000070 80 ed 9b be 11 ed c0 3e ec 27 46 be 20 f1 4d 3e
       -0.30454636 0.37680867 -0.19351166 0.20111513
000080 f4 8d c6 bd c8 e8 81 3e c7 d6 7f be b1 ed f1 be
       -0.09695044 0.2537291 -0.24984275 -0.47251657
000090 80 bd 26 3f 5e 82 c9 3e 40 d9 38 3f 68 ca 1c 3f
       0.65132904 0.39357275 0.722065 0.6124635
0000a0 f1 84 9b 3e 2d 91 86 be 0a 9b b7 be 15 0a 21 3f
       0.30374864 -0.26282635 -0.35860473 0.6290601
0000b0 fc da 0a 3f 5a e0 16 3e bd c8 60 3e 21 6e 43 be
       0.54240394 0.14734021 0.21951576 -0.1908498
0000c0 ba 48 13 3f 2a 7e 05 bf 14 66 2f 3d 76 1d c7 be
       0.57532847 -0.52145636 0.04282196 -0.38889664
0000d0 c6 50 0d 3f c8 50 80 3f 2b 96 16 3f 74 b4 20 bf
       0.55201375 1.0024652 0.5882289 -0.6277535
0000e0 38 47 94 bd b5 e3 b5 3e 78 f5 0c bf 1d 6d fc 3d
       -0.072401464 0.3552529 -0.55062056 0.12325499
0000f0 d3 95 fb 3e 52 e4 f9 3e 3f 01 73 ba 0b 3f 80 be
       0.49137744 0.48807007 -0.00092699 -0.25048098
000100 19 24 01 bf ff 84 16 3f a2 2b af 3e 70 6d ca be
       -0.50445706 0.58796686 0.34212977 -0.3953662
000110 0a 67 5d bb 32 47 c5 3e e3 49 fd be 44 d9 3b be
       -0.003378334 0.3853088 -0.49470434 -0.18344599
000120 6d d8 e2 bc 6e f3 33 3e 7d 52 86 be f6 e1 81 bc
       -0.02769109 0.1757333 -0.2623481 -0.015854817
000130 d8 b7 15 bf 97 2b c6 be 53 c6 6d 3e b6 28 32 bf
       -0.5848365 -0.3870513 0.23220186 -0.6959337
000140 f9 18 0b 3f 95 87 d7 be b7 ef 62 3f 07 fe a0 3c
       0.5433498 -0.42095628 0.88647026 0.01965238
000150 b2 db 18 3f 3f 17 3c 3f 82 46 05 3f e1 65 b9 be
       0.5971023 0.7347297 0.5206071 -0.3621054
000160 42 69 dc 3e f7 2c f6 be 44 dc 44 3f 07 9d 6d be
       0.43049055 -0.4808118 0.768986 -0.23204432
000170 d5 76 d1 be cf 9e 1b 3f 8a 2e 85 be f7 e9 b2 3e
       -0.40910974 0.607892 -0.2601207 0.34944126
000180 dc ea 15 3f 69 18 37 3e e7 c4 07 3f 68 36 84 3e
       0.5856149 0.17880405 0.53034824 0.2582276
000190 a6 a7 23 bd d9 df 13 bf 6c 8a 47 bd bc 6b 11 bf
       -0.039954804 -0.5776344 -0.048715994 -0.56805015
0001a0 cf 59 1d bf 61 28 82 bd 92 47 17 3f 12 b6 dd 3d
       -0.6146516 -0.06355358 0.5909358 0.10825743
0001b0 dd 08 db bd e1 97 10 bf d6 99 a9 3d a5 59 df 3d
       -0.1069505 -0.5648175 0.08281295 0.1090577
0001c0 94 ae c3 bb 6a 5e 18 3f 0f be 4e be 5c aa df 3e
       -0.005971739 0.59519064 -0.20189689 0.4368466
0001d0 cd 44 ba 3e 58 39 4e 3d 5f c6 ba 3d e4 48 0e 3f
       0.36380616 0.050347656 0.091198675 0.5557997
0001e0 47 d2 38 bf 08 97 66 3e b3 20 a4 be 83 1d 35 be
       -0.7219586 0.22518551 -0.32056198 -0.17687039
0001f0 a7 00 7e be 42 82 2b bf 77 e3 ab 3e c8 3f de 3e
       -0.24804936 -0.6699563 0.3357198 0.43408036

mamba.layers.0.mixer.dt_proj.bias f4 [64]
000000 a5 f2 ba c0 91 ec 96 c0 88 7e 9c c0 b9 71 87 c0
       -5.8421197 -4.7163777 -4.8904457 -4.232632
000010 68 89 51 c0 dc d6 cf c0 55 03 6b c0 9d 8e c7 c0
       -3.2740116 -6.494978 -3.6720784 -6.236159
000020 c8 3f bd c0 ee 3a a0 c0 10 0d c8 c0 10 41 83 c0
       -5.914036 -5.0071936 -6.2515945 -4.101692
000030 6f 3d d8 c0 cc c2 d0 c0 36 84 1f c0 4f 4c d0 c0
       -6.757499 -6.523779 -2.4924445 -6.509315
000040 c9 83 d8 c0 a0 bf d7 c0 ea 75 3f c0 fc f4 b7 c0
       -6.766087 -6.7421417 -2.991572 -5.7486553
000050 52 74 c3 c0 8b 32 61 c0 91 f5 b2 c0 da 09 2b c0
       -6.1079493 -3.51871 -5.5924764 -2.6724763
000060 51 33 96 c0 27 92 a5 c0 cf 55 84 c0 34 b2 94 c0
       -4.693764 -5.174091 -4.1354747 -4.6467533
000070 69 68 9d c0 83 86 8f c0 53 7f 62 c0 d4 80 0f c0
       -4.9189954 -4.48517 -3.5390213 -2.242238
000080 88 86 cc c0 c5 a4 45 c0 98 66 bf c0 35 e6 82 c0
       -6.3914223 -3.0881817 -5.9812737 -4.0906014
000090 98 21 53 c0 64 f8 a5 c0 41 98 44 c0 fc e4 69 c0
       -3.2989254 -5.186571 -3.0717928 -3.654601
0000a0 7c fd 15 c0 dd 11 03 c0 1a ae 14 c0 44 8c 79 c0
       -2.3435965 -2.0479653 -2.3231263 -3.8991861
0000b0 9a ca 0a c0 0f a7 a1 c0 45 36 0e c0 d3 b7 5a c0
       -2.1686158 -5.051643 -2.2220623 -3.4174697
0000c0 e9 3e af c0 ee 7e 83 c0 ea d6 6c c0 cd a5 d2 c0
       -5.4764295 -4.1092443 -3.7006173 -6.5827394
0000d0 63 21 a3 c0 46 dc d7 c0 d9 a3 99 c0 72 35 90 c0
       -5.0978255 -6.745639 -4.801251 -4.506524
0000e0 ff e2 cf c0 c5 06 88 c0 7c 8a af c0 bd f8 cd c0
       -6.4964595 -4.2508264 -5.485655 -6.4366136
0000f0 62 22 a5 c0 c6 5a 7a c0 0a 6e ba c0 8f 6a 1b c0
       -5.160447 -3.9117904 -5.8259325 -2.4283788

mamba.layers.0.mixer.out_proj.weight f4 [32, 64]
000000 e4 88 bf bd 61 80 d6 3d 83 e7 96 3d 87 b5 a9 bc
       -0.09352282 0.10473705 0.07368376 -0.020716442
000010 2d 16 3f 3c b0 42 ed 3b 3e d9 ae bd a1 f5 ed 3d
       0.011663002 0.007240616 -0.085375294 0.116191156
000020 5d a2 82 3d 5b a5 ae 3d 02 fe 7c 3d 7a f7 95 bd
       0.063786246 0.08527633 0.06176568 -0.07322593
000030 0b b4 8a 3d e9 84 69 be d3 59 ae bd 23 e3 54 3d
       0.06772622 -0.22804607 -0.08513226 0.051974427
000040 3d 5d 10 be d5 e1 83 bd 5a b8 65 3d e4 2a d1 bc
       -0.14098068 -0.064395584 0.056084014 -0.025533147
000050 a0 fc ab bd 39 95 03 3d 77 00 48 bd 28 79 a3 3d
       -0.08397794 0.03212473 -0.04882857 0.07982093
000060 1c 08 b7 bd 4c 7a e7 bc 65 c9 7c bd af 40 62 3c
       -0.089370936 -0.028256558 -0.061715502 0.013809367
000070 54 0a bb bd 5c 49 ad bd 75 85 ea bd e0 0c 06 bd
       -0.09132829 -0.08461258 -0.11451236 -0.032727122
000080 00 96 ea 3d 1a a5 cb bd 69 da 94 3c 88 dd f2 3c
       0.114543915 -0.099436 0.018170552 0.02964665
000090 63 63 19 3d 58 55 3d bd ca 7f 81 3d 58 fd 4a 3d
       0.0374483 -0.04622397 0.06323202 0.049558014
0000a0 63 55 ab 3d 35 32 83 bd b3 33 83 3d 7b 9c 9b 3d
       0.083658956 -0.064060606 0.06406345 0.07598206
0000b0 91 c5 60 bc da 55 33 3d 71 bf 80 bc fa e2 39 3d
       -0.0137189785 0.043783046 -0.015716286 0.045382477
0000c0 7d cf e0 3d b5 91 d3 3d ba b9 20 bd 40 b2 aa bd
       0.10977075 0.10330526 -0.039239623 -0.0833478
0000d0 ad 63 b1 3d 14 54 bf bd 47 04 83 3d 63 d7 bf 3d
       0.0866159 -0.093422085 0.063973 0.09367254
0000e0 ed 03 c3 3d b2 82 3c 3d 13 7a 42 3d 32 f2 89 bd
       0.09522233 0.04602308 0.0474797 -0.06735648
0000f0 24 4b 08 be b4 b3 28 be e2 fa 8b 3d 10 8a 9c 3d
       -0.13309914 -0.16474801 0.068349615 0.07643521
000100 bd c7 94 3d 81 30 ee 3d 03 42 c7 3d 7a d6 25 bd
       0.072646596 0.11630345 0.097293876 -0.040487744
000110 63 e5 18 3e 86 ae ac 3d c6 cd d6 bd ae a5 17 3e
       0.14931254 0.08431725 -0.10488467 0.14809296
000120 be 60 95 3c dc a3 33 3b 66 5f 25 be c8 5a 29 3c
       0.018234607 0.00274109 -0.16149673 0.010336585
000130 da 73 75 3d 19 57 73 be a1 32 80 bd f4 03 36 bd
       0.059924938 -0.23763694 -0.06259657 -0.044437364
000140 54 82 33 be 66 51 f9 3b 5b 80 7c 3b 4e 7a 51 bd
       -0.17530185 0.0076085804 0.0038528654 -0.05114203
000150 99 d5 0c 3e 80 8e 00 bd dd 1f c6 3c 81 62 0e 3d
       0.13753356 -0.0313859 0.024185115 0.03476191
000160 10 b5 c7 3d 0c b7 88 bb 3b 2e 0f 3d 70 e9 94 3d
       0.09751332 -0.0041722115 0.0349562 0.07271087
000170 3d c4 a4 bc 71 4a 7f 3d aa 83 a1 bd 5b 0e aa 3b
       -0.020113105 0.062326852 -0.07886441 0.0051896996
000180 be fc 13 bd 06 70 bc bd bf a5 a9 3c cb 68 91 3d
       -0.036129706 -0.09201054 0.020708917 0.07100066
000190 82 44 0d be 76 9d 16 3d 1a ed b0 3c 45 eb 66 bd
       -0.13795665 0.03677126 0.021597434 -0.056376714
0001a0 0f a3 90 bc 42 10 07 be ee 8a ae bd fb d1 d5 bc
       -0.017655877 -0.13189796 -0.085225925 -0.026101103
0001b0 c9 cd 08 3e 45 c8 d3 3d 00 7b 24 3d d6 59 04 be
       0.13359751 0.10340933 0.040156364 -0.12924895
0001c0 94 06 29 3d e7 da e0 3d d7 da 3d 3c ca 96 d7 3d
       0.04126604 0.10979252 0.01158782 0.105268076
0001d0 4c 39 f5 3d 7b 58 f8 3d 50 5c 2a 3d 55 c8 02 be
       0.11973819 0.12126251 0.041591942 -0.12771733
0001e0 d5 97 3f b7 e2 b9 d1 3c 21 92 42 3d 29 0b 25 3c
       -1.1419838e-05 0.025601331 0.04750264 0.010073462
0001f0 e0 41 8e 3d a1 f4 a6 bd f7 33 1a 3d 57 f4 07 be
       0.069461584 -0.08152128 0.037647214 -0.13276802
000200 cf 87 86 3d 21 68 7d bc 21 1f 3a bd 02 13 af 3c
       0.06568872 -0.015466721 -0.045439843 0.021371368
000210 ac 72 33 3d a7 bf 8d 3d da 95 2c 3d df 17 d4 3d
       0.04381053 0.069213204 0.042135097 0.103561155
000220 05 74 8a 3d 78 15 ed 3c 59 77 b0 3d b6 ce a6 bd
       0.0676041 0.028940901 0.08616514 -0.08144896
000230 aa 10 cd 3d 18 df 47 be fd 79 d3 bd a1 10 b5 3d
       0.10012944 -0.19518697 -0.10326002 0.08841062
000240 b1 18 c6 bd 61 8d d2 3d 5c 3d 7f 3d 90 6d ef bb
       -0.09672678 0.10280872 0.062314376 -0.007306762
000250 17 dd cb 3d b7 dc 2e bc e5 dc e0 3d dc ed 22 3b
       0.09954279 -0.01067274 0.10979632 0.0024861014
000260 2e 1b 33 3d c9 c4 2b 3d bd 48 28 3b 21 19 d4 bd
       0.043727092 0.041935716 0.002567812 -0.103563555
000270 b5 53 89 b8 0b 22 2e 3d 19 11 90 bd ac 22 a4 3b
       -6.548261e-05 0.042512935 -0.07034511 0.005009016
000280 b9 2a fd 3c 85 b4 55 3b 55 4b e7 3c d8 97 94 3d
       0.03090416 0.0032608819 0.028234163 0.072555244
000290 d7 e6 00 3d 49 7c b0 bd b0 c2 c9 bd 6b cd cb 3d
       0.031470146 -0.086174555 -0.09851587 0.0995129
0002a0 01 8c 01 be 27 3a 13 bd 9d 95 5d bd 36 b8 a1 3d
       -0.12651064 -0.03594413 -0.05409776 0.078964636
0002b0 4b 54 87 3d 67 52 80 3c 94 fa 6b bd 8b 4b c7 3d
       0.066078745 0.015664292 -0.057612017 0.097312056
0002c0 ff 72 56 3d 64 aa 45 3c 17 46 cc bd ca c5 96 bd
       0.052355763 0.01206455 -0.09974306 -0.07361944
0002d0 37 b2 5c bd b4 93 97 3b aa 2e e6 3d 3a 66 cc bd
       -0.053880896 0.004625762 0.11239369 -0.09980436
0002e0 cf 4a e0 3d b1 b8 e2 3d 2a e6 39 3d 28 6f 88 bd
       0.109517686 0.11070383 0.045385517 -0.06661826
0002f0 70 6d b2 3d f5 8c 38 3b 63 1d 16 bd 42 68 67 3d
       0.0871228 0.0028160189 -0.03664912 0.056495912
000300 81 53 37 bd 73 de db bd 92 96 1c bd 1c dc 21 bd
       -0.04475737 -0.10735788 -0.038229533 -0.039516553
000310 78 bc 1c be 67 02 fb 3c 49 e2 94 bb e7 15 1c 3d
       -0.1530627 0.030640794 -0.004543577 0.038106825
000320 b8 a0 84 bd 4b 62 33 bd 9c fb 8d ba 61 69 84 3d
       -0.06475967 -0.04379491 -0.0010832432 0.06465412
000330 a6 e0 9b 3c e1 c6 9e bc 4a 55 a3 3d cc ee 09 3e
       0.01902802 -0.019381942 0.07975252 0.1347
000340 09 77 9f 39 68 3f 01 bd 70 46 f3 3c dc db 0c bd
       0.0003041553 -0.03155461 0.029696673 -0.03438936
000350 6f 00 d3 3b 57 f4 05 3e d4 d6 26 be 9b b1 9d bb
       0.0064392607 0.1308149 -0.16292888 -0.004812432
000360 b6 0d 1a bd 4e 3c 1f 3e f1 34 c0 bc 8d c6 d5 3c
       -0.037610732 0.15550348 -0.023462744 0.026095653
000370 6a c0 5e bd df 0a ed bd c9 41 c6 bd ce 51 98 bd
       -0.05438272 -0.11574339 -0.09680516 -0.07437478
000380 55 34 91 3d 91 d0 b4 bd 14 cf 0f 3d ee 31 59 bd
       0.0709006 -0.088288434 0.035109594 -0.053026132
000390 66 e5 b5 bd ab d1 b6 bd 21 6c 02 3e f9 9c 1c bc
       -0.08881645 -0.0892671 0.1273656 -0.00955891
0003a0 20 2e 15 3d 5f 8e 14 3e 45 83 2e bd a5 4d dc bd
       0.03642094 0.14507435 -0.042605657 -0.10756997
0003b0 56 db 11 bc d0 23 98 3c cc 1d 58 3d 51 21 e7 bd
       -0.008902391 0.018571764 0.05276279 -0.112856515
0003c0 4e 66 27 3c 65 0b 03 3e 70 78 6e bd b3 7d 07 be
       0.010217262 0.12797315 -0.058220327 -0.13231544
0003d0 f3 c0 df 3d f5 7b d2 bd ec 42 d5 3c 6e 6c 0f 3e
       0.10925474 -0.10277549 0.026032887 0.14006206
0003e0 36 5b d0 3d c8 88 c8 3d 8b 77 a3 bd 50 7d 73 bd
       0.10173647 0.09791714 -0.079817854 -0.05944568
0003f0 49 77 bf bd e5 ef 89 bd b1 fa 78 bd 87 e3 29 3e
       -0.09348924 -0.067352094 -0.060785953 0.16590701

mamba.layers.0.norm.weight f4 [32]
000000 4c 27 7a 3f b4 53 87 3f f0 da 80 3f ed 1b 81 3f
       0.9771621 1.0572419 1.0066814 1.0086647
000010 fd 0e 77 3f bc da 8b 3f 30 59 7f 3f c3 58 8b 3f
       0.96507245 1.0926127 0.99745464 1.0886463
000020 36 de 75 3f 2a ac 69 3f 29 be 7b 3f 9f 7f 7e 3f
       0.9604219 0.91278327 0.98337036 0.99413484
000030 1c 07 91 3f 22 69 7d 3f 31 09 a0 3f 8c 9d 78 3f
       1.1330295 0.98988545 1.2502805 0.971154
000040 04 a7 7f 3f 71 9c 80 3f 25 ce 7b 3f 63 11 7c 3f
       0.9986422 1.0047742 0.98361427 0.9846403
000050 23 f2 80 3f 2e 3e 8c 3f d1 dd 7e 3f a2 c1 86 3f
       1.0073894 1.0956476 0.99557215 1.0527842
000060 26 0b 7f 3f f0 ec 76 3f 83 24 7e 3f 01 e1 77 3f
       0.99626386 0.9645529 0.9927446 0.96827704
000070 85 72 7d 3f 68 16 79 3f bd a6 72 3f ae 35 9e 3f
       0.9900287 0.97299814 0.9478567 1.2360132
