saves_ar/soc_lm/model-b.pth (torch, 273650 bytes, 72 tensors)

input_proj.weight f4 [32, 6]
0.25426903 0.20288427 -0.3213243 0.19271769 -0.3058266 0.26888075 0.26833603 0.22120447
0.05930235 -0.32800487 0.1774743 -0.2099951 0.12954964 -0.26519915 -0.24549334 -0.108943254
0.31058633 -0.18080463 0.18267365 -0.4146373 -0.41686618 0.22789112 -0.086041704 -0.4257506
-0.25539365 -0.20229533 0.109381065 -0.11676614 -0.21487279 -0.25394255 0.22578625 0.0058471784
-0.063915975 0.2722425 -0.3581254 -0.12434521 -0.02800979 0.15641235 0.16191037 0.38514638
0.08330235 0.2432141 -0.2094201 -0.08759692 -0.08705138 -0.057383485 0.24273509 0.30852315
-0.028687794 0.13766825 0.029496098 0.31506243 0.2918164 0.39633343 -0.21519704 0.10120572
0.040478665 0.124883614 -0.16929355 -0.18454424 -0.18888247 -0.3181061 0.41324848 -0.2757065
0.13738422 0.15858728 -0.34044462 0.20839868 -0.13394591 0.083659 0.14755768 0.12588365
0.29861334 -0.07430161 -0.21257669 0.20999224 0.105408385 -0.04373253 0.3291936 -0.32836887
-0.07719427 -0.40014762 -0.051196594 -0.039755624 0.022325227 -0.046937652 -0.06627844 0.11519739
-0.16181271 -0.17546628 0.30749348 -0.2878603 -0.31159785 0.24854907 -0.06749537 0.17939998
0.29170513 0.3120531 0.28034335 0.38448358 -0.13958025 -0.0040028607 -0.029443454 -0.063743345
0.34632555 -0.37880364 -0.0048559555 -0.20772353 0.27262238 0.3168911 -0.20893864 0.3803375
-0.37950245 0.24953243 0.051686216 0.12567341 -0.31927988 -0.10404396 0.1348875 -0.31205907
-0.1517003 0.048467435 0.35096598 0.044961423 -0.10584403 -0.03554652 0.29542956 -0.08926807
-0.077639244 0.29646134 -0.1998152 -0.089034446 -0.19160053 -0.24217199 0.1953951 0.103681006
0.41784638 -0.028978506 0.047760952 -0.08629904 -0.30838734 0.3377617 0.002102655 -0.06915181
-0.031037482 -0.1778339 -0.27855894 0.07604381 0.37269238 -0.39654005 0.33525145 -0.40073535
0.11027276 -0.143291 0.31574544 0.36452657 -0.037590053 0.2038134 0.27500618 -0.10321003
0.122377 0.030309873 0.2211341 0.3259822 0.019335939 0.25547814 -0.3343704 -0.25905445
-0.09471111 0.35604686 0.03733265 0.28440097 0.0103722 0.08696924 -0.15092723 0.35289744
-0.20869505 -0.25172058 0.28261495 -0.25583455 0.19348362 0.15816386 -0.06307322 0.060420457
-0.43568972 -0.20692115 0.12678683 -0.07837614 0.18793707 -0.27282566 -0.06277898 -0.1260079
00000000: 8d2f 823e e5c0 4f3e 9e84 a4be c957 453e
00000010: 4e95 9cbe bdaa 893e 5763 893e 6d83 623e
00000020: 05e7 723d 41f0 a7be d3bb 353e f508 57be
00000030: a9a8 043e 2fc8 87be 9b62 7bbe a41d dfbd
00000040: 2c05 9f3e d924 39be cd0e 3b3e 574b d4be
00000050: 7c6f d5be 4a5c 693e a236 b0bd fcfb d9be
00000060: f5c2 82be 8226 4fbe 2e03 e03d 1623 efbd
00000070: 9d07 5cbe c204 82be 8334 673e b099 bf3b
00000080: 61e6 82bd 5e63 8b3e 365c b7be b4a8 febd
00000090: ca74 e5bc 8f2a 203e d5cb 253e e831 c53e
000000a0: 6c9a aa3d 1e0d 793e 3972 56be 0466 b3bd
000000b0: fe47 b2bd f20a 6bbd 8c8f 783e bff6 9d3e
000000c0: aa02 ebbc e8f8 0c3e cda1 f13c dd4f a13e
000000d0: f668 953e 37ec ca3e 9d5c 5cbe f244 cf3d
000000e0: f5cc 253d fbc2 ff3d 4a5b 2dbe 2af9 3cbe
000000f0: 686a 41be cede a2be 4e95 d33e 6729 8dbe
00000100: 73ae 0c3e b464 223e c24e aebe 7766 553e
00000110: 1e29 09be 6955 ab3d 5c19 173e a5e7 003e
00000120: d9e3 983e 712b 98bd b4ad 59be 3508 573e
00000130: 5ae0 d73d e220 33bd 108c a83e f71f a8be
00000140: 0818 9ebd 26e0 ccbe 85b3 51bd cbd6 22bd
00000150: 65e3 b63c b241 40bd febc 87bd 9cec eb3d
00000160: 3bb2 25be 6fad 33be c96f 9d3e 6d62 93be
00000170: c189 9fbe a683 7e3e 033b 8abd a1b4 373e
00000180: 605a 953e 6dc5 9f3e 2a89 8f3e 08db c43e
00000190: 20ee 0ebe 6e2a 83bb 6633 f1bc df8b 82bd
000001a0: 9551 b13e 8df2 c1be b51e 9fbb 7ab5 54be
000001b0: 2995 8b3e 8d3f a23e 03f4 55be 99bb c23e
000001c0: 254e c2be 6e85 7f3e edb4 533d 88b0 003e
000001d0: a778 a3be 0015 d5bd f31f 0a3e 35c6 9fbe
000001e0: 5357 1bbe ca85 463d d0b1 b33e 7829 383d
000001f0: c1c4 d8bd 3a99 11bd 8b42 973e 2ed2 b6bd
00000200: 5301 9fbd c8c9 973e 5b9c 4cbe b157 b6bd
00000210: ee32 44be effb 77be a715 483e b556 d43d
00000220: f6ef d53e 5564 edbc fda0 433d 8dbd b0bd
00000230: f2e4 9dbe 1aef ac3e b2cc 093b 779f 8dbd
00000240: 5142 febc 171a 36be 479f 8ebe dbbc 9b3d
00000250: 89d1 be3e 4c07 cbbe 14a6 ab3e 2f2d cdbe
00000260: afd6 e13d e0ba 12be 63a9 a13e 3aa3 ba3e
00000270: 07f8 19bd 76b4 503e 9ccd 8c3e c85f d3bd
00000280: cba0 fa3d 694c f83c fa70 623e 24e7 a63e
00000290: 6766 9e3c 08ce 823e 9932 abbe c9a2 84be
000002a0: e6f7 c1bd c64b b63e 1fea 183d 019d 913e
000002b0: 29f0 293c ee1c b23d ab8c 1abe f9ae b43e
000002c0: 28b4 55be 85e1 80be e8b2 903e bffc 82be
000002d0: 9220 463e b5f5 213e 882c 81bd 717b 773d
000002e0: b912 dfbe 23e3 53be 68d4 013e ab83 a0bd
000002f0: 9372 403e ceaf 8bbe 4492 80bd 3708 01be

input_proj.bias f4 [32]
0.3298828 -0.17872447 -0.36010814 -0.28873336 0.3140924 -0.02668857 0.0028969154 0.095652
-0.29016075 0.20182185 0.1712769 0.12618263 0.3155434 0.18523838 0.2841523 -0.038076572
0.1454306 -0.05358305 0.11287989 0.32459897 -0.22149594 -0.34096375 -0.083992004 -0.49184638
-0.15248004 -0.16187678 -0.21803163 0.2110601 -0.22122216 0.10410606 0.16138755 0.4458325
00000000: 66e6 a83e 8c03 37be 1860 b8be dcd4 93be
00000010: b8d0 a03e fda1 dabc 2dda 3d3b 32e5 c33d
00000020: f38f 94be 63aa 4e3e 3663 2f3e 0536 013e
00000030: e88e a13e 21af 3d3e 697c 913e 2ef6 1bbd
00000040: c2eb 143e e679 5bbd 922d e73d d631 a63e
00000050: d5cf 62be cd92 aebe 0004 acbd 4ad3 fbbe
00000060: ba23 1cbe 07c3 25be af43 5fbe 2420 583e
00000070: 1088 62be 8f35 d53d c742 253e 2844 e43e

mamba.layers.0.mixer.A_log f4 [64, 16]
0.0 0.68487877 1.0855165 1.3697575 1.590213 1.7703903 1.9227061 2.0546184
2.171033 2.2750852 2.3692808 2.455307 2.5343227 2.6075652 2.675763 2.739515
0.0 0.68487877 1.0855165 1.3697575 1.590213 1.7703903 1.9227061 2.0546184
2.171033 2.2750852 2.3692808 2.455307 2.5343227 2.6075652 2.675763 2.739515
0.0 0.68487877 1.0855165 1.3697575 1.590213 1.7703903 1.9227061 2.0546184
2.171033 2.2750852 2.3692808 2.455307 2.5343227 2.6075652 2.675763 2.739515
0.0 0.68487877 1.0855165 1.3697575 1.590213 1.7703903 1.9227061 2.0546184
2.171033 2.2750852 2.3692808 2.455307 2.5343227 2.6075652 2.675763 2.739515
0.0 0.68487877 1.0855165 1.3697575 1.590213 1.7703903 1.9227061 2.0546184
2.171033 2.2750852 2.3692808 2.455307 2.5343227 2.6075652 2.675763 2.739515
0.0 0.68487877 1.0855165 1.3697575 1.590213 1.7703903 1.9227061 2.0546184
2.171033 2.2750852 2.3692808 2.455307 2.5343227 2.6075652 2.675763 2.739515
0.0 0.68487877 1.0855165 1.3697575 1.590213 1.7703903 1.9227061 2.0546184
2.171033 2.2750852 2.3692808 2.455307 2.5343227 2.6075652 2.675763 2.739515
0.0 0.68487877 1.0855165 1.3697575 1.590213 1.7703903 1.9227061 2.0546184
2.171033 2.2750852 2.3692808 2.455307 2.5343227 2.6075652 2.675763 2.739515
0.0 0.68487877 1.0855165 1.3697575 1.590213 1.7703903 1.9227061 2.0546184
2.171033 2.2750852 2.3692808 2.455307 2.5343227 2.6075652 2.675763 2.739515
0.0 0.68487877 1.0855165 1.3697575 1.590213 1.7703903 1.9227061 2.0546184
2.171033 2.2750852 2.3692808 2.455307 2.5343227 2.6075652 2.675763 2.739515
0.0 0.68487877 1.0855165 1.3697575 1.590213 1.7703903 1.9227061 2.0546184
2.171033 2.2750852 2.3692808 2.455307 2.5343227 2.6075652 2.675763 2.739515
0.0 0.68487877 1.0855165 1.3697575 1.590213 1.7703903 1.9227061 2.0546184
2.171033 2.2750852 2.3692808 2.455307 2.5343227 2.6075652 2.675763 2.739515
0.0 0.68487877 1.0855165 1.3697575 1.590213 1.7703903 1.9227061 2.0546184
2.171033 2.2750852 2.3692808 2.455307 2.5343227 2.6075652 2.675763 2.739515
0.0 0.68487877 1.0855165 1.3697575 1.590213 1.7703903 1.9227061 2.0546184
2.171033 2.2750852 2.3692808 2.455307 2.5343227 2.6075652 2.675763 2.739515
0.0 0.68487877 1.0855165 1.3697575 1.590213 1.7703903 1.9227061 2.0546184
2.171033 2.2750852 2.3692808 2.455307 2.5343227 2.6075652 2.675763 2.739515
0.0 0.68487877 1.0855165 1.3697575 1.590213 1.7703903 1.9227061 2.0546184
2.171033 2.2750852 2.3692808 2.455307 2.5343227 2.6075652 2.675763 2.739515
00000000: 0000 0000 3754 2f3f 34f2 8a3f 3754 af3f
00000010: 198c cb3f 269c e23f 3c1b f63f de7e 0340
00000020: 34f2 0a40 ff9a 1140 4ca2 1740 c023 1d40
00000030: 5832 2240 59e2 2640 b33f 2b40 3754 2f40
00000040: 0000 0000 3754 2f3f 34f2 8a3f 3754 af3f
00000050: 198c cb3f 269c e23f 3c1b f63f de7e 0340
00000060: 34f2 0a40 ff9a 1140 4ca2 1740 c023 1d40
00000070: 5832 2240 59e2 2640 b33f 2b40 3754 2f40
00000080: 0000 0000 3754 2f3f 34f2 8a3f 3754 af3f
00000090: 198c cb3f 269c e23f 3c1b f63f de7e 0340
000000a0: 34f2 0a40 ff9a 1140 4ca2 1740 c023 1d40
000000b0: 5832 2240 59e2 2640 b33f 2b40 3754 2f40
000000c0: 0000 0000 3754 2f3f 34f2 8a3f 3754 af3f
000000d0: 198c cb3f 269c e23f 3c1b f63f de7e 0340
000000e0: 34f2 0a40 ff9a 1140 4ca2 1740 c023 1d40
000000f0: 5832 2240 59e2 2640 b33f 2b40 3754 2f40
00000100: 0000 0000 3754 2f3f 34f2 8a3f 3754 af3f
00000110: 198c cb3f 269c e23f 3c1b f63f de7e 0340
00000120: 34f2 0a40 ff9a 1140 4ca2 1740 c023 1d40
00000130: 5832 2240 59e2 2640 b33f 2b40 3754 2f40
00000140: 0000 0000 3754 2f3f 34f2 8a3f 3754 af3f
00000150: 198c cb3f 269c e23f 3c1b f63f de7e 0340
00000160: 34f2 0a40 ff9a 1140 4ca2 1740 c023 1d40
00000170: 5832 2240 59e2 2640 b33f 2b40 3754 2f40
00000180: 0000 0000 3754 2f3f 34f2 8a3f 3754 af3f
00000190: 198c cb3f 269c e23f 3c1b f63f de7e 0340
000001a0: 34f2 0a40 ff9a 1140 4ca2 1740 c023 1d40
000001b0: 5832 2240 59e2 2640 b33f 2b40 3754 2f40
000001c0: 0000 0000 3754 2f3f 34f2 8a3f 3754 af3f
000001d0: 198c cb3f 269c e23f 3c1b f63f de7e 0340
000001e0: 34f2 0a40 ff9a 1140 4ca2 1740 c023 1d40
000001f0: 5832 2240 59e2 2640 b33f 2b40 3754 2f40
00000200: 0000 0000 3754 2f3f 34f2 8a3f 3754 af3f
00000210: 198c cb3f 269c e23f 3c1b f63f de7e 0340
00000220: 34f2 0a40 ff9a 1140 4ca2 1740 c023 1d40
00000230: 5832 2240 59e2 2640 b33f 2b40 3754 2f40
00000240: 0000 0000 3754 2f3f 34f2 8a3f 3754 af3f
00000250: 198c cb3f 269c e23f 3c1b f63f de7e 0340
00000260: 34f2 0a40 ff9a 1140 4ca2 1740 c023 1d40
00000270: 5832 2240 59e2 2640 b33f 2b40 3754 2f40
00000280: 0000 0000 3754 2f3f 34f2 8a3f 3754 af3f
00000290: 198c cb3f 269c e23f 3c1b f63f de7e 0340
000002a0: 34f2 0a40 ff9a 1140 4ca2 1740 c023 1d40
000002b0: 5832 2240 59e2 2640 b33f 2b40 3754 2f40
000002c0: 0000 0000 3754 2f3f 34f2 8a3f 3754 af3f
000002d0: 198c cb3f 269c e23f 3c1b f63f de7e 0340
000002e0: 34f2 0a40 ff9a 1140 4ca2 1740 c023 1d40
000002f0: 5832 2240 59e2 2640 b33f 2b40 3754 2f40
00000300: 0000 0000 3754 2f3f 34f2 8a3f 3754 af3f
00000310: 198c cb3f 269c e23f 3c1b f63f de7e 0340
00000320: 34f2 0a40 ff9a 1140 4ca2 1740 c023 1d40
00000330: 5832 2240 59e2 2640 b33f 2b40 3754 2f40
00000340: 0000 0000 3754 2f3f 34f2 8a3f 3754 af3f
00000350: 198c cb3f 269c e23f 3c1b f63f de7e 0340
00000360: 34f2 0a40 ff9a 1140 4ca2 1740 c023 1d40
00000370: 5832 2240 59e2 2640 b33f 2b40 3754 2f40
00000380: 0000 0000 3754 2f3f 34f2 8a3f 3754 af3f
00000390: 198c cb3f 269c e23f 3c1b f63f de7e 0340
000003a0: 34f2 0a40 ff9a 1140 4ca2 1740 c023 1d40
000003b0: 5832 2240 59e2 2640 b33f 2b40 3754 2f40
000003c0: 0000 0000 3754 2f3f 34f2 8a3f 3754 af3f
000003d0: 198c cb3f 269c e23f 3c1b f63f de7e 0340
000003e0: 34f2 0a40 ff9a 1140 4ca2 1740 c023 1d40
000003f0: 5832 2240 59e2 2640 b33f 2b40 3754 2f40

mamba.layers.0.mixer.D f4 [64]
0.9903026 1.0133773 0.97902924 0.9806587 1.0785859 0.97869116 1.006741 1.0261388
1.0441258 0.9796459 0.9847251 0.97927094 0.9795091 1.1196691 0.99722743 1.0609447
1.1096878 0.99220353 0.9705182 0.9918609 1.0010723 1.002644 1.050351 1.0081917
0.9689949 1.0049615 0.97683835 0.9904502 0.9676919 0.96671855 0.9918969 0.98707646
0.96559334 0.99964356 0.97512496 0.98274875 1.0363513 1.0074793 1.020778 0.9925533
0.9977609 1.0440376 0.98679817 1.0522481 0.99243206 0.9815829 0.9816594 0.9758051
0.998419 1.0215855 0.9957514 1.0117135 0.9845978 0.9914595 1.0311514 0.98320603
0.9930253 1.0568402 0.9980107 1.0253626 0.9831507 1.0155998 0.99057657 1.0218273
00000000: 7984 7d3f 59b6 813f a9a1 7a3f 730c 7b3f
00000010: 1a0f 8a3f 818b 7a3f e4dc 803f 8458 833f
00000020: eaa5 853f 13ca 7a3f f216 7c3f 80b1 7a3f
00000030: 1cc1 7a3f 5151 8f3f 4c4a 7f3f 09cd 873f
00000040: 400a 8e3f 0d01 7e3f e173 783f 99ea 7d3f
00000050: 2323 803f a356 803f e771 863f 6d0c 813f
00000060: 0d10 783f 94a2 803f 1412 7a3f 258e 7d3f
00000070: a8ba 773f de7a 773f f5ec 7d3f 0bb1 7c3f
00000080: 2031 773f a4e8 7f3f caa1 793f 6c95 7b3f
00000090: 29a7 843f 15f5 803f daa8 823f f917 7e3f
000000a0: 426d 7f3f 06a3 853f ce9e 7c3f 11b0 863f
000000b0: 0710 7e3f 0449 7b3f 084e 7b3f 5dce 793f
000000c0: 6398 7f3f 50c3 823f 90e9 7e3f d47f 813f
000000d0: 9a0e 7c3f 4ad0 7d3f c5fc 833f 64b3 7b3f
000000e0: e836 7e3f 8a46 873f a17d 7f3f 153f 833f
000000f0: c4af 7b3f 2dff 813f 6d96 7d3f 3dcb 823f

mamba.layers.0.mixer.in_proj.weight f4 [128, 32]
0.12915745 0.117580555 0.094371445 -0.024729325 -0.049613737 -0.1111759 0.06225703 0.11005103
-0.15197518 0.1410396 0.022105549 0.013481972 0.13584787 -0.110345505 0.10971469 0.108006135
-0.07805226 0.09110858 -0.033234794 0.12680338 0.11651749 -0.00056101533 0.14064553 -0.18383512
-0.11594414 -0.05313949 -0.104654714 0.038913477 -0.13376276 -0.06680294 0.034967005 0.20900537
0.029228121 0.09982454 0.14198716 -0.054156706 0.06174403 -0.02826456 0.051951744 -0.06989579
0.035270073 -0.02049497 -0.051037844 -0.025897866 0.06135433 0.028723747 0.2104779 0.06303511
-0.16482902 0.15121405 -0.19306457 -0.058978427 -0.17362116 0.12168321 0.16013093 -0.06894725
0.10661264 0.04480917 -0.005513452 0.033281267 -0.020720566 -0.101165794 -0.058916338 -0.006684071
-0.06057941 0.14137658 0.118808866 0.005404289 0.007989254 0.08537315 -0.0057669617 0.09499813
0.0011423613 -0.10249188 0.024809055 -0.10304619 -0.02109462 -0.16569741 -0.02802521 0.15953209
-0.028498208 0.060244985 -0.15068705 -0.1700391 -0.098145686 -0.0017151622 0.036320746 -0.16730995
0.15975463 -0.022481864 -0.046788923 0.07232518 -0.013800421 -0.056583673 -0.1906362 -0.095699035
0.022903195 0.13624889 0.079878576 -0.01848265 0.02253333 -0.04078633 -0.025243228 0.20006688
-0.1005978 0.019280577 -0.05048914 -0.15786245 -0.24158025 -0.025314214 -0.13785066 0.049959414
0.019091107 0.12727459 0.13761723 0.07688824 0.030676354 0.0073239775 -0.032476902 0.037838917
-0.11075402 -0.12462148 -0.1116006 0.11786202 0.012834855 -0.055323638 -0.049768828 -0.056269825
0.22773856 -0.1778161 0.011556124 -0.08835244 0.174044 0.02816824 0.21904108 -0.08247849
0.10389838 0.0709863 -0.14274818 0.036663074 0.11543303 -0.11082784 -0.07111983 0.082575016
0.078310095 -0.15167522 0.14494124 0.17864686 -0.14092506 0.06903927 -0.008959261 -0.26422113
0.07789115 0.08004993 0.21059316 -0.0608659 0.07132986 0.113110594 0.07002616 0.058022615
0.032807022 0.12338951 0.09863847 -0.1200154 0.044321533 0.071361795 0.16386771 0.12315927
0.074729 0.150705 -0.18353935 -0.13759418 0.160286 -0.0421093 0.036972422 -0.116725214
0.017051997 -0.11367748 0.040619176 0.04486247 0.080038704 0.11303361 -0.09512306 -0.037700698
-0.107723616 -0.12590294 0.04930457 -0.15296215 -0.043066386 -0.11453834 -0.06000646 0.16171339
-0.115324445 -0.002238423 -0.12845036 0.0014802573 0.16452022 -0.052987397 -0.07182734 0.1789266
0.17942597 -0.083124 0.07485852 -0.101224385 0.0015755334 -0.054616462 -0.10673363 0.15590748
-0.13517362 -0.13408963 0.025146348 -0.13281052 0.027697338 0.10172519 0.023677686 0.1350949
0.10922457 0.13115117 -0.0017918973 -0.17006585 0.083789185 -0.12558275 -0.0998854 -0.19960542
0.18364228 0.0042306143 0.118202545 -0.024592053 -0.019890336 -0.022223458 0.14208785 -0.19577846
0.19710478 0.14391713 -0.006540988 0.08965113 0.25727552 0.06974705 0.19856928 -0.028487893
0.087652616 -0.17891516 0.10257501 0.1644617 -0.25951993 -0.07978063 -0.010083668 0.10081038
-0.032762434 -0.13273948 0.059394673 -0.033952806 0.030161567 0.030848065 -0.044097483 0.14292377
00000000: da41 043e 13ce f03d d145 c13d 2795 cabc
00000010: c637 4bbd 31b0 e3bd 3a01 7f3d 6f62 e13d
00000020: 629f 1bbe af6c 103e b216 b53c 7de3 5c3c
00000030: b41b 0b3e d3fc e1bd 18b2 e03d 5232 dd3d
00000040: ddd9 9fbd 2397 ba3d 3521 08bd bfd8 013e
00000050: b9a0 ee3d 1a11 13ba 6205 103e 463f 3cbe
00000060: 1f74 edbd cba8 59bd 3655 d6bd bd63 1f3d
00000070: 1bf9 08be fbcf 88bd 9039 0f3d 8105 563e
00000080: d06f ef3c cf70 cc3d 1565 113e 6cd3 5dbd
00000090: 4fe7 7c3d 148b e7bc 5acb 543d 8625 8fbd
000000a0: 5a77 103d 11e5 a7bc 0f0d 51bd c327 d4bc
000000b0: ae4e 7b3d 104e eb3c 8587 573e 8d18 813d
000000c0: f0c8 28be dbd7 1a3e b8b2 45be 5d93 71bd
000000d0: bfc9 31be 0c35 f93d 5df9 233e 3734 8dbd
000000e0: ba57 da3d d289 373d 30aa b4bb f051 083d
000000f0: 2dbe a9bc 0330 cfbd 4252 71bd 0d06 dbbb
00000100: 1e22 78bd 06c5 103e 1052 f33d 7616 b13b
00000110: 5ce5 023c 1ed8 ae3d c8f8 bcbb 618e c23d
00000120: 49bb 953a 43e7 d1bd 5c3c cb3c e209 d3bd
00000130: a0ce acbc 95ac 29be 2095 e5bc 615c 233e
00000140: 1375 e9bc 72c3 763d b54d 1abe bb1e 2ebe
00000150: 9b00 c9bd 4bcf e0ba 10c5 143d 4d53 2bbe
00000160: b896 233e e32b b8bc bea5 3fbd 391f 943d
00000170: 291b 62bc 48c4 67bd 2336 43be dbfd c3bd
00000180: 7b9f bb3c d484 0b3e 6197 a33d ed68 97bc
00000190: d197 b83c 910f 27bd e3ca cebc 55de 4c3e
000001a0: 3806 cebd 4df2 9d3c b3cd 4ebd b2a6 21be
000001b0: d060 77be c15f cfbc b928 0dbe 3ea2 4c3d
000001c0: f464 9c3c 4554 023e 88eb 0c3e 9577 9d3d
000001d0: fa4c fb3c fafd ef3b 8006 05bd fbfc 1a3d
000001e0: 01d3 e2bd 8c39 ffbd db8e e4bd a561 f13d
000001f0: 4949 523c 0a9b 62bd 66da 4bbd 307b 66bd
00000200: 4c34 693e 6c15 36be e655 3d3c 20f2 b4bd
00000210: 9738 323e 15c1 e63c 4e4c 603e 7cea a8bd
00000220: adc8 d43d 4461 913d 942c 12be 052c 163d
00000230: 2768 ec3d b5f9 e2bd 46a7 91bd 171d a93d
00000240: 0b61 a03d c050 1bbe 7a6b 143e 34ef 363e
00000250: a94e 10be 7664 8d3d ddc9 12bc fe47 87be
00000260: 6585 9f3d 38f1 a33d bca5 573e 864e 79bd
00000270: 6415 923d 87a6 e73d e069 8f3d 1fa9 6d3d
00000280: a860 063d a4b3 fc3d f702 ca3d a2ca f5bd
00000290: 7f8a 353d 2226 923d f0cc 273e ed3a fc3d
000002a0: 850b 993d 6952 1a3e bdf1 3bbe 7de5 0cbe
000002b0: 0322 243e cd7a 2cbd 6570 173d a10d efbd
000002c0: a1b0 8b3c bdcf e8bd 4b60 263d b6c1 373d
000002d0: 55eb a33d 2a7e e73d e1cf c2bd 0c6c 1abd
000002e0: 339e dcbd b3ec 00be 97f3 493d 1ca2 1cbe
000002f0: 6166 30bd 1493 eabd 55c9 75bd 3298 253e
00000300: 392f ecbd 82b2 12bb 7e88 03be 3105 c23a
00000310: fd77 283e 5009 59bd 361a 93bd 8938 373e
00000320: 71bb 373e ea3c aabd 6c4f 993d bb4e cfbd
00000330: 2182 ce3a 83b5 5fbd 2997 dabd 36a6 1f3e
00000340: f46a 0abe cb4e 09be b7ff cd3c 7bff 07be
00000350: 87e5 e23c 4c55 d03d b5f7 c13c 5156 0a3e
00000360: 22b1 df3d 7e4c 063e 19de eaba be25 2ebe
00000370: aa99 ab3d c498 00be b790 ccbd 5d65 4cbe
00000380: b90c 3c3e f7a0 8a3b 2d14 f23d 4675 c9bc
00000390: 0ff1 a2bc f80d b6bc 7a7f 113e 267a 48be
000003a0: d6d5 493e 035f 133e c955 d6bb 039b b73d
000003b0: 9eb9 833e 8bd7 8e3d bf55 4b3e 715f e9bc
000003c0: 3783 b33d 8935 37be d912 d23d a668 283e
000003d0: ccdf 84be 0764 a3bd f835 25bc ac75 ce3d
000003e0: e731 06bd dcec 07be d447 733d 1912 0bbd
000003f0: 6415 f73c 15b5 fc3c 909f 34bd 9c5a 123e

mamba.layers.0.mixer.conv1d.weight f4 [64, 1, 4]
0.26468608 -0.44191962 -0.17406262 -0.4727742 -0.14593183 0.31645662 0.35279158 -0.4631487
-0.11739114 0.32729745 -0.08916378 0.051478077 0.072834514 -0.14237353 -0.47936618 0.07021801
0.445785 0.47447902 0.4289472 -0.33975828 0.036260907 -0.3204873 0.39550468 -0.23553164
0.33592543 -0.4197096 0.13411483 -0.2068885 -0.27898043 -0.21657324 0.47500032 -0.27712703
0.31409997 -0.10489053 0.4809064 0.13452086 0.38713205 0.095243804 -0.10800656 0.38652888
-0.23438549 -0.21867053 0.41028172 0.039595302 0.4616604 -0.40918624 0.29577476 0.07860199
0.2571641 0.23249364 0.30386475 0.24797383 0.024735115 -0.48371887 0.15896447 -0.18315424
-0.15775703 0.27024686 -0.29436144 -0.28327736 0.17012757 -0.36604404 -0.05631289 -0.2540876
-0.44383112 -0.13333446 -0.38571012 -0.27524945 -0.25590792 0.11725799 -0.00971609 -0.39378884
0.37306425 0.38228688 -0.18159533 0.2669851 0.48944613 0.099561594 -0.31321844 0.08212432
-0.3469169 -0.009336504 -0.24690591 -0.083936796 0.47213918 0.2563136 0.14866267 0.14806104
-0.021394439 0.24722935 0.32540193 0.34258488 0.27479735 -0.2323451 0.2577392 0.3475932
0.21169922 0.40526214 0.08079731 0.41928488 0.06974237 0.25403842 -0.052283194 0.35918942
-0.4138312 0.23946583 0.43326145 -0.20922026 -0.097893305 -0.3912055 -0.26683173 -0.26671347
-0.17836055 -0.0583368 0.26273626 0.0005411503 -0.10738021 0.08591767 0.4283175 0.14281444
-0.25376636 0.10627616 -0.26768097 -0.25038683 -0.30209297 0.15865083 0.3477218 0.2006274
-0.15638953 0.34941867 -0.053782187 -0.3371308 0.33952385 0.069978654 -0.46624863 0.40997487
-0.07487348 0.126878 0.065639734 -0.0065199444 0.16581298 0.13178939 -0.30460298 -0.2663058
-0.44407025 -0.06297153 -0.13004862 0.33872476 0.35842237 0.117032036 0.3564701 0.06378513
-0.028617948 -0.29202005 0.47841898 -0.36032072 -0.35328215 -0.33013192 0.03804647 -0.131878
-0.27977586 0.39493847 0.26566747 0.14012374 -0.38270938 0.22535226 0.24726753 -0.30800292
0.18044795 -0.094477795 -0.36155376 -0.14239767 -0.43237624 0.16194515 0.36534122 0.2797879
-0.422415 -0.07654642 0.19023769 -0.19165035 -0.27436998 -0.047442377 -0.045073036 0.048180006
0.008315518 -0.22345382 0.40662083 -0.44577605 0.32903636 -0.16989988 -0.22734852 -0.40635458
-0.014870789 -0.45380732 -0.09036936 -0.077130966 0.34504542 0.38976952 -0.42508075 0.2789984
-0.3169598 -0.32589948 -0.042268284 0.3908966 0.45253178 0.44805765 -0.3212759 -0.31904572
-0.38851723 0.4290184 0.14661388 0.068485886 -0.04616686 0.3766684 -0.44138023 0.19735412
-0.17078047 -0.0923214 0.2495821 0.24940024 -0.3057949 -0.4486754 0.28318557 0.47184452
0.19136938 0.018297093 0.24715997 -0.3312906 0.027710753 0.2999594 0.47154802 -0.28104725
0.41127306 -0.16897336 -0.02424101 -0.33807707 -0.46049267 0.3338556 0.047966585 -0.41064903
0.3333787 -0.026323674 0.44919115 0.37479746 -0.48396626 0.06442572 -0.2569512 -0.4606244
-0.05806525 -0.108275875 -0.21384178 -0.021529133 0.19971178 0.020800952 -0.2441701 0.050642587
00000000: ef84 873e 4a43 e2be 793d 32be 760f f2be
00000010: 276f 15be 9a06 a23e 19a1 b43e d421 edbe
00000020: c46a f0bd 8893 a73e 809b b6bd adda 523d
00000030: 432a 953d 5eca 11be 7c6f f5be 76ce 8f3d
00000040: ee3d e43e eaee f23e f89e db3e ccf4 adbe
00000050: 5186 143d e916 a4be 977f ca3e 352f 71be
00000060: 6bfe ab3e 2de4 d6be 6655 093e 94da 53be
00000070: 86d6 8ebe 60c5 5dbe 3e33 f33e 98e3 8dbe
00000080: b6d1 a03e d9d0 d6bd 5d39 f63e d6bf 093e
00000090: 2c36 c63e 2f0f c33d 8b32 ddbd 1de7 c53e
000000a0: c002 70be 2beb 5fbe 7210 d23e af2e 223d
000000b0: c05e ec3e dc80 d1be ca6f 973e 15fa a03d
000000c0: 03ab 833e d012 6e3e 2994 9b3e daec 7d3e
000000d0: 4ca1 ca3c 00aa f7be 95c7 223e c98c 3bbe
000000e0: 0f8b 21be cc5d 8a3e 8bb6 96be bb09 91be
000000f0: ec35 2e3e 206a bbbe 58a8 66bd c517 82be
00000100: d53d e3be d488 08be cc7b c5be 7fed 8cbe
00000110: 5d06 83be f524 f03d 3c30 1fbc b19e c9be
00000120: 4702 bf3e 1bbb c33e 20f4 39be 45b2 883e
00000130: af98 fa3e f3e6 cb3d 2b5e a0be cc30 a83d
00000140: 189f b1be 23f8 18bc e7d4 7cbe 0ee7 abbd
00000150: 3abc f13e 893b 833e 073b 183e 509d 173e
00000160: 6443 afbc b129 7d3e 159b a63e 4967 af3e
00000170: 3db2 8c3e e0eb 6dbe 64f6 833e bcf7 b13e
00000180: aec7 583e 857e cf3e 0f79 a53d 82ac d63e
00000190: 16d5 8e3d 5311 823e e726 56bd ade7 b73e
000001a0: afe1 d3be 8836 753e 72d4 dd3e d63d 56be
000001b0: 497c c8bd 164c c8be 2b9e 88be ab8e 88be
000001c0: 26a4 36be 92f2 6ebd 5e85 863e fbdb 0d3a
000001d0: 28ea dbbd 9af5 af3d 6e4c db3e f33d 123e
000001e0: aaed 81be 51a7 d93d 7b0d 89be b432 80be
000001f0: eeab 9abe 5d75 223e 9708 b23e 4571 4d3e
00000200: 9424 20be 01e7 b23e b64a 5cbd 699c acbe
00000210: 12d6 ad3e f850 8f3d 24b8 eebe 3ae8 d13e
00000220: 4457 99bd 4eec 013e 206e 863d 42a5 d5bb
00000230: e1ca 293e ccf3 063e ecf4 9bbe 3c59 88be
00000240: 2d5d e3be 38f7 80bd 772b 05be 556d ad3e
00000250: 2383 b73e 7eae ef3d 4083 b63e c7a1 823d
00000260: 3070 eabc a783 95be 55f3 f43e f57b b8be
00000270: 66e1 b4be 0d07 a9be 9ed6 1b3d 070b 07be
00000280: c83e 8fbe 6035 ca3e 9105 883e 997c 0f3e
00000290: 7cf2 c3be bec2 663e b333 7d3e 8fb2 9dbe
000002a0: 59c7 383e 937d c1bd 931d b9be b2d0 11be
000002b0: 6b60 ddbe f3d4 253e 010e bb3e 5c40 8f3e
000002c0: c746 d8be 5fc4 9cbd abcd 423e fd3f 44be
000002d0: 397a 8cbe f052 42bd 819e 38bd 6658 453d
000002e0: cf3d 083c 14d1 64be 9b30 d03e c23c e4be
000002f0: 7477 a83e 3cfa 2dbe 0dce 68be b50d d0be
00000300: 9ca4 73bc 6f59 e8be 9213 b9bd d7f6 9dbd
00000310: cba9 b03e df8f c73e 2fa4 d9be e1d8 8e3e
00000320: 8e48 a2be 4cdc a6be 8221 2dbd 9923 c83e
00000330: 3fb2 e73e d067 e53e 467e a4be f659 a3be
00000340: bbeb c6be 4da8 db3e f321 163e 5442 8c3d
00000350: 7619 3dbd aeda c03e 97fc e1be 3317 4a3e
00000360: 13e1 2ebe 0113 bdbd 7392 7f3e c762 7f3e
00000370: 2691 9cbe c8b8 e5be b3fd 903e 9b95 f13e
00000380: 56f6 433e c9e3 953c 8117 7d3e ec9e a9be
00000390: a901 e33c 4794 993e be6e f13e 6de5 8fbe
000003a0: 6292 d23e 5a07 2dbe 1595 c6bc 7018 adbe
000003b0: b2c5 ebbe 1fef aa3e 9c78 443d 9740 d2be
000003c0: 9db0 aa3e bfa4 d7bc 62fc e53e 74e5 bf3e
000003d0: 6dca f7be a2f1 833d 1c8f 83be f6d6 ebbe
000003e0: d4d5 6dbd bebf ddbd 57f9 5abe dd5d b0bc
000003f0: 3f81 4c3e c266 aa3c ba07 7abe 9a6e 4f3d

mamba.layers.0.mixer.conv1d.bias f4 [64]
0.48729503 0.32071495 0.12970172 0.31656867 -0.10028772 0.17642626 0.3482434 -0.002789876
0.20433456 -0.1822331 -0.117567405 0.13625872 0.12557727 0.5414708 -0.28250295 -0.10991197
-0.4263434 -0.36268184 -0.28102434 0.30198202 0.3274386 -0.14559709 -0.09129407 -0.38409144
-0.41822085 -0.17252925 0.188362 0.3539135 0.46088946 -0.4042896 -0.12621176 -0.26651803
-0.23386772 -0.39053822 -0.3462118 -0.4652771 -0.3649396 -0.41840997 0.24081479 0.13845444
0.1148759 -0.06430627 -0.32462487 0.030657643 0.4346936 -0.028226428 -0.3833651 0.30705237
-0.30953303 -0.504809 0.22990762 0.44220477 -0.42219412 0.32642245 0.0061557805 0.06860383
-0.14630245 -0.45429933 -0.03386939 -0.25124344 0.3990777 -0.41091 0.33750057 0.2040458
00000000: bc7e f93e c034 a43e 87d0 043e 4a15 a23e
00000010: a663 cdbd 16a9 343e f54c b23e 5ad6 36bb
00000020: 143d 513e 509b 3abe 2ec7 f0bd 6887 0b3e
00000030: 5497 003e d59d 0a3f 3aa4 90be 8719 e1bd
00000040: af49 dabe 6fb1 b9be 6ce2 8fbe 639d 9a3e
00000050: 08a6 a73e 6717 15be 63f8 babd a2a7 c4be
00000060: 0b21 d6be 82ab 30be f8e1 403e 2634 b53e
00000070: b4f9 eb3e 0cff cebe a83d 01be 0d75 88be
00000080: 057b 6fbe a0f4 c7be ac42 b1be cd38 eebe
00000090: 5dd9 babe d539 d6be 2798 763e 00c7 0d3e
000000a0: 0e44 eb3d 01b3 83bd 3b35 a6be bd25 fb3c
000000b0: 2990 de3e 1c3b e7bc 6e48 c4be f835 9d3e
000000c0: 1d7b 9ebe 2a3b 01bf e76c 6b3e aa68 e23e
000000d0: d429 d8be d820 a73e 6eb6 c93b 2a80 8c3d
000000e0: 4fd0 15be ec99 e8be a1ba 0abd fba2 80be
000000f0: ea53 cc3e cc62 d2be e0cc ac3e 62f1 503e

mamba.layers.0.mixer.x_proj.weight f4 [34, 64]
0.13381991 0.17493461 0.23754543 0.19442946 0.16915992 0.33783916 0.32261273 -0.0573966
0.33556572 -0.2886614 -0.3597461 0.11903904 0.29494154 0.29583994 -0.3709549 -0.21545157
-0.2629126 -0.11255193 -0.32144123 0.21111648 0.27957883 -0.17132801 0.16799441 -0.16527711
-0.1106173 -0.037022553 0.30557048 0.28195032 0.21367635 -0.28631687 -0.34745294 -0.2303424
-0.3776427 -0.17999946 -0.27554047 -0.29796445 -0.3398797 -0.29804066 0.21188502 0.36852646
0.063965864 -0.4471649 -0.1912369 -0.2363465 0.24957226 0.14549397 -0.26832208 0.10722793
-0.19657333 -0.3626838 0.2566811 0.17983016 -0.2529653 0.28360963 0.12445661 -0.070383936
-0.20796677 -0.35623777 -0.12608886 -0.41493744 -0.08529575 -0.2865469 0.14753161 0.29614654
0.14025798 -0.07363206 -0.031148547 0.043908138 0.0020313894 0.124631755 0.030805077 0.013085517
0.012996325 -0.058962107 0.06108717 0.076240085 0.017022401 0.16153492 -0.11294146 -0.15593496
0.031127911 0.09863675 0.104778476 0.041045945 0.090578325 -0.021237789 -0.13506022 -0.05449128
0.117953144 -0.0064244587 0.0468585 0.0171365 -0.06326886 -0.17395775 0.025181111 0.01700834
0.001726163 -0.0016519787 -0.1355433 0.061271887 -0.19340074 -0.14664 0.13712236 0.025259651
-0.020918682 -0.012622053 -0.018878251 -0.021952773 0.011415125 0.056770742 -0.028323948 0.090380654
-0.021665005 -0.11265966 -0.050334528 0.088556044 -0.054646224 0.13220665 -0.18733868 0.13735142
-0.13853844 -0.03571134 -0.17463917 0.041487616 0.08417047 -0.1318988 0.0039856313 0.03351527
-0.035762962 -0.056919113 0.03306182 -0.07648759 -0.19248806 -0.08123143 -0.031051205 -0.0225915
0.03992021 0.11121632 -0.09842621 -0.10518961 -0.027238373 -0.0149681 0.00076911715 0.04194797
0.04578266 0.03476329 -0.0427305 -0.009932846 -0.088422485 -0.041358866 -0.10525301 0.11895647
0.097467355 -0.048852757 -0.12954453 -0.10023079 0.08453234 0.11790673 -0.10678157 -0.13105935
0.092635244 0.025929403 0.087133415 -0.0049553025 -0.087744065 -0.11671972 0.047238387 0.07049176
-0.06787503 0.046770025 0.06893545 0.020853246 -0.12697056 -0.12491487 -0.004203189 0.033433553
-0.0600721 0.017975079 0.083962835 -0.09578218 0.026765613 0.06559415 0.05167151 0.015519472
-0.08145789 0.052639354 -0.121893376 0.039325923 -0.019341294 -0.076194584 -0.040623486 -0.028798863
0.08378848 0.024738548 -0.03977809 0.13406534 0.1287554 0.094064794 -0.026290378 -0.10271107
0.002190683 -0.15258504 -0.07791674 0.06551976 0.19023475 0.12064624 -0.14618133 -0.14396983
-0.084465705 0.026100622 -0.09043358 0.14787991 0.1384472 0.087711975 0.19576414 0.017387496
-0.1220347 0.085571 0.14412275 -0.09235637 0.075029716 -0.10453268 -0.2037617 -0.14839064
-0.2640167 0.052799556 -0.040803403 -0.022759067 -0.15616395 -0.01976747 0.061775427 0.20794538
-0.0448661 -0.33825278 0.00024936363 0.033536572 0.24398579 0.11603902 -0.083359465 0.123772636
-0.054021638 -0.07662526 -0.015846597 0.047203686 -0.12668023 0.12857917 0.18590322 -0.12284385
-0.046880115 0.013854795 -0.16159777 -0.07211779 -0.09105418 0.10585237 0.17907818 -0.0023001574
00000000: 1608 093e 0f22 333e 1c3f 733e 8418 473e
00000010: 4238 2d3e 41f9 ac3e 7f2d a53e b218 6bbd
00000020: 45cf ab3e 6dcb 93be a430 b8be bdca f33d
00000030: 9402 973e 5578 973e cded bdbe 569f 5cbe
00000040: 7b9c 86be a081 e6bd f293 a4be eb2e 583e
00000050: f524 8f3e 9c70 2fbe ba06 2c3e 673e 29be
00000060: 538b e2bd f6a4 17bd bc73 9c3e cb5b 903e
00000070: f9cd 5a3e 2098 92be 5ae5 b1be e1de 6bbe
00000080: 625a c1be c751 38be a413 8dbe cc8e 98be
00000090: b604 aebe c998 98be 63f8 583e 80af bc3e
000000a0: 8900 833d ccf2 e4be 9bd3 43be d104 72be
000000b0: df8f 7f3e 5ffc 143e 8361 89be 519a db3d
000000c0: 854a 49be b1b1 b9be b56b 833e 6625 383e
000000d0: ab84 81be 4835 913e 1be3 fe3d 7425 90bd
000000e0: 3ef5 54be cc64 b6be 701d 01be ae72 d4be
000000f0: 8aaf aebd 46b6 92be 8712 173e 85a0 973e
00000100: ca9f 0f3e 68cc 96bd 3d2b ffbc 05d9 333d
00000110: 0f21 053b ef3e ff3d ee5a fc3c a364 563c
00000120: 8aee 543c 4082 71bd 8a36 7a3d c323 9c3d
00000130: 9072 8b3c 6969 253e da4d e7bd 6aad 1fbe
00000140: f6ff fe3c 1002 ca3d 1996 d63d cb1f 283d
00000150: 2181 b93d dffa adbc 3a4d 0abe 4032 5fbd
00000160: 6b91 f13d 4484 d2bb b3ee 3f3d d861 8c3c
00000170: 1b93 81bd fb21 32be 9e48 ce3c 1355 8b3c
00000180: 6b40 e23a 3587 d8ba ddcb 0abe 3bf8 7a3d
00000190: d80a 46be cc28 16be ce69 0c3e 54ed ce3c
000001a0: a85d abbc bacc 4ebc 90a6 9abc 4dd6 b3bc
000001b0: 8106 3b3c 7088 683d a007 e8bc 7e19 b93d
000001c0: cf7a b1bc 1cba e6bd 942b 4ebd df5c b53d
000001d0: b8d4 5fbd 2e61 073e b6d5 3fbe daa5 0c3e
000001e0: 05dd 0dbe 0e46 12bd 9cd4 32be ebee 293d
000001f0: 9161 ac3d 7b10 07be e699 823b 4f47 093d
00000200: 2f7c 12bd 0424 69bd d56b 073d 87a5 9cbd
00000210: 971b 45be aa5c a6bd 195f febc cf11 b9bc
00000220: 6083 233d 62c5 e33d ae93 c9bd a66d d7bd
00000230: 0223 dfbc c33c 75bc 949e 493a a2d1 2b3d
00000240: 9986 3b3d f463 0e3d 2d06 2fbd 60bd 22bc
00000250: d916 b5bd ea67 29bd e48e d7bd 739f f33d
00000260: f79c c73d d419 48bd 52a7 04be cd45 cdbd
00000270: 4b1f ad3d 1579 f13d 4cb0 dabd 6c34 06be
00000280: 8cb7 bd3d e669 d43c 0173 b23d 1760 a2bb
00000290: 29b3 b3bd c00a efbd 0a7d 413d fc5d 903d
000002a0: 1002 8bbd ed91 3f3d 072e 8d3d 6dd4 aa3c
000002b0: 9204 02be 5ed3 ffbd e8ba 89bb 9ff1 083d
000002c0: 2a0e 76bd 7940 933c b5f4 ab3d 7329 c4bd
000002d0: 8f43 db3c 3a56 863d 81a5 533d 6245 7e3c
000002e0: 65d3 a6bd 5d9c 573d 3ca3 f9bd 3814 213d
000002f0: a271 9ebc e80b 9cbd d064 26bd 98eb ebbc
00000300: 4b99 ab3d 7fa8 ca3c 5aee 22bd 6d48 093e
00000310: 75d8 033e 0ba5 c03d eb5e d7bc 2e5a d2bd
00000320: 9091 0f3b 413f 1cbe d092 9fbd 392f 863d
00000330: e6cc 423e 6015 f73d 8fb0 15be d46c 13be
00000340: 5bfc acbd f9d0 d53c 3e35 b9bd d56d 173e
00000350: 1ac5 0d3e 56a2 b33d 6576 483e 3970 8e3c
00000360: 54ed f9bd d93f af3d ea94 133e 5625 bdbd
00000370: 2ea9 993d 3b15 d6bd e8a6 50be b7f3 17be
00000380: 322d 87be 5944 583d 7821 27bd 3971 babc
00000390: 71e9 1fbe 64ef a1bc 3b08 7d3d a2ef 543e
000003a0: 84c5 37bd 782f adbe 05bd 8239 a55d 093d
000003b0: 69d7 793e dea5 ed3d 5eb8 aabd 827c fd3d
000003c0: cb45 5dbd b4ed 9cbd b9d0 81bc a758 413d
000003d0: 76b8 01be 42aa 033e 6a5d 3e3e 8e95 fbbd
000003e0: 5d05 40bd 39ff 623c e379 25be 7eb2 93bd
000003f0: 9d7a babd 21c9 d83d 4560 373e 3dbe 16bb

mamba.layers.0.mixer.dt_proj.weight f4 [64, 2]
0.038353 -0.546913 -0.2609345 0.13584653 0.14194883 -0.5170885 -0.68300253 0.34795368
0.3511666 0.25573102 -0.2930063 0.035629768 0.061503224 -0.06761657 0.05325093 -0.1621499
0.60715836 0.1352657 -0.37143892 -0.062409364 0.95652616 0.009419565 0.15432589 0.07257962
0.23057137 -0.3641664 0.64579165 -0.42527002 -0.30467585 0.3766873 -0.19348487 0.20114131
-0.09696089 0.25372055 -0.24985076 -0.4725261 0.65123796 0.39348403 0.7220616 0.6124594
0.30371156 -0.26286393 -0.35861543 0.62905055 0.5424181 0.14735118 0.21950899 -0.19085774
0.5753208 -0.5214684 0.042829495 -0.38889357 0.5518052 1.0022671 0.5882296 -0.62775815
-0.07238243 0.3552723 -0.55062973 0.123250715 0.49137688 0.48806927 -0.0009456406 -0.25049934
-0.5044535 0.58797187 0.34212822 -0.39537242 -0.0033651153 0.3853218 -0.49472198 -0.1834618
-0.027689379 0.17573464 -0.26241612 -0.015917975 -0.5848478 -0.38706186 0.23218207 -0.6959557
0.5433495 -0.42096198 0.88641274 0.019592103 0.59710526 0.73473257 0.52062196 -0.36209452
0.4304752 -0.48083013 0.7689936 -0.23204246 -0.4091793 0.60783297 -0.26012796 0.34943643
0.5856394 0.17882231 0.5303441 0.25822192 -0.040003907 -0.5776872 -0.048723742 -0.5680689
-0.6146555 -0.06355645 0.59088725 0.10821244 -0.10695594 -0.5648255 0.08278172 0.10902569
-0.0059762476 0.59518796 -0.2018957 0.43684998 0.36375487 0.050299235 0.09121108 0.5558133
-0.7219414 0.22519653 -0.3205579 -0.17686829 -0.24808274 -0.66998935 0.3357314 0.43409222
00000000: 0918 1d3d 7e02 0cbf 3599 85be 5a1b 0b3e
00000010: 095b 113e e95f 04bf 41d9 2ebf fc26 b23e
00000020: 1ccc b33e 2def 823e ec04 96be 85f0 113d
00000030: ceea 7b3d 8e7a 8abd a61d 5a3d a00a 26be
00000040: bb6e 1b3f 1783 0a3e 3e2d bebe f6a0 7fbd
00000050: e6de 743f 8554 1a3c 9b07 1e3e a0a4 943d
00000060: e71a 6c3e 0574 babe 9a52 253f febc d9be
00000070: 79fe 9bbe 28dd c03e e620 46be fdf7 4d3e
00000080: 6e93 c6bd a9e7 813e e1d8 7fbe f1ee f1be
00000090: 88b7 263f bd76 c93e 07d9 383f 24ca 1c3f
000000a0: 1580 9b3e 1a96 86be 719c b7be 7509 213f
000000b0: eadb 0a3f 3ae3 163e f7c6 603e 3670 43be
000000c0: 3948 133f f47e 05bf fb6d 2f3d 0f1d c7be
000000d0: 1b43 0d3f 4a4a 803f 3796 163f c2b4 20bf
000000e0: 3d3d 94bd 40e6 b53e 12f6 0cbf df6a fc3d
000000f0: c095 fb3e 37e4 f93e dee4 77ba 7341 80be
00000100: dd23 01bf 5385 163f 6e2b af3e 416e cabe
00000110: 4489 5cbb e648 c53e 334c fdbe 69dd 3bbe
00000120: d6d4 e2bc c8f3 333e 685b 86be 6a66 82bc
00000130: 96b8 15bf f92c c6be 23c1 6d3e 272a 32bf
00000140: f418 0b3f 5488 d7be f2eb 623f 9e7f a03c
00000150: e4db 183f 6f17 3c3f 7b47 053f 7464 b9be
00000160: 3f67 dc3e 5e2f f6be c4dc 443f 8a9c 6dbe
00000170: f37f d1be f19a 1b3f 7e2f 85be 55e9 b23e
00000180: 77ec 153f 321d 373e a2c4 073f aa35 843e
00000190: 23db 23bd 4fe3 13bf 8c92 47bd f76c 11bf
000001a0: 105a 1dbf e229 82bd 6344 173f 7c9e dd3d
000001b0: b70b dbbd 6798 10bf 7689 a93d dc48 df3d
000001c0: 66d4 c3bb 3d5e 183f bfbd 4ebe cdaa df3e
000001d0: 143e ba3e 9206 4e3d e0cc ba3d c849 0e3f
000001e0: 27d1 38bf eb99 663e 2a20 a4be f61c 35be
000001f0: 6709 7ebe 6c84 2bbf fce4 ab3e 5641 de3e

mamba.layers.0.mixer.dt_proj.bias f4 [64]
-5.842144 -4.7164183 -4.890453 -4.232693 -3.274013 -6.495013 -3.6721017 -6.236197
-5.914047 -5.0072136 -6.2516613 -4.101751 -6.757532 -6.523812 -2.4925785 -6.509325
-6.766134 -6.7421856 -2.9916728 -5.7486815 -6.108022 -3.5187418 -5.5924845 -2.672492
-4.693793 -5.1741033 -4.135701 -4.6467752 -4.918996 -4.4851933 -3.5390427 -2.2422638
-6.391458 -3.0882049 -5.9812794 -4.0906286 -3.2989433 -5.186651 -3.0718198 -3.6546385
-2.3436089 -2.0480363 -2.3231356 -3.899192 -2.168642 -5.051659 -2.2221365 -3.4174953
-5.476431 -4.109269 -3.7006736 -6.582802 -5.0978465 -6.7457232 -4.8012743 -4.5065823
-6.496503 -4.250844 -5.4857206 -6.436639 -5.1604586 -3.911807 -5.825971 -2.4283788
00000000: d8f2 bac0 e6ec 96c0 977e 9cc0 3972 87c0
00000010: 6e89 51c0 26d7 cfc0 b703 6bc0 ed8e c7c0
00000020: df3f bdc0 183b a0c0 9c0d c8c0 8b41 83c0
00000030: b43d d8c0 11c3 d0c0 6886 1fc0 644c d0c0
00000040: 2b84 d8c0 fcbf d7c0 9177 3fc0 33f5 b7c0
00000050: eb74 c3c0 1133 61c0 a2f5 b2c0 1c0a 2bc0
00000060: 8d33 96c0 4192 a5c0 aa57 84c0 62b2 94c0
00000070: 6a68 9dc0 b486 8fc0 ad7f 62c0 4081 0fc0
00000080: d386 ccc0 26a5 45c0 a466 bfc0 6ee6 82c0
00000090: e321 53c0 0cf9 a5c0 b298 44c0 99e5 69c0
000000a0: b0fd 15c0 0713 03c0 41ae 14c0 5d8c 79c0
000000b0: 08cb 0ac0 31a7 a1c0 7c37 0ec0 3eb8 5ac0
000000c0: ec3e afc0 227f 83c0 d6d7 6cc0 50a6 d2c0
000000d0: 8f21 a3c0 f7dc d7c0 0aa4 99c0 ec35 90c0
000000e0: 5ae3 cfc0 ea06 88c0 068b afc0 f2f8 cdc0
000000f0: 7a22 a5c0 0c5b 7ac0 5b6e bac0 8f6a 1bc0

mamba.layers.0.mixer.out_proj.weight f4 [32, 64]
-0.093519926 0.10473751 0.0736798 -0.0207157 0.011661084 0.007222173 -0.085369736 0.1161971
0.0637828 0.08527891 0.061764598 -0.07322527 0.06772581 -0.22804137 -0.08510024 0.051956665
-0.14097731 -0.064401686 0.056063842 -0.025526414 -0.083984956 0.032122545 -0.0488333 0.079819486
-0.08936596 -0.028247455 -0.06171212 0.013804837 -0.09134039 -0.08461002 -0.11450633 -0.032722544
0.11455922 -0.099433556 0.01817988 0.02965083 0.03745185 -0.046211556 0.06320933 0.049558662
0.08365389 -0.06402781 0.06408288 0.07598695 -0.0137266945 0.04378401 -0.01569066 0.045378614
0.109765545 0.10330206 -0.03923408 -0.083348 0.08661062 -0.093420066 0.06396869 0.093674324
0.095216945 0.046017453 0.04747892 -0.067351736 -0.13312346 -0.16473962 0.06835395 0.0764325
0.07265091 0.116304375 0.09728892 -0.040485974 0.14931026 0.08429335 -0.10487878 0.14809738
0.01822925 0.002744006 -0.16149953 0.010339595 0.05992536 -0.23763207 -0.062575206 -0.044451784
-0.17529897 0.0076025077 0.0038287481 -0.051133446 0.13752572 -0.03139048 0.02418013 0.034759957
0.09751749 -0.0041620866 0.034963146 0.07270577 -0.020121554 0.06233046 -0.078858025 0.0051978063
-0.036116134 -0.09200645 0.02071609 0.071005315 -0.13795272 0.036782376 0.021581048 -0.056375705
-0.017661968 -0.13187614 -0.08521209 -0.026099859 0.13358964 0.103412114 0.04017686 -0.12925148
0.041258015 0.10978932 0.011593801 0.1052704 0.119732335 0.12126666 0.041586157 -0.12771803
-1.824222e-05 0.02559566 0.047503874 0.01007565 0.0694395 -0.08151222 0.03765299 -0.13276854
0.06569259 -0.015462408 -0.045445893 0.021375977 0.043803945 0.06919314 0.042138975 0.10357387
0.0676014 0.028945439 0.086159356 -0.08145299 0.1001306 -0.19518155 -0.103236854 0.08839722
-0.09672251 0.102804564 0.062298127 -0.007303024 0.0995424 -0.010670687 0.10979107 0.002483141
0.043728776 0.04194699 0.0025717346 -0.10356623 -7.227138e-05 0.042516753 -0.070340395 0.005009326
0.030921705 0.0032625736 0.028237673 0.072559215 0.031472135 -0.08616428 -0.09854083 0.099514395
-0.1265143 -0.035907622 -0.054078512 0.07897255 0.066074714 0.015661677 -0.057582505 0.09731553
0.052354753 0.012062801 -0.09973713 -0.07362693 -0.053885885 0.004629689 0.11239461 -0.09979942
0.10951471 0.110697776 0.045385662 -0.06661516 0.0870963 0.0028282143 -0.036645345 0.05649358
-0.04475005 -0.10734924 -0.038238164 -0.03950885 -0.15309547 0.030642794 -0.0045405477 0.03810234
-0.06475882 -0.043794334 -0.001091968 0.06465623 0.019033762 -0.01935712 0.07971976 0.13470863
0.0003259767 -0.03156809 0.029703554 -0.0343918 0.006444027 0.13081571 -0.16294987 -0.0048191273
-0.037619963 0.15548937 -0.023463592 0.026089849 -0.054378722 -0.115743555 -0.09680508 -0.074388646
0.07086765 -0.08828283 0.035100892 -0.053011607 -0.08880979 -0.089245796 0.12737149 -0.009557776
0.036417663 0.14504538 -0.04260675 -0.10756316 -0.008891356 0.018571887 0.052756313 -0.11281002
0.010221694 0.12795246 -0.058207132 -0.13231798 0.10925058 -0.102766275 0.026045144 0.14006087
0.10173604 0.09788225 -0.0798033 -0.059465498 -0.0934689 -0.067340046 -0.060783565 0.16590245
00000000: 6087 bfbd 9f80 d63d 6fe5 963d f9b3 a9bc
00000010: 220e 3f3c faa7 ec3b 54d6 aebd bff8 ed3d
00000020: 8fa0 823d b6a6 ae3d e0fc 7c3d 21f7 95bd
00000030: d4b3 8a3d ad83 69be 0949 aebd 83d0 543d
00000040: 5b5c 10be 08e5 83bd 33a3 653d c51c d1bc
00000050: 4e00 acbd ee92 033d 6d05 48bd 6678 a33d
00000060: 8005 b7bd 3567 e7bc d9c5 7cbd af2d 623c
00000070: ac10 bbbd 0548 adbd 4b82 eabd 1308 06bd
00000080: 069e ea3d d2a3 cbbd f9ed 943c 4ce6 f23c
00000090: 1c67 193d 5448 3dbd e573 813d 06fe 4a3d
000000a0: bb52 ab3d 0321 83bd e33d 833d 0c9f 9b3d
000000b0: eee5 60bc dd56 333d b389 80bc edde 393d
000000c0: c2cc e03d 0890 d33d eab3 20bd 5bb2 aabd
000000d0: e960 b13d 0553 bfbd 0402 833d 53d8 bf3d
000000e0: 1a01 c33d cc7c 3c3d 4279 423d b5ef 89bd
000000f0: 8451 08be 81b1 28be 28fd 8b3d a488 9c3d
00000100: 00ca 943d fd30 ee3d 6a3f c73d 9fd4 25bd
00000110: cae4 183e fea1 ac3d b0ca d6bd d7a6 173e
00000120: 8255 953c c8d4 333b 2260 25be 6867 293c
00000130: 4b74 753d d255 73be 6e27 80bd 1313 36bd
00000140: 9381 33be 751e f93b bceb 7a3b 4e71 51bd
00000150: 8bd3 0c3e 4e93 00bd 6815 c63c 7560 0e3d
00000160: 40b7 c73d 1d62 88bb 8435 0f3d c3e6 943d
00000170: f5d5 a4bc 394e 7f3d 5180 a1bd 5c52 aa3b
00000180: 83ee 13bd e16d bcbd cab4 a93c 3c6b 913d
00000190: 7a43 0dbe 1ea9 163d bdca b03c 36ea 66bd
000001a0: d5af 90bc 8a0a 07be ad83 aebd 5fcf d5bc
000001b0: b9cb 083e bbc9 d33d 7e90 243d 805a 04be
000001c0: 2afe 283d 39d9 e03d edf3 3d3c 0298 d73d
000001d0: 3a36 f53d a85a f83d 3f56 2a3d 84c8 02be
000001e0: df06 99b7 fdad d13c 6c93 423d 5714 253c
000001f0: 4c36 8e3d e1ef a6bd 063a 1a3d 7af4 07be
00000200: d689 863d 0a56 7dbc 7925 3abd ac1c af3c
00000210: c46b 333d 22b5 8d3d eb99 2c3d 8a1e d43d
00000220: 9a72 8a3d fc1e ed3c 5174 b03d d3d0 a6bd
00000230: 4611 cd3d acdd 47be d86d d3bd 9a09 b53d
00000240: 7416 c6bd 338b d23d 522c 7f3d 354e efbb
00000250: e3dc cb3d 1bd4 2ebc 24da e03d 31bc 223b
00000260: f21c 333d 9bd0 2b3d 8c8a 283b 881a d4bd
00000270: 6790 97b8 0c26 2e3d a00e 90bd 4625 a43b
00000280: 844f fd3c e7d0 553b b152 e73c ed99 943d
00000290: ede8 003d e676 b0bd c6cf c9bd 34ce cb3d
000002a0: f78c 01be df13 13bd 6e81 5dbd 5cbc a13d
000002b0: 2e52 873d eb4c 803c a2db 6bbd 5d4d c73d
000002c0: f071 563d 0ea3 453c fb42 ccbd b7c9 96bd
000002d0: 72b7 5cbd a5b4 973b 252f e63d a363 ccbd
000002e0: 4049 e03d 84b5 e23d 51e6 393d 876d 88bd
000002f0: 8c5f b23d 9059 393b 6e19 16bd d065 673d
00000300: d44b 37bd ebd9 dbbd 9f9f 1cbd 08d4 21bd
00000310: 0fc5 1cbe 9906 fb3c e0c8 94bb 3311 1c3d
00000320: 46a0 84bd b061 33bd 5e20 8fba 7c6a 843d
00000330: b1ec 9b3c d392 9ebc 1d44 a33d 0ff1 093e
00000340: dae7 aa39 8b4d 01bd de54 f33c 6bde 0cbd
00000350: 6b28 d33b 8ef4 053e 55dc 26be c5e9 9dbb
00000360: 6417 1abd 9b38 1f3e b836 c0bc 61ba d53c
00000370: 39bc 5ebd f50a edbd be41 c6bd 1359 98bd
00000380: 0f23 913d a1cd b4bd f4c5 0f3d b322 59bd
00000390: e8e1 b5bd 80c6 b6bd ac6d 023e 3898 1cbc
000003a0: b02a 153d c786 143e 6a84 2ebd 134a dcbd
000003b0: 0dad 11bc 1224 983c 0117 583d f108 e7bd
000003c0: e478 273c f805 033e 9a6a 6ebd 5d7e 07be
000003d0: c5be df3d 2077 d2bd a05c d53c 1e6c 0f3e
000003e0: fc5a d03d 7d76 c83d ea6f a3bd 1892 73bd
000003f0: 9f6c bfbd 94e9 89bd 30f8 78bd 55e2 293e

mamba.layers.0.norm.weight f4 [32]
0.9771534 1.0572537 1.0066803 1.0086639 0.9651025 1.092614 0.9974542 1.0886524
0.9604365 0.91279 0.9833666 0.9941332 1.1330404 0.98988414 1.2502807 0.9711519
0.9986419 1.0047734 0.983613 0.98463595 1.0073867 1.0956466 0.99556184 1.052783
0.99626297 0.9645646 0.99275744 0.9682843 0.9900391 0.9730097 0.94784486 1.2360212
00000000: ba26 7a3f 1754 873f e6da 803f e61b 813f
00000010: f510 773f c7da 8b3f 2959 7f3f f658 8b3f
00000020: 2bdf 753f 9bac 693f eabd 7b3f 837f 7e3f
00000030: 7807 913f 0c69 7d3f 3309 a03f 699d 783f
00000040: ffa6 7f3f 6a9c 803f 10ce 7b3f 1a11 7c3f
00000050: 0cf2 803f 263e 8c3f 24dd 7e3f 98c1 863f
00000060: 170b 7f3f b5ed 763f 5a25 7e3f 7be1 773f
00000070: 3473 7d3f 2a17 793f f6a5 723f f135 9e3f

mamba.layers.1.mixer.A_log f4 [64, 16]
0.0 0.68487877 1.0855165 1.3697575 1.590213 1.7703903 1.9227061 2.0546184
2.171033 2.2750852 2.3692808 2.455307 2.5343227 2.6075652 2.675763 2.739515
0.0 0.68487877 1.0855165 1.3697575 1.590213 1.7703903 1.9227061 2.0546184
2.171033 2.2750852 2.3692808 2.455307 2.5343227 2.6075652 2.675763 2.739515
0.0 0.68487877 1.0855165 1.3697575 1.590213 1.7703903 1.9227061 2.0546184
2.171033 2.2750852 2.3692808 2.455307 2.5343227 2.6075652 2.675763 2.739515
0.0 0.68487877 1.0855165 1.3697575 1.590213 1.7703903 1.9227061 2.0546184
2.171033 2.2750852 2.3692808 2.455307 2.5343227 2.6075652 2.675763 2.739515
0.0 0.68487877 1.0855165 1.3697575 1.590213 1.7703903 1.9227061 2.0546184
2.171033 2.2750852 2.3692808 2.455307 2.5343227 2.6075652 2.675763 2.739515
0.0 0.68487877 1.0855165 1.3697575 1.590213 1.7703903 1.9227061 2.0546184
2.171033 2.2750852 2.3692808 2.455307 2.5343227 2.6075652 2.675763 2.739515
0.0 0.68487877 1.0855165 1.3697575 1.590213 1.7703903 1.9227061 2.0546184
2.171033 2.2750852 2.3692808 2.455307 2.5343227 2.6075652 2.675763 2.739515
0.0 0.68487877 1.0855165 1.3697575 1.590213 1.7703903 1.9227061 2.0546184
2.171033 2.2750852 2.3692808 2.455307 2.5343227 2.6075652 2.675763 2.739515
0.0 0.68487877 1.0855165 1.3697575 1.590213 1.7703903 1.9227061 2.0546184
2.171033 2.2750852 2.3692808 2.455307 2.5343227 2.6075652 2.675763 2.739515
0.0 0.68487877 1.0855165 1.3697575 1.590213 1.7703903 1.9227061 2.0546184
2.171033 2.2750852 2.3692808 2.455307 2.5343227 2.6075652 2.675763 2.739515
0.0 0.68487877 1.0855165 1.3697575 1.590213 1.7703903 1.9227061 2.0546184
2.171033 2.2750852 2.3692808 2.455307 2.5343227 2.6075652 2.675763 2.739515
0.0 0.68487877 1.0855165 1.3697575 1.590213 1.7703903 1.9227061 2.0546184
2.171033 2.2750852 2.3692808 2.455307 2.5343227 2.6075652 2.675763 2.739515
0.0 0.68487877 1.0855165 1.3697575 1.590213 1.7703903 1.9227061 2.0546184
2.171033 2.2750852 2.3692808 2.455307 2.5343227 2.6075652 2.675763 2.739515
0.0 0.68487877 1.0855165 1.3697575 1.590213 1.7703903 1.9227061 2.0546184
2.171033 2.2750852 2.3692808 2.455307 2.5343227 2.6075652 2.675763 2.739515
0.0 0.68487877 1.0855165 1.3697575 1.590213 1.7703903 1.9227061 2.0546184
2.171033 2.2750852 2.3692808 2.455307 2.5343227 2.6075652 2.675763 2.739515
0.0 0.68487877 1.0855165 1.3697575 1.590213 1.7703903 1.9227061 2.0546184
2.171033 2.2750852 2.3692808 2.455307 2.5343227 2.6075652 2.675763 2.739515
00000000: 0000 0000 3754 2f3f 34f2 8a3f 3754 af3f
00000010: 198c cb3f 269c e23f 3c1b f63f de7e 0340
00000020: 34f2 0a40 ff9a 1140 4ca2 1740 c023 1d40
00000030: 5832 2240 59e2 2640 b33f 2b40 3754 2f40
00000040: 0000 0000 3754 2f3f 34f2 8a3f 3754 af3f
00000050: 198c cb3f 269c e23f 3c1b f63f de7e 0340
00000060: 34f2 0a40 ff9a 1140 4ca2 1740 c023 1d40
00000070: 5832 2240 59e2 2640 b33f 2b40 3754 2f40
00000080: 0000 0000 3754 2f3f 34f2 8a3f 3754 af3f
00000090: 198c cb3f 269c e23f 3c1b f63f de7e 0340
000000a0: 34f2 0a40 ff9a 1140 4ca2 1740 c023 1d40
000000b0: 5832 2240 59e2 2640 b33f 2b40 3754 2f40
000000c0: 0000 0000 3754 2f3f 34f2 8a3f 3754 af3f
000000d0: 198c cb3f 269c e23f 3c1b f63f de7e 0340
000000e0: 34f2 0a40 ff9a 1140 4ca2 1740 c023 1d40
000000f0: 5832 2240 59e2 2640 b33f 2b40 3754 2f40
00000100: 0000 0000 3754 2f3f 34f2 8a3f 3754 af3f
00000110: 198c cb3f 269c e23f 3c1b f63f de7e 0340
00000120: 34f2 0a40 ff9a 1140 4ca2 1740 c023 1d40
00000130: 5832 2240 59e2 2640 b33f 2b40 3754 2f40
00000140: 0000 0000 3754 2f3f 34f2 8a3f 3754 af3f
00000150: 198c cb3f 269c e23f 3c1b f63f de7e 0340
00000160: 34f2 0a40 ff9a 1140 4ca2 1740 c023 1d40
00000170: 5832 2240 59e2 2640 b33f 2b40 3754 2f40
00000180: 0000 0000 3754 2f3f 34f2 8a3f 3754 af3f
00000190: 198c cb3f 269c e23f 3c1b f63f de7e 0340
000001a0: 34f2 0a40 ff9a 1140 4ca2 1740 c023 1d40
000001b0: 5832 2240 59e2 2640 b33f 2b40 3754 2f40
000001c0: 0000 0000 3754 2f3f 34f2 8a3f 3754 af3f
000001d0: 198c cb3f 269c e23f 3c1b f63f de7e 0340
000001e0: 34f2 0a40 ff9a 1140 4ca2 1740 c023 1d40
000001f0: 5832 2240 59e2 2640 b33f 2b40 3754 2f40
00000200: 0000 0000 3754 2f3f 34f2 8a3f 3754 af3f
00000210: 198c cb3f 269c e23f 3c1b f63f de7e 0340
00000220: 34f2 0a40 ff9a 1140 4ca2 1740 c023 1d40
00000230: 5832 2240 59e2 2640 b33f 2b40 3754 2f40
00000240: 0000 0000 3754 2f3f 34f2 8a3f 3754 af3f
00000250: 198c cb3f 269c e23f 3c1b f63f de7e 0340
00000260: 34f2 0a40 ff9a 1140 4ca2 1740 c023 1d40
00000270: 5832 2240 59e2 2640 b33f 2b40 3754 2f40
00000280: 0000 0000 3754 2f3f 34f2 8a3f 3754 af3f
00000290: 198c cb3f 269c e23f 3c1b f63f de7e 0340
000002a0: 34f2 0a40 ff9a 1140 4ca2 1740 c023 1d40
000002b0: 5832 2240 59e2 2640 b33f 2b40 3754 2f40
000002c0: 0000 0000 3754 2f3f 34f2 8a3f 3754 af3f
000002d0: 198c cb3f 269c e23f 3c1b f63f de7e 0340
000002e0: 34f2 0a40 ff9a 1140 4ca2 1740 c023 1d40
000002f0: 5832 2240 59e2 2640 b33f 2b40 3754 2f40
00000300: 0000 0000 3754 2f3f 34f2 8a3f 3754 af3f
00000310: 198c cb3f 269c e23f 3c1b f63f de7e 0340
00000320: 34f2 0a40 ff9a 1140 4ca2 1740 c023 1d40
00000330: 5832 2240 59e2 2640 b33f 2b40 3754 2f40
00000340: 0000 0000 3754 2f3f 34f2 8a3f 3754 af3f
00000350: 198c cb3f 269c e23f 3c1b f63f de7e 0340
00000360: 34f2 0a40 ff9a 1140 4ca2 1740 c023 1d40
00000370: 5832 2240 59e2 2640 b33f 2b40 3754 2f40
00000380: 0000 0000 3754 2f3f 34f2 8a3f 3754 af3f
00000390: 198c cb3f 269c e23f 3c1b f63f de7e 0340
000003a0: 34f2 0a40 ff9a 1140 4ca2 1740 c023 1d40
000003b0: 5832 2240 59e2 2640 b33f 2b40 3754 2f40
000003c0: 0000 0000 3754 2f3f 34f2 8a3f 3754 af3f
000003d0: 198c cb3f 269c e23f 3c1b f63f de7e 0340
000003e0: 34f2 0a40 ff9a 1140 4ca2 1740 c023 1d40
000003f0: 5832 2240 59e2 2640 b33f 2b40 3754 2f40
