saves_ar/soc_mamba_v1/model.pth (torch, 271666 bytes, 80 tensors)

iu_mean f4 [2]
0.0 0.0
00000000: 0000 0000 0000 0000

iu_std f4 [2]
1.0 1.0
00000000: 0000 803f 0000 803f

input_proj.weight f4 [32, 6]
0.2945849 0.17934309 -0.34904587 0.17356561 -0.32783115 0.2521047 0.3036323 0.19714062
0.03744023 -0.34465274 0.16166632 -0.22559834 0.17903541 -0.29567772 -0.27078414 -0.12878191
0.29228812 -0.19944587 0.21365064 -0.38212973 -0.35203835 0.29454818 -0.023556795 -0.36679405
-0.2938287 -0.1711669 0.15236321 -0.08122009 -0.18032537 -0.22289951 0.2170304 0.031536255
-0.034758683 0.30451626 -0.332406 -0.09893608 0.0009016894 0.12562793 0.11841108 0.34514153
0.044928685 0.20916456 -0.2651944 -0.046788827 -0.07155409 -0.04937355 0.2551304 0.31963998
-0.0058668 0.11038559 -0.008498594 0.283985 0.26083362 0.36863324 -0.30789068 0.082173616
0.04437765 0.1299835 -0.16754024 -0.18296438 -0.18828925 -0.3478802 0.38939714 -0.30224562
0.11459528 0.13735904 -0.34353235 0.18184926 -0.16643582 0.056244224 0.12131332 0.10225045
0.30035114 -0.048787598 -0.19037974 0.2278317 0.12458633 -0.027077388 0.343647 -0.30405384
-0.03970824 -0.3709338 -0.020114398 -0.011609798 0.045116056 -0.05947765 -0.0686836 0.10656534
-0.16783994 -0.18182163 0.37969556 -0.3183772 -0.34245673 0.21584749 -0.099200346 0.15045504
0.31929561 0.33345664 0.29233158 0.393747 -0.13295996 0.0011705577 -0.053223357 -0.033608932
0.3874609 -0.34034464 0.032679055 -0.17380193 0.3100474 0.34507474 -0.19058678 0.39822233
-0.36759531 0.262233 0.10875959 0.09281445 -0.35409874 -0.13538037 0.1070347 -0.33996496
-0.18161291 0.072485 0.37411994 0.071106076 -0.08329737 -0.012778243 0.337748 -0.114623114
-0.10168379 0.27996594 -0.21965495 -0.106226794 -0.25482064 -0.22698642 0.22042951 0.11850212
0.43715855 -0.014054424 0.011475707 -0.053992588 -0.2997747 0.3555194 0.0147543475 -0.056534193
-0.052620534 -0.1475194 -0.23507452 0.113391 0.40931377 -0.36771694 0.3579821 -0.3813975
0.13483801 -0.12934673 0.33375514 0.38016117 -0.063666046 0.23170324 0.30441046 -0.07484471
0.14985368 0.05638764 0.21115692 0.3516431 0.038928956 0.27483138 -0.32025015 -0.2470758
-0.07702554 0.33301663 0.010334084 0.26514617 -0.011111105 0.06824387 -0.20619988 0.37989947
-0.19239774 -0.22490387 0.3070937 -0.23493782 0.28939596 0.1345461 -0.07682672 0.05970703
-0.43832812 -0.20332402 0.17300798 -0.090487994 0.17865002 -0.29109684 -0.07611757 -0.14003107
00000000: d5d3 963e b7a5 373e 24b6 b2be 2fbb 313e
00000010: 7cd9 a7be de13 813e b175 9b3e 3bdf 493e
00000020: ed5a 193d 5376 b0be db8b 253e 4003 67be
00000030: 0f55 373e 1263 97be 38a4 8abe 68df 03be
00000040: caa6 953e 8a3b 4cbe 3cc7 5a3e 82a6 c3be
00000050: 5f3e b4be 05cf 963e 2efa c0bc 6ecc bbbe
00000060: b770 96be 6046 2fbe 1a05 1c3e b856 a6bd
00000070: 37a7 38be c53f 64be 383d 5e3e 292c 013d
00000080: 1f5f 0ebd 8ee9 9b3e 1f31 aabe 009f cabd
00000090: 5a5f 6c3a 9ca4 003e 8281 f23d 64b6 b03e
000000a0: 2407 383d 3c2f 563e 8fc7 87be a4a5 3fbd
000000b0: f38a 92bd eb3b 4abd 74a0 823e daa7 a33e
000000c0: 493e c0bb d711 e23d b03d 0bbc 7b66 913e
000000d0: fc8b 853e 7fbd bc3e d9a3 9dbe a44a a83d
000000e0: 57c5 353d 651a 053e ab8f 2bbe 045b 3bbe
000000f0: e6ce 40be 5b1d b2be 105f c73e f0bf 9abe
00000100: eeb0 ea3d d9a7 0c3e 79e3 afbe b136 3a3e
00000110: 276e 2abe 5860 663d 1e73 f83d af68 d13d
00000120: a0c7 993e 81d5 47bd e8f2 42be b74c 693e
00000130: 1e27 ff3d 66d1 ddbc 80f2 af3e f2ac 9bbe
00000140: 1ca5 22bd 09eb bdbe f3c6 a4bc 0637 3ebc
00000150: 9dcb 383d d69e 73bd fda9 8cbd ee3e da3d
00000160: 3cde 2bbe 732f 3abe 7567 c23e 5602 a3be
00000170: 7d56 afbe 2007 5d3e 8d29 cbbd e310 1a3e
00000180: b77a a33e d4ba aa3e 7cac 953e 3599 c93e
00000190: a826 08be 666d 993a bc00 5abd 85a9 09bd
000001a0: 4661 c63e a741 aebe 79da 053d 22f9 31be
000001b0: 88be 9e3e a3ad b03e 2e29 43be cce3 cb3e
000001c0: 7435 bcbe 6743 863e 59bd de3d 8115 be3d
000001d0: 6e4c b5be 27a1 0abe 0235 db3d e30f aebe
000001e0: bcf8 39be 0473 943d a68c bf3e 10a0 913d
000001f0: d097 aabd d65b 51bc 4eed ac3e 86bf eabd
00000200: 973f d0bd b257 8f3e 3aed 60be 6f8d d9bd
00000210: da77 82be 216f 68be 46b8 613e 3db1 f23d
00000220: 3fd3 df3e 8744 66bc 9b04 3c3c 5527 5dbd
00000230: 127c 99be a406 b63e 38bc 713c 6690 67bd
00000240: a188 57bd 530f 17be 60b7 70be 8a39 e83d
00000250: 9391 d13e 6545 bcbe 6e49 b73e 8846 c3be
00000260: fa12 0a3e 7873 04be f4e1 aa3e 7ca4 c23e
00000270: 5863 82bd 9d43 6d3e b0db 9b3e 2f48 99bd
00000280: 3e73 193e baf6 663d 8539 583e 900a b43e
00000290: f873 1f3d b3b6 8c3e d4f7 a3be 7001 7dbe
000002a0: 91bf 9dbd 2881 aa3e 4a50 293c 3dc1 873e
000002b0: 5a0b 36bc 71c3 8b3d 1026 53be 2f82 c23e
000002c0: ea03 45be 334d 66be 633b 9d3e 8a93 70be
000002d0: b52b 943e 74c6 093e 5457 9dbd 5c8f 743d
000002e0: 8b6c e0be 2c34 50be 0129 313e c551 b9bd
000002f0: 08f0 363e a50a 95be 87e3 9bbd 4e64 0fbe

input_proj.bias f4 [32]
0.31642085 -0.19410278 -0.38197178 -0.25970623 0.340278 -0.0003429703 -0.024208376 0.12060303
-0.314792 0.19107066 0.15097363 0.10615198 0.33894694 0.20604008 0.26777667 -0.06962473
0.15592492 -0.025668165 0.1278792 0.3129242 -0.19900121 -0.35891554 -0.07364439 -0.45403105
-0.13296077 -0.15845597 -0.19478433 0.23360813 -0.2385455 0.14163348 0.18565835 0.42388418
00000000: ea01 a23e e1c2 46be ce91 c3be 37f8 84be
00000010: eb38 ae3e b2d0 b3b9 a550 c6bc b9fe f63d
00000020: 6b2c a1be 07a8 433e d598 1a3e 3666 d93d
00000030: 748a ad3e 2cfc 523e 061a 893e 6997 8ebd
00000040: c8aa 1f3e 0b46 d2bc c4f2 023e 9a37 a03e
00000050: f9c6 4bbe c7c3 b7be dfd2 96bd c276 e8be
00000060: de26 08be 4842 22be 8b75 47be f836 6f3e
00000070: 4645 74be 5e08 113e 391d 3e3e 5907 d93e

input_norm.weight f4 [32]
0.986761 1.0266956 0.9898445 0.988541 1.0100025 0.96037656 1.0001584 0.9937438
1.0063117 0.9419644 0.974089 0.98399717 1.1033989 0.99234504 1.042002 0.97914445
0.9786214 0.9762132 0.9720797 1.0068581 0.9807534 0.9981466 0.92377824 1.0645648
0.9919445 0.9889775 0.98270446 0.9793981 1.0033084 0.9746633 0.87530136 1.1095779
00000000: 5e9c 7c3f c36a 833f 7366 7d3f 0611 7d3f
00000010: c347 813f 3ddb 753f 3105 803f fe65 7e3f
00000020: d2ce 803f 9424 713f e65d 793f 3de7 7b3f
00000030: 2d3c 8d3f 530a 7e3f 5260 853f 36a9 7a3f
00000040: ef86 7a3f 1ce9 793f 37da 783f bae0 803f
00000050: a812 7b3f 8986 7f3f bb7c 6c3f a943 883f
00000060: 13f0 7d3f a12d 7d3f 8592 7b3f d5b9 7a3f
00000070: 696c 803f 8983 793f c013 603f a606 8e3f

input_norm.bias f4 [32]
0.008301157 0.004731052 0.009873557 0.0023779466 -0.005745238 -0.010334776 0.004066342 0.015168712
0.0044814665 -0.0014250552 0.00497528 0.004565795 -0.006960656 -0.00019010776 0.014172028 0.012094415
-0.0068043354 -0.0065480345 -0.0075251 0.0018347556 -0.0067034867 0.006164814 -0.008562632 -0.024253897
-0.0049718567 0.0031997217 -0.008564986 -0.012623428 0.0034385545 -0.01854134 0.0013408124 0.015670886
00000000: 9301 083c f106 9b3b b3c4 213c 53d7 1b3b
00000010: 8d42 bcbb 3153 29bc f33e 853b 3086 783c
00000020: 44d9 923b ebc8 baba ac07 a33b aa9c 953b
00000030: 3716 e4bb aa57 47b9 cb31 683c a727 463c
00000040: e7f6 debb e590 d6bb 1d95 f6bb 2f7c f03a
00000050: eca8 dbbb 3502 ca3b 484a 0cbc 1cb0 c6bc
00000060: f5ea a2bb 6cb2 513b 2854 0cbc 7fd2 4ebc
00000070: 5f59 613b 02e4 97bc 33be af3a 3b60 803c

mamba.layers.0.mixer.A_log f4 [64, 16]
0.0 0.68829346 1.0909133 1.3765869 1.5981903 1.7792068 1.932287 2.0648656
2.1818266 2.2865176 2.3811584 2.4675002 2.546887 2.6206467 2.6889963 2.7531738
0.0 0.68829346 1.0909133 1.3765869 1.5981903 1.7792068 1.932287 2.0648656
2.1818266 2.2865176 2.3811584 2.4675002 2.546887 2.6206467 2.6889963 2.7531738
0.0 0.68829346 1.0909133 1.3765869 1.5981903 1.7792068 1.932287 2.0648656
2.1818266 2.2865176 2.3811584 2.4675002 2.546887 2.6206467 2.6889963 2.7531738
0.0 0.68829346 1.0909133 1.3765869 1.5981903 1.7792068 1.932287 2.0648656
2.1818266 2.2865176 2.3811584 2.4675002 2.546887 2.6206467 2.6889963 2.7531738
0.0 0.68829346 1.0909133 1.3765869 1.5981903 1.7792068 1.932287 2.0648656
2.1818266 2.2865176 2.3811584 2.4675002 2.546887 2.6206467 2.6889963 2.7531738
0.0 0.68829346 1.0909133 1.3765869 1.5981903 1.7792068 1.932287 2.0648656
2.1818266 2.2865176 2.3811584 2.4675002 2.546887 2.6206467 2.6889963 2.7531738
0.0 0.68829346 1.0909133 1.3765869 1.5981903 1.7792068 1.932287 2.0648656
2.1818266 2.2865176 2.3811584 2.4675002 2.546887 2.6206467 2.6889963 2.7531738
0.0 0.68829346 1.0909133 1.3765869 1.5981903 1.7792068 1.932287 2.0648656
2.1818266 2.2865176 2.3811584 2.4675002 2.546887 2.6206467 2.6889963 2.7531738
0.0 0.68829346 1.0909133 1.3765869 1.5981903 1.7792068 1.932287 2.0648656
2.1818266 2.2865176 2.3811584 2.4675002 2.546887 2.6206467 2.6889963 2.7531738
0.0 0.68829346 1.0909133 1.3765869 1.5981903 1.7792068 1.932287 2.0648656
2.1818266 2.2865176 2.3811584 2.4675002 2.546887 2.6206467 2.6889963 2.7531738
0.0 0.68829346 1.0909133 1.3765869 1.5981903 1.7792068 1.932287 2.0648656
2.1818266 2.2865176 2.3811584 2.4675002 2.546887 2.6206467 2.6889963 2.7531738
0.0 0.68829346 1.0909133 1.3765869 1.5981903 1.7792068 1.932287 2.0648656
2.1818266 2.2865176 2.3811584 2.4675002 2.546887 2.6206467 2.6889963 2.7531738
0.0 0.68829346 1.0909133 1.3765869 1.5981903 1.7792068 1.932287 2.0648656
2.1818266 2.2865176 2.3811584 2.4675002 2.546887 2.6206467 2.6889963 2.7531738
0.0 0.68829346 1.0909133 1.3765869 1.5981903 1.7792068 1.932287 2.0648656
2.1818266 2.2865176 2.3811584 2.4675002 2.546887 2.6206467 2.6889963 2.7531738
0.0 0.68829346 1.0909133 1.3765869 1.5981903 1.7792068 1.932287 2.0648656
2.1818266 2.2865176 2.3811584 2.4675002 2.546887 2.6206467 2.6889963 2.7531738
0.0 0.68829346 1.0909133 1.3765869 1.5981903 1.7792068 1.932287 2.0648656
2.1818266 2.2865176 2.3811584 2.4675002 2.546887 2.6206467 2.6889963 2.7531738
00000000: 0000 0000 0034 303f 0ca3 8b3f 0034 b03f
00000010: 8091 cc3f 0cbd e33f 2e55 f73f c226 0440
00000020: 0ca3 0b40 4e56 1240 e664 1840 86eb 1d40
00000030: 3200 2340 adb8 2740 8418 2c40 0034 3040
00000040: 0000 0000 0034 303f 0ca3 8b3f 0034 b03f
00000050: 8091 cc3f 0cbd e33f 2e55 f73f c226 0440
00000060: 0ca3 0b40 4e56 1240 e664 1840 86eb 1d40
00000070: 3200 2340 adb8 2740 8418 2c40 0034 3040
00000080: 0000 0000 0034 303f 0ca3 8b3f 0034 b03f
00000090: 8091 cc3f 0cbd e33f 2e55 f73f c226 0440
000000a0: 0ca3 0b40 4e56 1240 e664 1840 86eb 1d40
000000b0: 3200 2340 adb8 2740 8418 2c40 0034 3040
000000c0: 0000 0000 0034 303f 0ca3 8b3f 0034 b03f
000000d0: 8091 cc3f 0cbd e33f 2e55 f73f c226 0440
000000e0: 0ca3 0b40 4e56 1240 e664 1840 86eb 1d40
000000f0: 3200 2340 adb8 2740 8418 2c40 0034 3040
00000100: 0000 0000 0034 303f 0ca3 8b3f 0034 b03f
00000110: 8091 cc3f 0cbd e33f 2e55 f73f c226 0440
00000120: 0ca3 0b40 4e56 1240 e664 1840 86eb 1d40
00000130: 3200 2340 adb8 2740 8418 2c40 0034 3040
00000140: 0000 0000 0034 303f 0ca3 8b3f 0034 b03f
00000150: 8091 cc3f 0cbd e33f 2e55 f73f c226 0440
00000160: 0ca3 0b40 4e56 1240 e664 1840 86eb 1d40
00000170: 3200 2340 adb8 2740 8418 2c40 0034 3040
00000180: 0000 0000 0034 303f 0ca3 8b3f 0034 b03f
00000190: 8091 cc3f 0cbd e33f 2e55 f73f c226 0440
000001a0: 0ca3 0b40 4e56 1240 e664 1840 86eb 1d40
000001b0: 3200 2340 adb8 2740 8418 2c40 0034 3040
000001c0: 0000 0000 0034 303f 0ca3 8b3f 0034 b03f
000001d0: 8091 cc3f 0cbd e33f 2e55 f73f c226 0440
000001e0: 0ca3 0b40 4e56 1240 e664 1840 86eb 1d40
000001f0: 3200 2340 adb8 2740 8418 2c40 0034 3040
00000200: 0000 0000 0034 303f 0ca3 8b3f 0034 b03f
00000210: 8091 cc3f 0cbd e33f 2e55 f73f c226 0440
00000220: 0ca3 0b40 4e56 1240 e664 1840 86eb 1d40
00000230: 3200 2340 adb8 2740 8418 2c40 0034 3040
00000240: 0000 0000 0034 303f 0ca3 8b3f 0034 b03f
00000250: 8091 cc3f 0cbd e33f 2e55 f73f c226 0440
00000260: 0ca3 0b40 4e56 1240 e664 1840 86eb 1d40
00000270: 3200 2340 adb8 2740 8418 2c40 0034 3040
00000280: 0000 0000 0034 303f 0ca3 8b3f 0034 b03f
00000290: 8091 cc3f 0cbd e33f 2e55 f73f c226 0440
000002a0: 0ca3 0b40 4e56 1240 e664 1840 86eb 1d40
000002b0: 3200 2340 adb8 2740 8418 2c40 0034 3040
000002c0: 0000 0000 0034 303f 0ca3 8b3f 0034 b03f
000002d0: 8091 cc3f 0cbd e33f 2e55 f73f c226 0440
000002e0: 0ca3 0b40 4e56 1240 e664 1840 86eb 1d40
000002f0: 3200 2340 adb8 2740 8418 2c40 0034 3040
00000300: 0000 0000 0034 303f 0ca3 8b3f 0034 b03f
00000310: 8091 cc3f 0cbd e33f 2e55 f73f c226 0440
00000320: 0ca3 0b40 4e56 1240 e664 1840 86eb 1d40
00000330: 3200 2340 adb8 2740 8418 2c40 0034 3040
00000340: 0000 0000 0034 303f 0ca3 8b3f 0034 b03f
00000350: 8091 cc3f 0cbd e33f 2e55 f73f c226 0440
00000360: 0ca3 0b40 4e56 1240 e664 1840 86eb 1d40
00000370: 3200 2340 adb8 2740 8418 2c40 0034 3040
00000380: 0000 0000 0034 303f 0ca3 8b3f 0034 b03f
00000390: 8091 cc3f 0cbd e33f 2e55 f73f c226 0440
000003a0: 0ca3 0b40 4e56 1240 e664 1840 86eb 1d40
000003b0: 3200 2340 adb8 2740 8418 2c40 0034 3040
000003c0: 0000 0000 0034 303f 0ca3 8b3f 0034 b03f
000003d0: 8091 cc3f 0cbd e33f 2e55 f73f c226 0440
000003e0: 0ca3 0b40 4e56 1240 e664 1840 86eb 1d40
000003f0: 3200 2340 adb8 2740 8418 2c40 0034 3040

mamba.layers.0.mixer.D f4 [64]
1.0183601 1.070865 0.9821198 0.9943104 1.0228012 0.9963361 0.99266005 0.9992146
1.1028253 1.0072956 0.9979437 0.99164885 1.0005047 1.1385124 1.0683068 1.0060145
1.0867283 1.000807 1.0580555 0.99428487 1.0320337 1.006943 1.0715106 1.0514592
0.9925328 1.0250678 0.98655534 0.97717834 0.9755676 0.9884832 1.0074005 1.0253966
1.0392941 0.9902588 0.99257916 1.0003961 1.0099002 1.0403922 1.0353245 1.0216501
0.9878336 1.0603429 1.0148575 1.0748005 1.0496622 0.9978891 0.9929509 0.99476117
1.0078664 1.0131636 1.0119221 1.0235378 0.98618084 1.0116637 1.0432965 0.9906588
0.9939382 1.056387 1.0140002 1.0211957 0.97324574 1.0409143 0.9968632 1.041578
00000000: a059 823f 1b12 893f 346c 7b3f 208b 7e3f
00000010: 26eb 823f e20f 7f3f f81e 7e3f 87cc 7f3f
00000020: 6129 8d3f 10ef 803f 3d79 7f3f b3dc 7d3f
00000030: 8a10 803f c6ba 913f 47be 883f 15c5 803f
00000040: ea19 8b3f 721a 803f 5d6e 873f 7489 7e3f
00000050: ae19 843f 82e3 803f 4227 893f 3796 863f
00000060: a116 7e3f 6c35 833f e48e 7c3f 5c28 7a3f
00000070: ccbe 793f 3c0d 7d3f 80f2 803f 3240 833f
00000080: 9707 853f 9a81 7d3f ab19 7e3f fb0c 803f
00000090: 6944 813f 922b 853f 8385 843f 6ec5 823f
000000a0: aae2 7c3f 51b9 873f dae6 813f 1093 893f
000000b0: 555b 863f a975 7f3f 0832 7e3f aba8 7e3f
000000c0: c401 813f 58af 813f aa86 813f 4903 833f
000000d0: 5976 7c3f 327e 813f bd8a 853f d19b 7d3f
000000e0: bc72 7e3f b037 873f c2ca 813f 8ab6 823f
000000f0: a226 793f ae3c 853f 6d32 7f3f 6e52 853f

mamba.layers.0.mixer.in_proj.weight f4 [128, 32]
0.12164726 0.08705228 0.10734358 -0.009649701 -0.011364446 -0.11129688 0.039095204 0.10335704
-0.1924919 0.13536862 0.039210748 -0.0005297319 0.1915013 -0.08959235 0.16019064 0.12279688
-0.09738148 0.10245067 -0.0496463 0.13122351 0.07686825 0.007091436 0.14888048 -0.18154924
-0.10245827 -0.042808853 -0.13067147 0.025764652 -0.15864705 -0.079846464 0.032132797 0.26598206
0.008357815 0.008866701 0.18511844 -0.0070795296 0.13759613 0.005803647 -0.0047181854 -0.09675864
-0.0457536 -0.05115881 0.011244092 -0.06874363 0.16780712 0.08703634 0.34733763 0.11288466
-0.21803665 0.15592627 -0.24217632 -0.05017899 -0.24756566 0.15545198 0.17883371 -0.055243727
0.15108058 0.08795543 -0.07381845 -0.012930024 -0.08497426 -0.14712036 -0.052108873 0.107517056
-0.08967413 0.15040351 0.127099 0.009757496 0.0109142335 0.088595934 0.00036666106 0.08175928
0.028799739 -0.10237821 0.03385367 -0.102548696 -0.08970262 -0.17069471 -0.0757487 0.15980776
-0.033107672 0.122723766 -0.16035901 -0.19999143 -0.06425497 0.008830022 0.07869093 -0.13505921
0.1770685 -0.01714958 -0.030629355 0.06622974 -0.004768269 -0.057297096 -0.22786862 -0.14388976
0.0154784825 0.15069085 0.07631188 -0.024076711 5.7437726e-05 -0.014828944 -0.013564504 0.17256469
-0.07836897 0.026073378 -0.057856403 -0.15249655 -0.3078445 -0.03578203 -0.1881502 0.041499943
0.028384304 0.16553244 0.14417413 0.069002986 0.05718242 0.008604792 -0.020036172 0.048317477
-0.11156865 -0.13199723 -0.092318505 0.1255514 0.028174635 -0.045969505 -0.060780007 -0.08787514
0.19093554 -0.13576847 0.04854486 -0.050346076 0.115685485 0.05814591 0.17592837 -0.12619323
0.06351398 0.029410174 -0.13401425 -0.006730614 0.108892046 -0.0787372 -0.04119984 0.11442551
0.056625936 -0.07502964 0.122886166 0.14867738 -0.16184087 0.10942024 -0.0031523618 -0.2359884
0.11738265 0.10891089 0.18301848 -0.08669936 0.039013166 0.077638865 0.06452323 0.058627263
0.06866985 0.14040384 0.095833026 -0.12142921 0.04109642 0.081141196 0.14633638 0.11093766
0.030868368 0.14121449 -0.20390186 -0.14727516 0.21782655 -0.031712163 0.13292603 -0.11192945
0.020271907 -0.19174096 0.053292073 0.08074904 0.020917298 0.10839377 -0.13706273 -0.06731528
-0.1287052 -0.12919895 0.025489958 -0.14488946 -0.057107426 -0.11798908 -0.026275938 0.23979852
-0.084630206 0.011796202 -0.14752866 -0.014447072 0.165383 -0.036276974 -0.062783636 0.17092988
0.17342691 -0.0612378 0.060710125 -0.08556646 0.102240995 -0.062597714 -0.024068221 0.14447337
-0.12106437 -0.16353288 0.042955864 -0.08779237 -0.016805895 0.078771316 -0.009124032 0.096558064
0.08926801 0.11026323 -0.0011410787 -0.15138115 0.091977574 -0.10947315 -0.062173277 -0.10190796
0.1377651 -0.043420505 0.13956471 -0.005073702 0.043352775 -0.12726879 0.105590485 -0.12997496
0.15221311 0.17162545 0.023998104 0.09936576 0.18050893 0.064994924 0.03672017 -0.034390062
0.04588778 -0.120400585 0.062421355 0.13755481 -0.13952278 -0.08295687 0.029719666 0.13558835
5.2089348e-05 -0.13442318 0.04655948 -0.06719712 0.01351896 0.0216696 -0.087631494 0.089975744
00000000: 3322 f93d 7748 b23d f3d6 db3d c819 1ebc
00000010: f131 3abc 9eef e3bd 4b22 203d dbac d33d
00000020: 991c 45be 129e 0a3e 739b 203d b5dd 0aba
00000030: eb18 443e 327c b7bd 0409 243e ee7c fb3d
00000040: f16f c7bd a8d1 d13d eb59 4bbd 755f 063e
00000050: 1a6d 9d3d 475f e83b 2074 183e 0be8 39be
00000060: a4d5 d1bd 5658 2fbd bece 05be 6410 d33c
00000070: 5f74 22be 8b86 a3bd ae9d 033d cd2e 883e
00000080: 38ef 083c a445 113c b08f 3d3e 66fb e7bb
00000090: 00e6 0c3e 852c be3b 029b 9abb 6529 c6bd
000000a0: 2068 3bbd e68b 51bd 2439 383c 76c9 8cbd
000000b0: a1d5 2b3e 1c40 b23d 3dd6 b13e 1330 e73d
000000c0: 0045 5fbe 23ab 1f3e 12fd 77be 7c88 4dbd
000000d0: da81 7dbe ce2e 1f3e 2f20 373e 3f47 62bd
000000e0: deb4 1a3e fa21 b43d 212e 97bd 74d8 53bc
000000f0: fc06 aebd b8a6 16be 1d70 55bd e731 dc3d
00000100: 12a7 b7bd 6103 1a3e 3e26 023e e8dd 1f3c
00000110: 9dd1 323c c971 b53d 6a3c c039 6971 a73d
00000120: 6eed eb3c abab d1bd 25aa 0a3d 0d05 d2bd
00000130: 02b6 b7bd 98ca 2ebe 2222 9bbd a5a4 233e
00000140: e99b 07bd 9956 fb3d 2735 24be 8eca 4cbe
00000150: 1c98 83bd ccab 103c b628 a13d f64c 0abe
00000160: 7251 353e 477d 8cbc 6aea fabc 75a3 873d
00000170: 243f 9cbb 5cb0 6abd 6456 69be d657 13be
00000180: 7699 7d3c b44e 1a3e 6749 9c3d 863c c5bc
00000190: 4ae9 7038 19f5 72bc a73d 5ebc ccb4 303e
000001a0: e97f a0bd d697 d53c d6fa 6cbd 0e28 1cbe
000001b0: cb9d 9dbe 2e90 12bd 72aa 40be d8fb 293d
000001c0: 3386 e83c 5681 293e 62a2 133e 7051 8d3d
000001d0: 1d38 6a3d 1dfb 0c3c e622 a4bc 8ce8 453d
000001e0: 1b7e e4bd 482a 07be 7c11 bdbd 8c90 003e
000001f0: 7ece e63c 854a 3cbd 75f4 78bd e2f7 b3bd
00000200: 9b84 433e e406 0bbe fad6 463d b037 4ebd
00000210: 83ec ec3d 682a 6e3d 9126 343e cc38 01be
00000220: 9e13 823d 9bed f03c 083b 09be 7c8c dcbb
00000230: cb02 df3d f840 a1bd 2ac1 28bd ec57 ea3d
00000240: 99f0 673d 24a9 99bd beab fb3d e23e 183e
00000250: 9db9 25be b817 e03d db97 4ebb f1a6 71be
00000260: 5166 f03d ac0c df3d 3269 3b3e 6f8f b1bd
00000270: 45cc 1f3d 2001 9f3d c124 843d 2423 703d
00000280: c7a2 8c3d 06c6 0f3e 1b44 c43d e1af f8bd
00000290: b854 283d 5b2d a63d 34d9 153e 4933 e33d
000002a0: a9df fc3c 889a 103e a6cb 50be 4dcf 16be
000002b0: ec0d 5f3e 9de4 01bd c31d 083e 443b e5bd
000002c0: 4511 a63c be57 44be ca48 5a3d c15f a53d
000002d0: c15a ab3c 8efd dd3d 2c5a 0cbe 98dc 89bd
000002e0: 4ccb 03be bb4c 04be 51d0 d03c e75d 14be
000002f0: 7ae9 69bd 42a4 f1bd a340 d7bc be8d 753e
00000300: 9a52 adbd db44 413c c111 17be 69b3 6cbc
00000310: 295a 293e 2a97 14bd b594 80bd 3e08 2f3e
00000320: d396 313e 7dd4 7abd 2eab 783d 783d afbd
00000330: ba63 d13d 3b33 80bd b82a c5bc d4f0 133e
00000340: 99f0 f7bd 2a75 27be 7df2 2f3d 7ccc b3bd
00000350: 84ac 89bc db52 a13d f77c 15bc 3cc0 c53d
00000360: 25d2 b63d b0d1 e13d 3f90 95ba a903 1bbe
00000370: bd5e bc3d 7533 e0bd 68a9 7ebd 1fb5 d0bd
00000380: 4b12 0d3e b3d9 31bd 0dea 0e3e 4c41 a6bb
00000390: ae92 313d c052 02be d33f d83d 2818 05be
000003a0: c1dd 1b3e 95be 2f3e ac97 c43c 4780 cb3d
000003b0: 55d7 383e 0f1c 853d e467 163d 98dc 0cbd
000003c0: d3f4 3b3d 9594 f6bd 89ad 7f3d 2bdb 0c3e
000003d0: 0fdf 0ebe 4be5 a9bd a876 f33c acd7 0a3e
000003e0: 837a 5a38 3ba6 09be 27b5 3e3d a59e 89bd
000003f0: a17e 5d3c 7284 b13c 2478 b3bd 3445 b83d

mamba.layers.0.mixer.conv1d.weight f4 [64, 1, 4]
0.26599884 -0.44411904 -0.1749292 -0.52469265 -0.14666092 0.31802717 0.35454202 -0.53003496
-0.1179758 0.32892904 -0.089608565 0.06689569 0.073200375 -0.14308995 -0.4817623 0.08495605
0.44800395 0.47684777 0.4310825 -0.27966523 0.03644277 -0.32209867 0.39747125 -0.2878737
0.33759153 -0.42180413 0.13478501 -0.18559752 -0.28037858 -0.21765685 0.47736686 -0.24677005
0.31567895 -0.105413646 0.48330083 0.16983601 0.38905582 0.09571777 -0.108547896 0.411428
-0.23555566 -0.21976304 0.41232517 0.059257943 0.46397388 -0.41123715 0.29725283 0.042233158
0.25844115 0.23364925 0.30537617 0.31041774 0.024858259 -0.48612422 0.15975457 -0.24426249
-0.1585451 0.27158362 -0.29582286 -0.34882033 0.17097268 -0.367862 -0.056594256 -0.23930453
-0.44605178 -0.13400286 -0.38764143 -0.21495928 -0.25719926 0.11784267 -0.009764298 -0.41618222
0.37493557 0.38418674 -0.1824962 0.26511145 0.49188638 0.10005891 -0.31478262 0.08604708
-0.34863973 -0.0093827145 -0.24813509 -0.12743057 0.47449136 0.2576003 0.14940771 0.14327979
-0.02150108 0.24845855 0.3270285 0.34869656 0.27615812 -0.23350048 0.25901222 0.39479142
0.21274886 0.40727773 0.08119783 0.45012754 0.07009187 0.25530934 -0.05254315 0.36589253
-0.41589838 0.24066138 0.4354279 -0.21288618 -0.09838311 -0.39316705 -0.26817036 -0.29126966
-0.17924984 -0.058628067 0.2640446 0.038083214 -0.10791442 0.08634949 0.43045276 0.049798865
-0.2550341 0.10680497 -0.2690273 -0.3034357 -0.3036059 0.15943801 0.34945148 0.23878631
-0.15716934 0.35117096 -0.05405028 -0.3439738 0.34121513 0.070329815 -0.4685731 0.38286167
-0.07524386 0.1275118 0.065967314 0.024717422 0.16664296 0.13243957 -0.3061096 -0.28906128
-0.44629374 -0.06328294 -0.13069868 0.29211992 0.36019754 0.11761735 0.35825074 0.11811201
-0.028760627 -0.2934767 0.48080373 -0.37108243 -0.35503674 -0.33177125 0.0382348 -0.12536146
-0.28118193 0.39690077 0.26699126 0.1288625 -0.38461286 0.22647774 0.24849671 -0.30309135
0.18134892 -0.09494895 -0.3633662 -0.14808123 -0.43454504 0.16274941 0.36715347 0.30310503
-0.42451423 -0.076925695 0.19118695 -0.22909002 -0.27573532 -0.047680594 -0.045297638 0.049780235
0.008357037 -0.2245633 0.408646 -0.42537686 0.33066583 -0.17074499 -0.2284804 -0.42214012
-0.014944743 -0.4560629 -0.09082225 -0.11919402 0.3467676 0.39171064 -0.4271956 0.30120718
-0.31853098 -0.32753426 -0.042480126 0.4069661 0.45477864 0.45028645 -0.32288092 -0.33993304
-0.3904478 0.43115368 0.14733887 0.06932186 -0.046396583 0.37854296 -0.44357294 0.27945387
-0.17163032 -0.09278085 0.25083822 0.25030822 -0.3073082 -0.45090973 0.28459817 0.46765068
0.19232124 0.018387772 0.24838917 -0.32864887 0.02784916 0.30144554 0.4738952 -0.2696007
0.41331652 -0.16981971 -0.024361245 -0.34466076 -0.46279114 0.3355098 0.04820551 -0.40519658
0.33503634 -0.026455231 0.45143235 0.343162 -0.4863745 0.06474388 -0.2582307 -0.49191734
-0.058354095 -0.108817756 -0.21491005 -0.03764003 0.20070563 0.020904863 -0.24538533 0.07073832
00000000: 0031 883e 9263 e3be a420 33be 4252 06bf
00000010: 482e 16be 75d4 a23e 8886 b53e 5fb0 07bf
00000020: 4c9d f1bd 6369 a83e b284 b7bd 9c00 893d
00000030: 14ea 953d 2c86 12be 8ca9 f6be 70fd ad3d
00000040: c660 e53e 6425 f43e d8b6 dc3e 4830 8fbe
00000050: 0445 153d 1eea a4be 5a81 cb3e 2e64 93be
00000060: ccd8 ac3e b6f6 d7be 1505 0a3e 470d 3ebe
00000070: c88d 8fbe 70e1 5ebe 6e69 f43e 4ab1 7cbe
00000080: aca0 a13e 1ce3 d7bd 3573 f73e 7ee9 2d3e
00000090: 5332 c73e ae07 c43d 5c4e debd b1a6 d23e
000000a0: 8135 71be 9009 61be 491c d33e 75b8 723d
000000b0: fc8d ed3e ad8d d2be 8631 983e adfc 2c3d
000000c0: 6652 843e c041 6f3e 445a 9c3e 13ef 9e3e
000000d0: 8ca3 cb3c 46e5 f8be b496 233e f21f 7abe
000000e0: a659 22be 020d 8b3e 1876 97be 9498 b2be
000000f0: 7613 2f3e 6858 bcbe 61cf 67bd 3f0c 75be
00000100: e660 e4be 0c38 09be f078 c6be 491e 5cbe
00000110: 9faf 83be 7f57 f13d 6ffa 1fbc d615 d5be
00000120: 8ef7 bf3e 20b4 c43e 49e0 3abe b0bc 873e
00000130: 88d8 fb3e b0eb cc3d 302b a1be 7439 b03d
00000140: e880 b2be f5b9 19bc 2017 7ebe 297d 02be
00000150: 88f0 f23e 30e4 833e 56fe 183e f0b7 123e
00000160: 0823 b0bc eb6b 7e3e 4870 a73e 5b88 b23e
00000170: 9964 8d3e c01a 6fbe 409d 843e 1a22 ca3e
00000180: d6da 593e b586 d03e 0c4b a63d 1e77 e63e
00000190: 548c 8f3d e8b7 823e 7c37 57bd 4456 bb3e
000001a0: a2f0 d4be f06f 763e 68f0 de3e d6fe 59be
000001b0: 157d c9bd 314d c9be a04d 89be 4c21 95be
000001c0: 458d 37be fc23 70bd db30 873e 25fd 1b3d
000001d0: 3c02 ddbd 00d8 b03d 4e64 dc3e e5f9 4b3d
000001e0: d493 82be 90bc da3d f2bd 89be ed5b 9bbe
000001f0: 3c72 9bbe b843 233e 4eeb b23e 6684 743e
00000200: 00f1 20be aecc b33e d463 5dbd 551d b0be
00000210: c0b3 ae3e 1409 903d d0e8 efbe 7206 c43e
00000220: 7419 9abd 7492 023e df19 873d 317c ca3c
00000230: 74a4 2a3e 3d9e 073e 66ba 9cbe d7ff 93be
00000240: 9d80 e4be 7c9a 81bd e0d5 05be be90 953e
00000250: d06b b83e 5de1 f03d a46c b73e b6e4 f13d
00000260: 689b ebbc 9442 96be e82b f63e 84fe bdbe
00000270: 60c7 b5be ecdd a9be 189c 1c3d c15e 00be
00000280: 14f7 8fbe 9436 cb3e 14b3 883e 88f4 033e
00000290: faeb c4be c8e9 673e ec75 7e3e ca2e 9bbe
000002a0: 88b3 393e 9874 c2bd 220b babe 9ba2 17be
000002b0: b07c debe c8a7 263e 8afb bb3e 9530 9b3e
000002c0: ee59 d9be 388b 9dbd 83c6 433e 9396 6abe
000002d0: 2e2d 8dbe ba4c 43bd 048a 39bd 5ce6 4b3d
000002e0: f4eb 083c ecf3 65be 0c3a d13e ffca d9be
000002f0: 084d a93e c6d7 2ebe c4f6 69be c022 d8be
00000300: ccda 74bc 1481 e9be 0401 babd ff1b f4bd
00000310: 868b b13e 4c8e c83e 62b9 dabe d437 9a3e
00000320: 7e16 a3be 92b2 a7be a4ff 2dbd dc5d d03e
00000330: bfd8 e83e f28b e63e a650 a5be b40b aebe
00000340: c6e8 c7be 2dc0 dc3e 00e0 163e 9ff8 8d3d
00000350: 580a 3ebd 62d0 c13e fe1b e3be 9414 8f3e
00000360: dcbf 2fbe e303 bebd de6d 803e 6628 803e
00000370: 8057 9dbe a4dd e6be dab6 913e e96f ef3e
00000380: dcef 443e f4a1 963c bb59 7e3e aa44 a8be
00000390: ec23 e43c 1257 9a3e 64a2 f23e 1a09 8abe
000003a0: 399e d33e 38e5 2dbe 3c91 c7bc 6077 b0be
000003b0: f6f2 ecbe f1c7 ab3e 2473 453d ed75 cfbe
000003c0: e289 ab3e a4b8 d8bc 2422 e73e eeb2 af3e
000003d0: 1406 f9be 7098 843d d036 84be 97dc fbbe
000003e0: b404 6fbd d8db debd 6111 5cbe 6f2c 1abd
000003f0: c785 4d3e ad40 ab3c 4b46 7bbe 41df 903d

mamba.layers.0.mixer.conv1d.bias f4 [64]
0.5063739 0.36655453 0.1341032 0.32986075 -0.07145918 0.1878538 0.33178636 0.01910121
0.27432954 -0.19858941 -0.12264521 0.16760859 0.13795254 0.5420249 -0.32426995 -0.10416423
-0.4240761 -0.3550938 -0.29341358 0.30221236 0.34637818 -0.14738923 -0.09781255 -0.40468857
-0.42225364 -0.21040058 0.19806986 0.34039086 0.46775806 -0.4354268 -0.12090957 -0.29442188
-0.23037866 -0.38176066 -0.36175573 -0.48086962 -0.32471114 -0.4338262 0.25423583 0.15437485
0.09661479 -0.09560691 -0.3400094 0.015216148 0.46639708 -0.04265357 -0.39515325 0.32425818
-0.3168663 -0.4954635 0.23837468 0.4484987 -0.42268932 0.34227204 -0.00037999003 0.077475645
-0.14061119 -0.43148774 -0.04314998 -0.25235602 0.40082467 -0.4096252 0.34104654 0.21412213
00000000: b8a1 013f 09ad bb3e 5952 093e 82e3 a83e
00000010: 3159 92bd bf5c 403e e7df a93e 247a 9c3c
00000020: ec74 8c3e 065b 4bbe 692d fbbd 96a1 2b3e
00000030: 6e43 0d3e 25c2 0a3f b606 a6be 0e54 d5bd
00000040: 8120 d9be dbce b5be 4e3a 96be 94bb 9a3e
00000050: 7b58 b13e 34ed 16be f251 c8bd 5733 cfbe
00000060: a131 d8be 4073 57be d3d2 4a3e b647 ae3e
00000070: fc7d ef3e 43f0 debe 709f f7bd 77be 96be
00000080: 62e8 6bbe 2276 c3be 0c38 b9be 8b34 f6be
00000090: 8a40 a6be 781e debe 332b 823e 7114 1e3e
000000a0: fadd c53d 8ecd c3bd b615 aebe 274d 793c
000000b0: 99cb ee3e 83b5 2ebd 8751 cabe 2b05 a63e
000000c0: 4d3c a2be 64ad fdbe 7e18 743e 9fa1 e53e
000000d0: bc6a d8be 483e af3e 6639 c7b9 8dab 9e3d
000000e0: 61fc 0fbe f6eb dcbe 09be 30bd cf34 81be
000000f0: e438 cd3e 65ba d1be a79d ae3e d542 5b3e

mamba.layers.0.mixer.x_proj.weight f4 [34, 64]
-0.13033059 -0.053859748 -0.036665443 -0.067399405 0.008553453 0.009453751 0.09350671 0.094708264
0.031911593 0.026218267 -0.08620917 -0.13923435 0.030314237 0.0119558945 -0.067958854 0.08701673
0.018869638 0.08175205 0.047673013 -0.06496727 0.007325362 0.050571956 0.1198748 0.10899082
0.16286439 -0.0027559367 -0.027282652 0.043848783 -0.058772083 -0.006325472 -0.07515355 0.020371651
-0.16057125 0.0046887547 -0.0072428454 -0.032495238 -0.10397471 -0.020052422 -0.080588825 0.028647872
-0.13501331 -0.11123764 0.081742436 -0.053200345 -0.0782095 0.08927346 -0.021259725 -0.12956534
0.06336617 -0.06855205 0.069187015 -0.048618857 0.01652502 -0.013497583 -0.12077622 0.021454431
0.0279078 -0.08397209 0.13134478 -0.12965253 0.055533804 -0.09179907 -0.124210194 0.03091962
0.013376038 -0.20506807 -0.17187998 -0.096063405 0.09899182 -0.054414157 -0.10994418 0.111567624
-0.15647192 0.11416272 0.19810642 -0.08566277 -0.15331084 -0.0018648168 0.038526706 -0.004611056
0.1780368 0.21447878 0.23710911 -0.100217015 -0.050540004 0.114161275 0.020367747 0.0950456
0.23059113 0.13310096 -0.13286297 -0.1417994 -0.20251682 -0.027334156 0.187922 0.14756826
-0.06752331 0.12716573 0.0018169169 0.19747531 -0.041358788 0.00025275233 -0.03144095 -0.12004748
-0.16284958 0.10185891 0.10027443 0.13507171 -0.11476902 0.1278233 0.09672098 -0.04311346
0.11407111 0.030350577 -0.1668777 -0.021971868 0.0852034 -0.02964218 -0.04612849 0.044355072
-0.010175729 0.11208464 -0.026537137 0.08298918 0.06649506 -0.018946696 -0.13649605 -0.10415881
-0.11083021 -0.11255591 -0.029482791 -0.13005805 -0.10947146 -0.16079004 -0.07893148 0.018137055
0.00871068 0.15517889 -0.03879649 -0.15588202 -0.10148815 -0.068893746 0.06099088 0.064097576
0.09438065 0.10409617 0.014877197 -0.052073244 -0.14473143 0.020162918 -0.048313163 0.17006925
0.18944985 0.0057190885 -0.15561931 -0.16083986 0.035110142 0.16138546 -0.048102323 -0.08037756
-0.018940499 0.07788714 0.13719013 0.045558408 -0.056189574 -0.06689137 -0.0057912366 0.054086514
-0.12715848 -0.011424039 0.116921335 0.06505074 -0.1639106 -0.06233972 -0.012535793 -0.014682724
-0.0044643898 0.06781295 0.02325042 -0.17102838 0.0755822 0.0030931458 0.07514097 -0.0603431
-0.036251362 0.10191724 -0.078364335 0.010673014 -0.0769769 -0.015069074 -0.09000007 -0.08257015
0.09387367 0.00080474495 -0.06250551 0.11285383 0.059605103 0.08261446 -0.045544703 -0.076891854
-0.07485051 -0.093259506 -0.051915146 0.03979132 0.19440818 0.08429344 -0.11569154 -0.051453058
-0.04141189 -0.0005690878 -0.0971284 0.100829035 0.10402871 0.08055039 0.14193258 0.053377867
-0.16361305 0.07148576 0.0429484 -0.09116488 0.042953555 -0.057785932 -0.17509069 -0.11961104
-0.082172126 0.054985594 -0.009093133 0.0063482034 -0.109176755 0.02107832 0.009741834 0.08934045
-0.03598491 -0.19515055 0.037416518 0.05611562 0.15510264 0.06238177 0.028718574 0.09727273
-0.036487874 -0.026450364 -0.0045176004 0.06894353 -0.09254617 0.09627387 0.13009676 -0.050596356
-0.015933258 0.052736554 -0.110798195 0.09436802 0.0041143103 0.09071424 0.14618634 -0.030292125
00000000: 6275 05be 0a9c 5cbd 812e 16bd b308 8abd
00000010: c823 0c3c e8e3 1a3c 7280 bf3d 68f6 c13d
00000020: bbb5 023d b1c7 d63c 6f8e b0bd 7393 0ebe
00000030: 9055 f83c a8e2 433c 032e 8bbd d435 b23d
00000040: 8094 9a3c 9e6d a73d c744 433d 8f0d 85bd
00000050: 9709 f03b 8a24 4f3d eb80 f53d 9436 df3d
00000060: ecc5 263e f29c 34bb de7f dfbc c89a 333d
00000070: ffba 70bd e845 cfbb 1bea 99bd 73e2 a63c
00000080: ca6c 24be 20a4 993b 6455 edbb ba19 05bd
00000090: b1f0 d4bd fa44 a4bc c10b a5bd f1ae ea3c
000000a0: ee40 0abe 8fd0 e3bd 9468 a73d 9be8 59bd
000000b0: 4d2c a0bd 01d5 b63d e028 aebc c7ac 04be
000000c0: 1fc6 813d 0465 8cbd ecb1 8d3d 9124 47bd
000000d0: 7b5f 873c f724 5dbc 8659 f7bd 34c1 af3c
000000e0: e69e e43c 8ff9 abbd 3f7f 063e a2c3 04be
000000f0: 6a77 633d 2701 bcbd ea61 febd 254b fd3c
00000100: 2b27 5b3c 5dfd 51be 4e01 30be e4bc c4bd
00000110: 39bc ca3d 61e1 5ebd 6a2a e1bd 917d e43d
00000120: 2d3a 20be 25ce e93d 69dc 4a3e f66f afbd
00000130: 84fd 1cbe de6c f4ba 2ece 1d3d 5718 97bb
00000140: 474f 363e 53a0 5b3e bbcc 723e 943e cdbd
00000150: 0903 4fbd 63cd e93d 43da a63c 44a7 c23d
00000160: 1520 6c3e 9e4b 083e 3b0d 08be dd33 11be
00000170: 9260 4fbe e1eb dfbc a06e 403e 221c 173e
00000180: a949 8abd bc37 023e 9d25 ee3a f836 4a3e
00000190: d567 29bd d883 8439 3ac8 00bd 74db f5bd
000001a0: 0ac2 26be 679b d03d ae5c cd3d 3d50 0a3e
000001b0: 050c ebbd 1ce4 023e a615 c63d bd97 30bd
000001c0: 1d9e e93d c6a1 f83c fde1 2abe 59fe b3bc
000001d0: 1f7f ae3d 28d4 f2bc 3af1 3cbd aaad 353d
000001e0: 1ab8 26bc a28c e53d 6964 d9bc 3bf6 a93d
000001f0: 902e 883d 1a36 9bbc 9fc5 0bbe 3751 d5bd
00000200: f3fa e2bd b783 e6bd e585 f1bc f02d 05be
00000210: 9332 e0bd 25a6 24be d4a6 a1bd 2994 943c
00000220: 3db7 0e3c 37e7 1e3e 11e9 1ebd 899f 1fbe
00000230: 05d9 cfbd 2a18 8dbd 93d1 793d 9745 833d
00000240: a44a c13d 5f30 d53d 7dbf 733c c14a 55bd
00000250: 7a34 14be b42c a53c 06e4 45bd a226 2e3e
00000260: 24ff 413e 3167 bb3b ab5a 1fbe 34b3 24be
00000270: a7cf 0f3d 3b42 253e f106 45bd fd9c a4bd
00000280: 1b29 9bbc 4b83 9f3d 927b 0c3e 749b 3a3d
00000290: 0a27 66bd 58fe 88bd 6ac4 bdbb d289 5d3d
000002a0: d535 02be e42b 3bbc 7474 ef3d 5339 853d
000002b0: 2ed8 27be ef57 7fbd ed62 4dbc cf8f 70bc
000002c0: 044a 92bb 84e1 8a3d aa77 be3c 1022 2fbe
000002d0: d7ca 9a3d 60b6 4a3b 82e3 993d 542a 77bd
000002e0: 4f7c 14bd fcb9 d03d 7b7d a0bd dedd 2e3c
000002f0: 11a6 9dbd 47e4 76bc f551 b8bd 8a1a a9bd
00000300: d740 c03d 85f5 523a e402 80bd e91f e73d
00000310: 7b24 743d c531 a93d 158d 3abd 7a79 9dbd
00000320: 394b 99bd d7fe bebd faa4 54bd 39fc 223d
00000330: f012 473e 0aa2 ac3d b0ef ecbd 71c0 52bd
00000340: 849f 29bd d62e 15ba 41eb c6bd 747f ce3d
00000350: 010d d53d 9af7 a43d c656 113e c0a2 5a3d
00000360: 2e8a 27be 2067 923d a9ea 2f3d a7b4 babd
00000370: 11f0 2f3d f1b0 6cbd f94a 33be a2f6 f4bd
00000380: dc49 a8bd 9338 613d 5dfb 14bc 9704 d03b
00000390: 1098 dfbd 71ac ac3c 379c 1f3c 20f8 b63d
000003a0: ea64 13bd 8cd5 47be 1042 193d 7ed9 653d
000003b0: 3ad3 1e3e 0784 7f3d 3743 eb3c ed36 c73d
000003c0: 4f74 15bd 6fae d8bc 6108 94bb 4432 8d3d
000003d0: d988 bdbd 3c2b c53d 1638 053e 203e 4fbd
000003e0: 7786 82bc 4902 583d 2aea e2bd 0544 c13d
000003f0: 56d1 863b 63c8 b93d dfb1 153e 3127 f8bc

mamba.layers.0.mixer.dt_proj.weight f4 [64, 2]
0.0007601924 -0.6130661 -0.16580534 0.1661315 0.1948941 -0.46877176 -0.67506605 0.34778374
0.24009438 0.1811596 -0.337401 0.006337112 0.26764765 0.110429734 0.1664884 -0.09414946
0.42244655 -0.005757193 -0.26641965 0.003136507 0.6069078 -0.26298293 0.0511993 -0.010123621
0.26588345 -0.3224031 0.56025624 -0.46694422 -0.5978705 0.14315483 -0.3544689 0.16157466
-0.106152534 0.23813678 -0.18782496 -0.4362366 0.48901567 0.226897 0.75770384 0.6719617
0.3629885 -0.27483794 -0.36574697 0.64059603 0.38919315 0.044443898 0.00035709798 -0.40772232
0.5970028 -0.49156982 -0.112152554 -0.49007154 0.040580705 0.53373563 0.70910823 -0.446795
-0.15008026 0.3012067 -0.505611 0.15416819 0.5601673 0.5555775 -0.091340914 -0.3915743
-0.56016773 0.5401284 0.5469316 -0.19175643 0.16568789 0.5570543 -0.5075705 -0.19790573
0.043745566 0.2562453 -0.23542161 0.033108357 -0.6777397 -0.42915192 0.25268468 -0.65177554
0.7237303 -0.27555558 0.5373886 -0.2706231 0.2891568 0.44376364 0.32540804 -0.5227682
0.12720396 -0.7237915 0.6943556 -0.2888175 -0.5861043 0.49768054 -0.15680474 0.42773715
0.564475 0.1865654 0.55187666 0.31209913 -0.0909563 -0.6731123 -0.09065269 -0.5899977
-0.6281651 -0.073565565 0.56919706 0.07254137 -0.05713884 -0.56494427 0.0052590906 0.07732726
0.030166866 0.6744288 -0.23614232 0.4393746 0.44398302 0.06597988 -0.05907121 0.45008418
-0.59839 0.37564757 -0.42368668 -0.25307062 -0.15023988 -0.59761375 0.22216515 0.33296993
00000000: a647 473a e6f1 1cbf e0c8 29be 601e 2a3e
00000010: 5292 473e da02 f0be 21d1 2cbf b610 b23e
00000020: 4ddb 753e e781 393e d3bf acbe 8ca7 cf3b
00000030: 1d09 893e fc28 e23d ef7b 2a3e 6fd1 c0bd
00000040: ea4a d83e d6a6 bcbb 2868 88be db8d 4d3b
00000050: 4f5e 1b3f b3a5 86be 5bb6 513d 8bdd 25bc
00000060: e021 883e 0512 a5be f46c 0f3f 5013 efbe
00000070: 0b0e 19bf 2e97 123e f37c b5be d473 253e
00000080: 8066 d9bd 21da 733e 3055 40be 675a dfbe
00000090: 4360 fa3e b057 683e e1f8 413f af05 2c3f
000000a0: a1d9 b93e 8fb7 8cbe 3043 bbbe 1afe 233f
000000b0: 5344 c73e ce0a 363d e138 bb39 fbc0 d0be
000000c0: 2dd5 183f 0aaf fbbe 3db0 e5bd a8ea fabe
000000d0: f437 263d e6a2 083f 1e88 353f 50c2 e4be
000000e0: a4ae 19be c437 9a3e b96f 01bf 44de 1d3e
000000f0: 2067 0f3f 543a 0e3f f210 bbbd 6d7c c8be
00000100: 2767 0fbf db45 0a3f b603 0c3f cc5b 44be
00000110: 16aa 293e 1c9b 0e3f 24f0 01bf cda7 4abe
00000120: 8d2e 333d 9532 833e 5d12 71be a19c 073d
00000130: 5980 2dbf cdb9 dbbe e35f 813e c3da 26bf
00000140: 6446 393f 9f15 8dbe 4d92 093f 1c8f 8abe
00000150: 5c0c 943e fd34 e33e e29b a63e 23d4 05bf
00000160: c141 023e 664a 39bf 4ac1 313f e3df 93be
00000170: ee0a 16bf fccf fe3e 6c91 20be 5d00 db3e
00000180: 6f81 103f 000b 3f3e ca47 0d3f 75cb 9f3e
00000190: 4c47 babd 1651 2cbf 1ea8 b9bd 170a 17bf
000001a0: 6ecf 20bf 8ba9 96bd e6b6 113f 9290 943d
000001b0: 6b0a 6abd 30a0 10bf 7354 ac3b c15d 9e3d
000001c0: 8120 f73c 5ea7 2c3f 4bcf 71be b5f5 e03e
000001d0: be51 e33e 7620 873d a7f4 71bd 6f71 e63e
000001e0: 1630 19bf e154 c03e 76ed d8be 7992 81be
000001f0: 7cd8 19be 37fd 18bf 437f 633e 097b aa3e

mamba.layers.0.mixer.dt_proj.bias f4 [64]
-5.847552 -4.6041656 -4.9118137 -4.2684855 -3.4808059 -6.5151057 -3.6654177 -6.1382527
-5.8893037 -4.9593134 -6.473952 -4.1921315 -6.773943 -6.379297 -2.5593038 -6.6207614
-6.6508408 -6.7380495 -2.8864737 -5.8395205 -5.991515 -3.5129354 -5.641416 -2.7020066
-4.6946826 -5.178134 -4.41904 -4.675471 -5.0457115 -4.5021353 -3.5312161 -2.24741
-6.3867745 -3.1736138 -5.9165816 -4.1129384 -3.2615566 -5.150813 -3.115443 -3.6295114
-2.314277 -2.269448 -2.2469685 -3.9180527 -2.0265718 -5.1303215 -2.363878 -3.4026754
-5.496925 -4.0194445 -3.7153528 -6.565863 -5.0816197 -6.7666063 -4.677425 -4.526781
-6.5662575 -4.196793 -5.418775 -6.485659 -5.2385855 -3.8307157 -5.850314 -2.4285965
00000000: 251f bbc0 5355 93c0 942d 9dc0 6f97 88c0
00000010: 86c5 5ec0 bf7b d0c0 3496 6ac0 916c c4c0
00000020: 2d75 bcc0 b2b2 9ec0 9d2a cfc0 f125 86c0
00000030: 24c4 d8c0 3323 ccc0 a2cb 23c0 47dd d3c0
00000040: b0d3 d4c0 1a9e d7c0 fcbb 38c0 5add bac0
00000050: 7eba bfc0 efd3 60c0 7b86 b4c0 aded 2cc0
00000060: d73a 96c0 46b3 a5c0 c768 8dc0 759d 95c0
00000070: 7876 a1c0 7e11 90c0 72ff 61c0 91d5 0fc0
00000080: 7560 ccc0 7d1c 4bc0 a354 bdc0 319d 83c0
00000090: 58bd 50c0 76d3 a4c0 6b63 47c0 ea49 68c0
000000a0: 1d1d 14c0 a33e 11c0 55ce 0fc0 60c1 7ac0
000000b0: 5ab3 01c0 982b a4c0 c749 17c0 6fc5 59c0
000000c0: cfe6 afc0 4a9f 80c0 57c8 6dc0 8d1b d2c0
000000d0: a19c a2c0 0a88 d8c0 77ad 95c0 64db 90c0
000000e0: c81e d2c0 214c 86c0 9b66 adc0 858a cfc0
000000f0: 7ea2 a7c0 722a 75c0 c635 bbc0 206e 1bc0

mamba.layers.0.mixer.out_proj.weight f4 [32, 64]
-0.075826 0.14118658 0.06287327 -0.020410057 -0.023191867 0.004251967 -0.07811326 0.09044036
0.051270097 0.09813289 0.06853818 -0.066529945 0.08790014 -0.22833312 -0.14253893 0.10126631
-0.13635702 -0.0763227 0.042235285 -0.023248125 -0.07757338 0.029435948 -0.06731666 0.0592964
-0.087664776 -0.011919379 -0.06557216 -0.01093497 -0.09387272 -0.06585041 -0.10764179 -0.05560031
0.07669452 -0.09293236 0.0037851552 0.046842024 0.048196256 -0.04942941 0.069658265 0.072088465
0.07852575 -0.088392556 0.07508423 0.087123506 0.03281495 0.051254492 -0.029281938 0.0690068
0.10426286 0.090783164 -0.027482785 -0.07486562 0.08214435 -0.0857351 0.056891635 0.09025444
0.09197178 0.022007752 0.0627411 -0.06753537 -0.12750952 -0.15704499 0.07778532 0.07031027
0.10032202 0.16570026 0.08015748 -0.03816818 0.10107692 0.07848756 -0.09234725 0.1153585
0.016892552 0.020701617 -0.16100954 0.020838525 0.08401616 -0.23393416 -0.12858456 0.024049055
-0.17023955 -0.0093920715 -0.020722087 -0.046043124 0.15167557 -0.04004381 -0.0033656836 0.007922342
0.096966386 0.012090633 0.031316046 0.03982409 -0.012550929 0.08870622 -0.06475565 -0.023278723
-0.09806933 -0.07968636 -0.0036051304 0.09437862 -0.12235396 0.033785246 0.04183191 -0.027485134
-0.027993692 -0.1685106 -0.08160415 -0.029516874 0.18067856 0.11752147 0.01687402 -0.099903144
0.03011774 0.09203654 0.029233137 0.12458284 0.110242546 0.13658652 0.03101522 -0.13775058
-0.008432835 -0.0029922368 0.07580569 -0.0017899537 0.08951705 -0.08252719 0.05269322 -0.13336848
0.09048669 0.034475103 -0.053938136 0.023111802 0.042753853 0.056448035 0.049853154 0.09280555
0.09966695 0.044850912 0.078748286 -0.07622061 0.11963484 -0.20089425 -0.1724498 0.11458267
-0.11259607 0.09190631 0.03303109 -0.001979511 0.1134542 -0.020413583 0.10560112 -0.032617327
0.0391597 0.032586355 0.00095969526 -0.1245192 -0.013084477 0.055580527 -0.058039714 -0.024780545
-0.005580314 0.012006957 0.02063477 0.090205126 0.04058962 -0.104096 -0.09443496 0.12768327
-0.13336937 -0.076943524 -0.03797438 0.1040077 0.092254706 0.02714788 -0.06591251 0.11733728
0.03979358 0.0082961265 -0.08384697 -0.053461168 -0.059440877 0.01976098 0.11614271 -0.104321815
0.103262566 0.100376606 0.06416881 -0.05743498 0.10054749 -0.021265442 -0.027047453 0.037411127
-0.01876091 -0.04630625 -0.054675605 -0.02982947 -0.054311123 0.034824427 0.021397045 0.028263787
-0.043272197 -0.028972356 -0.008615753 0.0564729 0.04101049 0.11661144 -0.0032176566 0.08229553
-0.035212837 -0.06286335 0.025506493 -0.016800465 0.014129649 0.10766725 -0.22848068 -0.043905392
-0.061371244 0.12513062 -0.0149451 0.005657492 -0.055987492 -0.10695004 -0.086843856 -0.1090087
0.052298553 -0.0717447 0.030975068 -0.027750812 -0.06072901 -0.1342261 0.1642062 0.022247635
0.0033891476 -0.062265854 -0.054966107 -0.07003904 -0.011111588 0.038000315 -0.035617467 -0.083926596
-0.010229147 0.081716806 -0.029927686 -0.1011556 0.091702044 -0.07772244 -0.008135296 0.1388785
0.07791903 0.028946958 -0.039340276 -0.07283021 -0.0653519 -0.08826653 -0.045113232 0.15985976
00000000: a94a 9bbd 3793 103e b3c3 803d fe32 a7bc
00000010: dffc bdbc 1654 8b3b d8f9 9fbd cc38 b93d
00000020: 9800 523d e6f9 c83d bf5d 8c3d da40 88bd
00000030: fd04 b43d 28d0 69be baf5 11be b664 cf3d
00000040: 2da1 0bbe 134f 9cbd e8fe 2c3d da72 bebc
00000050: cbde 9ebd a823 f13c 51dd 89bd c8e0 723d
00000060: 9789 b3bd 8049 43bc b24a 86bd 9728 33bc
00000070: 5740 c0bd 94dc 86bd 4c73 dcbd 27bd 63bd
00000080: 0412 9d3d 5253 bebd 5e10 783b 6cdd 3f3d
00000090: 7069 453d 7e76 4abd fea8 8e3d 1ea3 933d
000000a0: 1cd2 a03d 2807 b5bd c3c5 993d cf6d b23d
000000b0: f868 063d 3bf0 513d ade0 efbc 7053 8d3d
000000c0: c487 d53d 86ec b93d 9423 e1bc 2553 99bd
000000d0: 4c3b a83d e295 afbd 3407 693d 52d7 b83d
000000e0: b35b bc3d 9a49 b43c 687e 803d fc4f 8abd
000000f0: db91 02be 67d0 20be e94d 9f3d d5fe 8f3d
00000100: a275 cd3d 54ad 293e 9b29 a43d 3d56 1cbd
00000110: 6b01 cf3d 16be a03d 8e20 bdbd 1441 ec3d
00000120: 4062 8a3c 7096 a93c afdf 24be 8eb5 aa3c
00000130: aa10 ac3d 708c 6fbe acab 03be 8602 c53c
00000140: 4753 2ebe 34e1 19bc 5ec1 a9bc b797 3cbd
00000150: d750 1b3e fa04 24bd cd92 5cbb b6cc 013c
00000160: 5096 c63d ca17 463c 4145 003d 961e 233d
00000170: 69a2 4dbc 9bab b53d 9c9e 84bd 05b3 bebc
00000180: 93d8 c8bd 9a32 a3bd 0d44 6cbb 9449 c13d
00000190: b794 fabd 6662 0a3d f057 2b3d 8128 e1bc
000001a0: 0753 e5bc 0b8e 2cbe 1420 a7bd 5fcd f1bc
000001b0: cd03 393e 19af f03d 633b 8a3c 059a ccbd
000001c0: 7bb9 f63c a77d bc3d 557a ef3c 4a25 ff3d
000001d0: d8c6 e13d 56dd 0b3e a113 fe3c 7d0e 0dbe
000001e0: e029 0abc 6719 44bb 0340 9b3d e19c eaba
000001f0: b754 b73d 0404 a9bd d9d4 573d bf91 08be
00000200: 1651 b93d c435 0d3d 3cee 5cbd f654 bd3c
00000210: aa1e 2f3d 0e36 673d d232 4c3d d610 be3d
00000220: 301e cc3d 97b5 373d c846 a13d 8d19 9cbd
00000230: 1c03 f53d 39b7 4dbe ae96 30be 52aa ea3d
00000240: c598 e6bd 6039 bc3d 9c4b 073d afba 01bb
00000250: ad5a e83d 633a a7bc 6645 d83d bf99 05bd
00000260: ec65 203d 4579 053d 0f94 7b3a ec03 ffbd
00000270: 4660 56bc 68a8 633d 0dbb 6dbd 9200 cbbc
00000280: 11db b6bb d4b8 443c 400a a93c 77bd b83d
00000290: 4d41 263d 4930 d5bd 1e67 c1bd 67bf 023e
000002a0: fb91 08be 9194 9dbd 068b 1bbd fd01 d53d
000002b0: 09f0 bc3d 3b65 de3c 23fd 86bd 874e f03d
000002c0: 98fe 223d 7aec 073c f6b7 abbd 19fa 5abd
000002d0: 4778 73bd c7e1 a13c 3bdc ed3d ada6 d5bd
000002e0: 537b d33d 4092 cd3d f06a 833d f140 6bbd
000002f0: d8eb cd3d dd34 aebc 9f92 ddbc 693c 193d
00000300: 7bb0 99bc 9fab 3dbd 87f3 5fbd ef5c f4bc
00000310: 5775 5ebd 0fa4 0e3d db48 af3c 7589 e73c
00000320: 303e 31bd 6f57 edbc 1629 0dbc 2150 673d
00000330: 9efa 273d fbd1 ee3d 52df 52bb 8f8a a83d
00000340: 563b 10bd 80be 80bd fef2 d03c 21a1 89bc
00000350: 0b80 673c a680 dc3d d7f6 69be 24d6 33bd
00000360: 6a60 7bbd 3e22 003e 4bdc 74bc 7c62 b93b
00000370: 2453 65bd 9f08 dbbd 31db b1bd f43f dfbd
00000380: 0237 563d e3ee 92bd 6dbf fd3c ac55 e3bc
00000390: fbbe 78bd 9172 09be ac25 283e ac40 b63c
000003a0: 761c 5e3b 7b0a 7fbd 2424 61bd a170 8fbd
000003b0: 610d 36bc 38a6 1b3d 9fe3 11bd b5e1 abbd
000003c0: 2798 27bc 245b a73d e82a f5bc ab2a cfbd
000003d0: 48ce bb3d f12c 9fbd e849 05bc 2a36 0e3e
000003e0: 0394 9f3d 2c22 ed3c 4523 21bd 0128 95bd
000003f0: 38d7 85bd 15c5 b4bd a7c8 38bd 47b2 233e

mamba.layers.0.norm.weight f4 [32]
1.0101892 1.0912162 1.0166185 1.0120755 0.98505265 1.0688171 1.0040026 1.0510792
1.0115747 0.9469209 1.0299722 1.0104948 1.1576579 1.020699 1.1630187 0.9907144
1.0085433 0.98424137 1.0047202 1.0045804 1.0543067 1.0864809 1.0408549 1.049348
1.0172108 1.0007857 1.0273535 0.9918857 1.0189161 0.99479955 0.983423 1.143025
00000000: e14d 813f f9ac 8b3f 8e20 823f b18b 813f
00000010: 692c 7c3f 00cf 883f 2883 803f c389 863f
00000020: 487b 813f 6869 723f 21d6 833f e557 813f
00000030: 222e 943f 44a6 823f ccdd 943f 759f 7d3f
00000040: f217 813f 3ef7 7b3f ac9a 803f 1796 803f
00000050: 86f3 863f ce11 8b3f bc3a 853f 0951 863f
00000060: f733 823f bf19 803f 5280 833f 39ec 7d3f
00000070: d86b 823f 2fab 7e3f 9cc1 7b3f a54e 923f
