saves_ar/soc_mamba_v1/model-b.pth (torch, 271666 bytes, 80 tensors)

iu_mean f4 [2]
00000000: 0000 0000 0000 0000
0.0 0.0

iu_std f4 [2]
00000000: 0000 803f 0000 803f
1.0 1.0

input_proj.weight f4 [32, 6]
00000000: 353d 973e 34b1 373e 73cb b2be 6fd8 313e
00000010: 1ad1 a7be 5632 813e f493 9b3e a1e8 493e
00000020: ecda 183d 7177 b0be fdb0 253e e2e2 66be
00000030: 4b6a 373e 726b 97be 46ba 8abe 6dd3 03be
00000040: 69be 953e 1216 4cbe 1c59 5a3e ecb4 c3be
00000050: 704e b4be 60e4 963e cfe5 bfbc 71bf bbbe
00000060: 5aa7 96be 285f 2fbe 106e 1c3e 190a a6bd
00000070: 939a 38be e14b 64be 70de 5e3e 220f 013d
00000080: 5bde 0dbd f715 9c3e 2f13 aabe 7d07 cabd
00000090: 8c5a 5c3a cab2 003e abea ef3d 4131 b03e
000000a0: 942c 343d 8066 553e 2b21 88be 57c7 3fbd
000000b0: 5b9e 92bd cf20 4bbd 9685 823e fb87 a33e
000000c0: 0323 c1bb b81f e23d 8e01 11bc c659 913e
000000d0: 2d87 853e c5c4 bc3e 9505 9ebe cd0a a83d
000000e0: 1fb3 353d 1a49 053e ee61 2bbe 761d 3bbe
000000f0: 6946 41be bf27 b2be b64a c73e bde2 9abe
00000100: 596b ea3d b794 0c3e c330 b0be 6c29 3a3e
00000110: 5fee 2abe 3457 653d b11c f83d fc3b d13d
00000120: 4edf 993e 23cb 47bd bcc8 42be 4159 693e
00000130: 9817 ff3d ddd2 debc ee4e b03e 34af 9bbe
00000140: a181 20bd 07c9 bdbe dba2 a2bc 8218 3bbc
00000150: 518e 383d 5899 73bd 9965 8cbd ea33 da3d
00000160: 97fe 2bbe cb5e 3abe 30d0 c23e f702 a3be
00000170: a08d afbe 37e6 5c3e d161 cbbd 2618 1a3e
00000180: b3ea a33e e6d2 aa3e fcac 953e 7b86 c93e
00000190: da6f 08be 81b1 663a 6418 5fbd 07d2 09bd
000001a0: 5a8b c63e 7a36 aebe ce50 063d 99f2 31be
000001b0: 756e 9f3e aec4 b03e d120 43be 8004 cc3e
000001c0: 2d28 bcbe f860 863e 4b04 df3d d041 be3d
000001d0: 412a b5be b880 0abe f378 db3d 5310 aebe
000001e0: acae 3abe 7c64 943d 3476 bf3e 7188 913d
000001f0: c0a7 aabd 02cf 50bc 8a12 ad3e 97c6 eabd
00000200: 2390 d0bd da65 8f3e 67dc 60be a940 d9bd
00000210: 5af0 83be 4a7a 68be 966e 613e 0ac7 f13d
00000220: e69e df3e 297e 6ebc 8e56 3b3c d451 5dbd
00000230: 399a 99be 5411 b63e 24bf 723c a227 67bd
00000240: db39 5abd 472f 17be c65d 70be baf9 e83d
00000250: 49c1 d13e 3532 bcbe 2a4f b73e 0548 c3be
00000260: bee1 093e 3bde 04be d7b3 aa3e 2472 c23e
00000270: 4c4b 83bd 8643 6d3e 22cc 9b3e 0268 99bd
00000280: 1372 193e ceec 663d 0442 593e d91b b43e
00000290: 3d62 223d 4006 8d3e e1c0 a3be eda3 7cbe
000002a0: dce8 9dbd 8387 aa3e 0a0c 243c a2b7 873e
000002b0: 8a16 37bc 42cf 8b3d 1bb7 53be 6a7b c23e
000002c0: 0346 44be c8ba 65be a988 9d3e 572a 70be
000002d0: b3ec 943e e6d1 093e e132 9dbd f6dd 753d
000002e0: 4747 e0be 5fca 4fbe f346 313e d64f b9bd
000002f0: 8e31 373e 950e 95be 09f8 9bbd bb80 0fbe
0.29538885 0.17938691 -0.34920844 0.17367719 -0.3277672 0.25233716 0.30386317 0.19717647
0.037318155 -0.34466127 0.16180797 -0.22547486 0.17911641 -0.29574162 -0.2709524 -0.12873621
0.29246834 -0.19930294 0.21323055 -0.3822397 -0.35216093 0.2947111 -0.023425011 -0.36669496
-0.29424554 -0.17126143 0.1527636 -0.08107395 -0.18027715 -0.2229457 0.2176454 0.031508572
-0.034635883 0.30485508 -0.3321776 -0.098647095 0.00084058265 0.12568203 0.11714681 0.34412578
0.043987826 0.20839882 -0.26587805 -0.046820965 -0.0715911 -0.049591836 0.25492543 0.31939682
-0.0058940663 0.11041206 -0.008850468 0.28388804 0.26079693 0.36868873 -0.30863634 0.08205185
0.044360276 0.13016167 -0.16736576 -0.18272957 -0.18874516 -0.3479595 0.38924187 -0.30251113
0.11446256 0.13728605 -0.34412202 0.18179864 -0.16692494 0.055991367 0.121148475 0.10216519
0.3005318 -0.04877771 -0.19021887 0.22787954 0.12455672 -0.027200157 0.3443522 -0.30407107
-0.039186124 -0.37067434 -0.019853046 -0.011419417 0.0450576 -0.059472412 -0.06855316 0.10654433
-0.16796337 -0.18200223 0.3804946 -0.318382 -0.3428774 0.21572195 -0.099307664 0.15048274
0.32015 0.33364028 0.2923354 0.39360413 -0.13323918 0.0008800254 -0.05446662 -0.033647563
0.38778192 -0.34025937 0.032791905 -0.173777 0.3113896 0.34525055 -0.19055487 0.39847183
-0.36749402 0.26245856 0.10889491 0.092898965 -0.353838 -0.13525665 0.107164286 -0.3399683
-0.18230695 0.072457284 0.3739487 0.07106102 -0.08332777 -0.012744667 0.33803207 -0.11463659
-0.10183742 0.28007394 -0.21959077 -0.10608036 -0.2576931 -0.227029 0.22014841 0.11805542
0.43675917 -0.014556446 0.01143421 -0.054033116 -0.30000475 0.35560095 0.014816079 -0.05643428
-0.05327783 -0.14764129 -0.23473272 0.113757566 0.40967777 -0.36757055 0.35802585 -0.38140884
0.1346502 -0.12975399 0.33340332 0.37977707 -0.06410846 0.2317029 0.30429178 -0.07490541
0.14984922 0.05637818 0.21216589 0.35177496 0.03964447 0.2754383 -0.31983092 -0.24671908
-0.0771043 0.33306512 0.010012636 0.26507288 -0.011174807 0.06826641 -0.20675318 0.37984782
-0.19167332 -0.22434533 0.30768326 -0.23453651 0.29086837 0.13458976 -0.0767572 0.06002613
-0.4380438 -0.20292042 0.17312221 -0.090484306 0.17889997 -0.29112688 -0.07615668 -0.1401395

input_proj.bias f4 [32]
00000000: e319 a23e 00a5 46be 8f88 c3be ecf3 84be
00000010: 9520 ae3e a26e a3b9 0299 c4bc 05bc f63d
00000020: 651b a1be bdb4 433e 71a7 1a3e 8599 d93d
00000030: 6f7f ad3e 30e1 523e ac0e 893e 463e 8ebd
00000040: bfb8 1f3e 31eb d2bc 9023 033e 5a32 a03e
00000050: f5b0 4bbe ebb7 b7be 5be7 96bd 3c72 e8be
00000060: 5b50 08be da4f 22be 6275 47be bc2a 6f3e
00000070: 8b27 74be 14c2 103e 0247 3e3e 93ff d83e
0.31660375 -0.1939888 -0.38190123 -0.25967348 0.34009233 -0.0003117221 -0.023998741 0.12047581
-0.31466213 0.19111915 0.15102936 0.10624985 0.33886287 0.20593715 0.26769006 -0.069454715
0.15597819 -0.025746914 0.12806535 0.31288415 -0.19891723 -0.35882506 -0.07368346 -0.45399654
-0.13311903 -0.15850773 -0.19478372 0.23356146 -0.2384321 0.14136535 0.18581775 0.42382488

input_norm.weight f4 [32]
00000000: 33bf 7c3f 0e71 833f a270 7d3f 9519 7d3f
00000010: 165d 813f 040a 763f 72f3 7f3f d584 7e3f
00000020: 29ce 803f 525e 713f 607c 793f a1ff 7b3f
00000030: 723b 8d3f 9b12 7e3f 1a63 853f 0ab8 7a3f
00000040: 16a3 7a3f fb2d 7a3f f313 793f 21da 803f
00000050: 2e2c 7b3f d291 7f3f 74bf 6c3f cf49 883f
00000060: a90d 7e3f 262e 7d3f 9b9a 7b3f a0d0 7a3f
00000070: 8e70 803f 6f85 793f 2976 603f 8408 8e3f
0.98729247 1.0268877 0.9899999 0.9886716 1.0106533 0.9610903 0.99980843 0.99421436
1.0062915 0.94284546 0.97455406 0.98436934 1.1033766 0.9924714 1.0420868 0.9793707
0.979051 0.9772641 0.97296065 1.0066568 0.9811429 0.9983188 0.92479634 1.0647525
0.99239594 0.9889854 0.98282784 0.97974586 1.0034349 0.9746923 0.876803 1.1096349

input_norm.bias f4 [32]
00000000: 1992 083c 7ed5 9b3b 5771 223c b475 153b
00000010: 908f bfbb 8a72 29bc 24c6 8a3b 672d 773c
00000020: ff7a 943b cca1 d2ba 47b6 a73b 4aea 943b
00000030: c38b e4bb a1d7 7cb9 e425 683c 3769 483c
00000040: f563 debb cbc3 d9bb 29c1 f8bb 1479 f53a
00000050: 4e34 debb 1af1 cb3b 2012 0cbc 9dbf c6bc
00000060: fbc7 a8bb ad41 523b 2c3b 0ebc 05f3 4ebc
00000070: f862 633b d12f 99bc 3c97 b93a b876 803c
0.008335614 0.004755675 0.009914718 0.0022805752 -0.0058459714 -0.01034225 0.004235046 0.015086508
0.004531264 -0.0016069948 0.0051181647 0.004544531 -0.0069746687 -0.00024112921 0.01416919 0.012232116
-0.006786818 -0.006645655 -0.007591386 0.0018728101 -0.0067811375 0.00622381 -0.008549243 -0.02426129
-0.0051507927 0.0032082603 -0.0086811 -0.012631183 0.003469644 -0.018699558 0.0014159451 0.01568161

mamba.layers.0.mixer.A_log f4 [64, 16]
00000000: 0000 0000 d63c 303f 0eaa 8b3f d63c b03f
00000010: b59b cc3f 79c8 e33f 8561 f73f 4f2d 0440
00000020: 0eaa 0b40 9e5d 1240 846c 1840 72f3 1d40
00000030: 4508 2340 0ec1 2740 0c21 2c40 d63c 3040
00000040: 0000 0000 d63c 303f 0eaa 8b3f d63c b03f
00000050: b59b cc3f 79c8 e33f 8561 f73f 4f2d 0440
00000060: 0eaa 0b40 9e5d 1240 846c 1840 72f3 1d40
00000070: 4508 2340 0ec1 2740 0c21 2c40 d63c 3040
00000080: 0000 0000 d63c 303f 0eaa 8b3f d63c b03f
00000090: b59b cc3f 79c8 e33f 8561 f73f 4f2d 0440
000000a0: 0eaa 0b40 9e5d 1240 846c 1840 72f3 1d40
000000b0: 4508 2340 0ec1 2740 0c21 2c40 d63c 3040
000000c0: 0000 0000 d63c 303f 0eaa 8b3f d63c b03f
000000d0: b59b cc3f 79c8 e33f 8561 f73f 4f2d 0440
000000e0: 0eaa 0b40 9e5d 1240 846c 1840 72f3 1d40
000000f0: 4508 2340 0ec1 2740 0c21 2c40 d63c 3040
00000100: 0000 0000 d63c 303f 0eaa 8b3f d63c b03f
00000110: b59b cc3f 79c8 e33f 8561 f73f 4f2d 0440
00000120: 0eaa 0b40 9e5d 1240 846c 1840 72f3 1d40
00000130: 4508 2340 0ec1 2740 0c21 2c40 d63c 3040
00000140: 0000 0000 d63c 303f 0eaa 8b3f d63c b03f
00000150: b59b cc3f 79c8 e33f 8561 f73f 4f2d 0440
00000160: 0eaa 0b40 9e5d 1240 846c 1840 72f3 1d40
00000170: 4508 2340 0ec1 2740 0c21 2c40 d63c 3040
00000180: 0000 0000 d63c 303f 0eaa 8b3f d63c b03f
00000190: b59b cc3f 79c8 e33f 8561 f73f 4f2d 0440
000001a0: 0eaa 0b40 9e5d 1240 846c 1840 72f3 1d40
000001b0: 4508 2340 0ec1 2740 0c21 2c40 d63c 3040
000001c0: 0000 0000 d63c 303f 0eaa 8b3f d63c b03f
000001d0: b59b cc3f 79c8 e33f 8561 f73f 4f2d 0440
000001e0: 0eaa 0b40 9e5d 1240 846c 1840 72f3 1d40
000001f0: 4508 2340 0ec1 2740 0c21 2c40 d63c 3040
00000200: 0000 0000 d63c 303f 0eaa 8b3f d63c b03f
00000210: b59b cc3f 79c8 e33f 8561 f73f 4f2d 0440
00000220: 0eaa 0b40 9e5d 1240 846c 1840 72f3 1d40
00000230: 4508 2340 0ec1 2740 0c21 2c40 d63c 3040
00000240: 0000 0000 d63c 303f 0eaa 8b3f d63c b03f
00000250: b59b cc3f 79c8 e33f 8561 f73f 4f2d 0440
00000260: 0eaa 0b40 9e5d 1240 846c 1840 72f3 1d40
00000270: 4508 2340 0ec1 2740 0c21 2c40 d63c 3040
00000280: 0000 0000 d63c 303f 0eaa 8b3f d63c b03f
00000290: b59b cc3f 79c8 e33f 8561 f73f 4f2d 0440
000002a0: 0eaa 0b40 9e5d 1240 846c 1840 72f3 1d40
000002b0: 4508 2340 0ec1 2740 0c21 2c40 d63c 3040
000002c0: 0000 0000 d63c 303f 0eaa 8b3f d63c b03f
000002d0: b59b cc3f 79c8 e33f 8561 f73f 4f2d 0440
000002e0: 0eaa 0b40 9e5d 1240 846c 1840 72f3 1d40
000002f0: 4508 2340 0ec1 2740 0c21 2c40 d63c 3040
00000300: 0000 0000 d63c 303f 0eaa 8b3f d63c b03f
00000310: b59b cc3f 79c8 e33f 8561 f73f 4f2d 0440
00000320: 0eaa 0b40 9e5d 1240 846c 1840 72f3 1d40
00000330: 4508 2340 0ec1 2740 0c21 2c40 d63c 3040
00000340: 0000 0000 d63c 303f 0eaa 8b3f d63c b03f
00000350: b59b cc3f 79c8 e33f 8561 f73f 4f2d 0440
00000360: 0eaa 0b40 9e5d 1240 846c 1840 72f3 1d40
00000370: 4508 2340 0ec1 2740 0c21 2c40 d63c 3040
00000380: 0000 0000 d63c 303f 0eaa 8b3f d63c b03f
00000390: b59b cc3f 79c8 e33f 8561 f73f 4f2d 0440
000003a0: 0eaa 0b40 9e5d 1240 846c 1840 72f3 1d40
000003b0: 4508 2340 0ec1 2740 0c21 2c40 d63c 3040
000003c0: 0000 0000 d63c 303f 0eaa 8b3f d63c b03f
000003d0: b59b cc3f 79c8 e33f 8561 f73f 4f2d 0440
000003e0: 0eaa 0b40 9e5d 1240 846c 1840 72f3 1d40
000003f0: 4508 2340 0ec1 2740 0c21 2c40 d63c 3040
0.0 0.6884283 1.0911272 1.3768566 1.5985018 1.7795554 1.9326636 2.0652654
2.1822543 2.286964 2.3816233 2.4679837 2.5473797 2.6211581 2.689517 2.7537131
0.0 0.6884283 1.0911272 1.3768566 1.5985018 1.7795554 1.9326636 2.0652654
2.1822543 2.286964 2.3816233 2.4679837 2.5473797 2.6211581 2.689517 2.7537131
0.0 0.6884283 1.0911272 1.3768566 1.5985018 1.7795554 1.9326636 2.0652654
2.1822543 2.286964 2.3816233 2.4679837 2.5473797 2.6211581 2.689517 2.7537131
0.0 0.6884283 1.0911272 1.3768566 1.5985018 1.7795554 1.9326636 2.0652654
2.1822543 2.286964 2.3816233 2.4679837 2.5473797 2.6211581 2.689517 2.7537131
0.0 0.6884283 1.0911272 1.3768566 1.5985018 1.7795554 1.9326636 2.0652654
2.1822543 2.286964 2.3816233 2.4679837 2.5473797 2.6211581 2.689517 2.7537131
0.0 0.6884283 1.0911272 1.3768566 1.5985018 1.7795554 1.9326636 2.0652654
2.1822543 2.286964 2.3816233 2.4679837 2.5473797 2.6211581 2.689517 2.7537131
0.0 0.6884283 1.0911272 1.3768566 1.5985018 1.7795554 1.9326636 2.0652654
2.1822543 2.286964 2.3816233 2.4679837 2.5473797 2.6211581 2.689517 2.7537131
0.0 0.6884283 1.0911272 1.3768566 1.5985018 1.7795554 1.9326636 2.0652654
2.1822543 2.286964 2.3816233 2.4679837 2.5473797 2.6211581 2.689517 2.7537131
0.0 0.6884283 1.0911272 1.3768566 1.5985018 1.7795554 1.9326636 2.0652654
2.1822543 2.286964 2.3816233 2.4679837 2.5473797 2.6211581 2.689517 2.7537131
0.0 0.6884283 1.0911272 1.3768566 1.5985018 1.7795554 1.9326636 2.0652654
2.1822543 2.286964 2.3816233 2.4679837 2.5473797 2.6211581 2.689517 2.7537131
0.0 0.6884283 1.0911272 1.3768566 1.5985018 1.7795554 1.9326636 2.0652654
2.1822543 2.286964 2.3816233 2.4679837 2.5473797 2.6211581 2.689517 2.7537131
0.0 0.6884283 1.0911272 1.3768566 1.5985018 1.7795554 1.9326636 2.0652654
2.1822543 2.286964 2.3816233 2.4679837 2.5473797 2.6211581 2.689517 2.7537131
0.0 0.6884283 1.0911272 1.3768566 1.5985018 1.7795554 1.9326636 2.0652654
2.1822543 2.286964 2.3816233 2.4679837 2.5473797 2.6211581 2.689517 2.7537131
0.0 0.6884283 1.0911272 1.3768566 1.5985018 1.7795554 1.9326636 2.0652654
2.1822543 2.286964 2.3816233 2.4679837 2.5473797 2.6211581 2.689517 2.7537131
0.0 0.6884283 1.0911272 1.3768566 1.5985018 1.7795554 1.9326636 2.0652654
2.1822543 2.286964 2.3816233 2.4679837 2.5473797 2.6211581 2.689517 2.7537131
0.0 0.6884283 1.0911272 1.3768566 1.5985018 1.7795554 1.9326636 2.0652654
2.1822543 2.286964 2.3816233 2.4679837 2.5473797 2.6211581 2.689517 2.7537131

mamba.layers.0.mixer.D f4 [64]
00000000: df5f 823f 8a16 893f 9888 7b3f c17a 7e3f
00000010: 9d08 833f 9bc1 7e3f d731 7e3f edc9 7f3f
00000020: e0eb 8c3f 30f4 803f e64c 7f3f d4c9 7d3f
00000030: ec19 803f 3ac1 913f c6c3 883f aab9 803f
00000040: 531e 8b3f 5d15 803f 1374 863f 8f98 7e3f
00000050: ef1d 843f f6e7 803f 822d 893f 409b 863f
00000060: c700 7e3f b622 833f 8a9f 7c3f 5832 7a3f
00000070: 11d5 793f c810 7d3f aab2 803f c042 833f
00000080: f101 853f 0c87 7d3f 9425 7e3f ce0f 803f
00000090: 9d48 813f 3814 853f f270 843f 87ca 823f
000000a0: 68f3 7c3f 3fcb 873f 8baf 813f ff99 893f
000000b0: 975b 863f c782 7f3f 7926 7e3f 03b5 7e3f
000000c0: b40a 813f 85b5 813f 5489 813f 0907 833f
000000d0: 1e83 7c3f 3188 813f 1792 853f 4992 7d3f
000000e0: 1f82 7e3f 543b 873f afd3 813f 5eba 823f
000000f0: 8e42 793f e208 853f 193f 7f3f b33e 853f
1.0185508 1.0710003 0.982553 0.9940606 1.0237004 0.9951417 0.992948 0.9991749
1.1009483 1.007452 0.9972671 0.9913609 1.0007911 1.1387093 1.0684745 1.005666
1.0868629 1.000652 1.0504173 0.99451536 1.0321635 1.0070789 1.0717013 1.0516129
0.99219936 1.0244968 0.9868094 0.9773307 0.9759074 0.9885373 1.0054524 1.0254745
1.0391217 0.9903419 0.9927609 1.0004823 1.0100285 1.0396795 1.0346968 1.0218056
0.9880891 1.0608901 1.0131696 1.0750121 1.0496701 0.99808925 0.99277455 0.9949495
1.0081391 1.013352 1.0120034 1.0236522 0.9863757 1.0119687 1.0435208 0.9905134
0.994173 1.056498 1.0142726 1.0213125 0.9736718 1.0393336 0.99705654 1.0409759

mamba.layers.0.mixer.in_proj.weight f4 [128, 32]
00000000: abf7 f83d a6bf b23d 95f4 db3d 179b 1dbc
00000010: 0ea4 38bc 24c3 e3bd f4e1 1f3d 2c68 d33d
00000020: 5741 45be e3a6 0a3e 82ab 203d ed4b 16ba
00000030: b491 433e e77a b7bd d924 243e bd85 fb3d
00000040: 8289 c7bd 3a85 d23d a89c 4bbd e46a 063e
00000050: e9a7 9d3d 6b2a ea3b 5a77 183e 6ae3 39be
00000060: 01ce d1bd 9070 2fbd 84d4 05be a814 d33c
00000070: 2d7f 22be 6491 a3bd 1e01 043d 6d3a 883e
00000080: 5746 083c 7d57 1a3c cf9e 3d3e 6253 e7bb
00000090: 1b16 0d3e f6c9 c23b 2f48 9ebb 4b8b c6bd
000000a0: 8640 3cbd 4b70 51bd e40f 373c b5dd 8cbd
000000b0: a85f 2b3e fe53 b23d 9401 b23e ff2d e73d
000000c0: a857 5fbe f21f 203e c510 78be d710 4cbd
000000d0: cd89 7dbe 7440 1f3e 1ddd 363e 873b 62bd
000000e0: 9bbf 1a3e 1302 b43d e139 97bd 790b 53bc
000000f0: d711 aebd 64a3 16be ca56 53bd 248c dc3d
00000100: c784 b5bd 0d2b 1b3e 54dc 013e 8f35 1b3c
00000110: 4493 203c d347 b63d b4dc 183a 8afb a63d
00000120: abbd ec3c 94f3 d1bd 116f 073d 47fe d1bd
00000130: 1a02 b5bd 76ee 2ebe 597a 9bbd d18c 233e
00000140: c96e 05bd 843a f83d 9f8e 23be 289c 4bbe
00000150: 5765 84bd 2015 0e3c e01f 9e3d cde4 0abe
00000160: 14be 343e 8a07 8ebc 0dfc f9bc bdbe 883d
00000170: c951 96bb 2ce6 69bd 86f2 67be 92fa 12be
00000180: 2056 823c 6b5e 1a3e 5029 9c3d 75c7 c5bc
00000190: 79be 22b8 362b 72bc 4229 5ebc a4bd 303e
000001a0: b5ab a0bd f2be d53c 08ae 6dbd fc25 1cbe
000001b0: d369 9dbe ef8c 12bd 816a 40be e7fb 293d
000001c0: cc2e e93c 81d5 283e e5d6 133e 9ab9 8e3d
000001d0: 997e 693d 47bc 0b3c 6a98 a7bc 5a28 453d
000001e0: 42d1 e4bd d440 07be 8832 bdbd b7b4 003e
000001f0: dbcd e63c 0813 3cbd 8b7c 77bd db7f b3bd
00000200: 116a 443e c71e 0abe 9570 463d 7caa 4ebd
00000210: f29d ea3d 833a 703d 5e6d 343e 8cbf 01be
00000220: 69c1 823d 2dca ed3c f339 0abe 54c4 e5bb
00000230: a7ca e03d af31 a1bd d801 2ebd f5a0 ea3d
00000240: 5935 6b3d 78fd 9bbd 9149 fd3d 50e9 173e
00000250: e41a 26be b68a e03d 21af 77bb fe12 72be
00000260: 4728 ef3d 8183 df3d 0287 3b3e cbb0 b0bd
00000270: 8e1d 203d 9ebd 9e3d 252c 853d a482 703d
00000280: c5b4 843d d9ef 0b3e bb44 c53d ebf7 f7bd
00000290: d38d 353d f1a9 a13d b13b 163e c836 e73d
000002a0: 8d6c 033d 31ba 113e 5f95 4dbe e611 16be
000002b0: e698 5b3e dbd7 03bd 27e4 063e 13b6 e5bd
000002c0: 4495 973c b6ea 3fbe 57b3 503d 5941 9d3d
000002d0: 06a1 bc3c fa6e dd3d 8d22 08be ee3a 86bd
000002e0: a5a2 01be c30c 04be c7de d33c 8a5b 16be
000002f0: 78c0 69bd 3b25 f2bd a3c9 f5bc e4ef 723e
00000300: 24ef adbd 9ee0 373c 67f7 16be 2cce 6abc
00000310: 7f94 293e b082 18bd 428c 80bd 1cd9 2f3e
00000320: 3dd9 313e 73f4 7abd c7e1 793d 8a4d afbd
00000330: 7dae d03d df28 80bd 6891 c7bc a515 143e
00000340: 3e51 f8bd 615d 27be 662a 2f3d 6d03 b5bd
00000350: 8773 86bc 7682 a13d cc82 0dbc 3742 c63d
00000360: 2d45 b73d a647 e23d fed7 9bba 024a 1bbe
00000370: 483d bc3d fa96 e0bd 847a 80bd 1a49 d2bd
00000380: ddec 0c3e 2042 32bd 4dda 0e3e c442 aabb
00000390: ead5 2f3d 8677 02be 287a d93d 9ff5 04be
000003a0: 7a1b 1d3e 023d 2f3e 6ef3 c43c 083e cb3d
000003b0: 7f00 393e c19f 843d d3d7 0f3d 770c 0dbd
000003c0: 0106 3d3d c6cb f6bd 6b03 803d cea5 0b3e
000003d0: 20f9 0dbe d6c7 a9bd 043c f63c 08ec 0a3e
000003e0: 22f6 58b8 4450 09be 8662 403d 55b6 89bd
000003f0: 0e24 613c 86d4 af3c 1880 b4bd eb20 b43d
0.12156614 0.0872796 0.1074001 -0.009619496 -0.011269582 -0.111212045 0.039033845 0.103226036
-0.19263206 0.13540225 0.039226063 -0.000573336 0.1909855 -0.08958989 0.16029681 0.12281368
-0.097430244 0.10279317 -0.049709946 0.13126713 0.07698042 0.00714617 0.14889279 -0.18153158
-0.1024437 -0.042831957 -0.1306935 0.025766686 -0.15868826 -0.079867154 0.032227628 0.26607075
0.008317552 0.009420273 0.18517612 -0.0070595006 0.13777964 0.005944486 -0.0048303823 -0.09694537
-0.04595997 -0.05113248 0.011173222 -0.06878225 0.16735709 0.087074265 0.3476683 0.1128807
-0.21810782 0.15637186 -0.24225147 -0.049820747 -0.24759598 0.1555193 0.17857786 -0.05523255
0.15112154 0.08789458 -0.073840864 -0.012881153 -0.084994964 -0.14710766 -0.05159644 0.10768917
-0.08863216 0.15153141 0.12681705 0.009473219 0.009800736 0.08900418 0.0005831227 0.08153446
0.028899034 -0.10251537 0.033064906 -0.10253578 -0.088382915 -0.17083153 -0.07591695 0.15971686
-0.032576356 0.12120536 -0.15972374 -0.19883788 -0.064646415 0.008672029 0.077209234 -0.13563843
0.17650634 -0.01733758 -0.030515695 0.066770054 -0.0045873863 -0.057104275 -0.22651109 -0.14353397
0.015910208 0.1507508 0.07625067 -0.02414296 -3.88012e-05 -0.01478081 -0.013559641 0.17259842
-0.078452505 0.026092026 -0.058027297 -0.15248865 -0.307448 -0.035778936 -0.18790628 0.0415
0.028464697 0.16487695 0.14437445 0.069689944 0.0570055 0.008528776 -0.020458419 0.048134185
-0.11172725 -0.13208324 -0.09238154 0.12568937 0.028174331 -0.045916587 -0.060421508 -0.08764621
0.19181086 -0.13488303 0.04844721 -0.050455555 0.11455907 0.05864955 0.17619845 -0.12670726
0.06384546 0.029027069 -0.13498668 -0.0070119295 0.10976153 -0.078708045 -0.042482227 0.11456481
0.057423923 -0.07616705 0.12367547 0.14835095 -0.16221195 0.10963957 -0.0037793594 -0.23640057
0.11677604 0.10913754 0.1831322 -0.086274706 0.039090686 0.0775101 0.065025605 0.05871834
0.064797916 0.13665713 0.0963225 -0.121078335 0.044324707 0.07893742 0.14671208 0.112897456
0.032085944 0.14231183 -0.20076512 -0.14655265 0.21445045 -0.032188278 0.1317297 -0.112163685
0.018503793 -0.18741879 0.05095228 0.0767848 0.023026 0.10812183 -0.1329443 -0.06554209
-0.126597 -0.12895493 0.025863064 -0.14683357 -0.057068318 -0.118235074 -0.030003374 0.23724324
-0.08492878 0.0112229865 -0.14742814 -0.014331382 0.16560553 -0.03723401 -0.06276752 0.17172664
0.17368026 -0.06126828 0.061006334 -0.08559711 0.10189531 -0.062577955 -0.024361327 0.14461382
-0.12124871 -0.16344215 0.042765044 -0.08838544 -0.01641251 0.078862116 -0.008637141 0.09680598
0.08948741 0.11048822 -0.0011889932 -0.1516495 0.09191376 -0.109662965 -0.06273368 -0.10267849
0.13762231 -0.043520093 0.13950463 -0.0051959474 0.042928614 -0.12740907 0.106190026 -0.12984322
0.15342513 0.17113116 0.024041858 0.09923941 0.18066595 0.06475783 0.035117935 -0.034435716
0.046148304 -0.120505854 0.06250652 0.13637468 -0.13864565 -0.08290069 0.030057915 0.13566601
-5.1727642e-05 -0.13409525 0.04696896 -0.0672423 0.013741506 0.021463644 -0.088134944 0.08795341

mamba.layers.0.mixer.conv1d.weight f4 [64, 1, 4]
00000000: db37 883e ff6e e3be a129 33be a05b 06bf
00000010: bf35 16be 88dc a23e ac8f b53e 65b8 07bf
00000020: 55a9 f1bd c471 a83e d68d b7bd b4dd 873d
00000030: 8bf1 953d 7c8d 12be e3b5 f6be 6e18 ae3d
00000040: 336c e53e 9431 f43e d0c1 dc3e 3588 8fbe
00000050: 7b4c 153d 58f2 a4be 8f8b cb3e 9cc0 90be
00000060: 7be1 ac3e 8701 d8be f00b 0a3e 0f69 3ebe
00000070: f194 8fbe 8fec 5ebe 9e75 f43e ff96 7cbe
00000080: bfa8 a13e eded d7bd 8c7f f73e 8ade 2b3e
00000090: 3a3c c73e 6e11 c43d 7b59 debd bb7b d23e
000000a0: 8a41 71be d614 61be cc26 d33e 4c14 6c3d
000000b0: de99 ed3e 3098 d2be 2439 983e 2a11 313d
000000c0: f358 843e c94d 6f3e 0962 9c3e 132c 9e3e
000000d0: c1ad cb3c c4f1 f8be ee9e 233e c929 7abe
000000e0: b961 22be 0414 8b3e b67d 97be 9b98 b2be
000000f0: 251c 2f3e da61 bcbe f5da 67bd 3446 74be
00000100: 536c e4be e73e 09be d782 c6be 9418 5cbe
00000110: 2cb6 83be 8863 f13d 6702 20bc 22e1 d4be
00000120: 2701 c03e 07be c43e 94e9 3abe 9f4d 873e
00000130: 2de5 fb3e e5f5 cc3d 4333 a1be 937d af3d
00000140: e589 b2be 93c1 19bc c523 7ebe 1894 02be
00000150: b8fc f23e bdea 833e f405 193e 64e3 123e
00000160: de2b b0bc 9078 7e3e a978 a73e 617c b23e
00000170: 9b6b 8d3e a226 6fbe f4a3 843e 1f30 ca3e
00000180: a7e5 593e 1191 d03e 6d53 a63d 1b8f e53e
00000190: 7d93 8f3d 75be 823e 4d42 57bd de32 bb3e
000001a0: 4cfb d4be 477c 763e 87fb de3e f3c5 57be
000001b0: 2387 c9bd 3f57 c9be 7b54 89be 4416 94be
000001c0: 6996 37be 0530 70bd 8f37 873e 57a1 123d
000001d0: 5b0d ddbd d6e0 b03d 466f dc3e 3839 4b3d
000001e0: 619a 82be 88c7 da3d cdc4 89be 7833 9abe
000001f0: 017a 9bbe f24b 233e 4bf4 b23e b48e 743e
00000200: 13f9 20be abd5 b33e f36e 5dbd 7319 b0be
00000210: 6fbc ae3e 3d10 903d d9f4 efbe 1517 c43e
00000220: 3921 9abd 0199 023e 9320 873d 68fc c73c
00000230: fcac 2a3e 17a5 073e 2bc2 9cbe 0a90 93be
00000240: 0a8c e4be 09a1 81bd 94dc 05be d796 953e
00000250: 1b75 b83e 66ed f03d c875 b73e 7052 f13d
00000260: 23a7 ebbc 0b4a 96be 3f38 f63e 60bd bdbe
00000270: 84d0 b5be 74e6 a9be dda3 1c3d bb4c 00be
00000280: 3dfe 8fbe c940 cb3e efb9 883e e3fa 033e
00000290: e1f5 c4be 5cf5 673e ac82 7e3e c4a2 9bbe
000002a0: d3bc 393e 587e c2bd 6d14 babe a7b8 15be
000002b0: cf87 debe 29b0 263e fc04 bc3e a61f 9b3e
000002c0: bf64 d9be 2493 9dbd 43d0 433e e86e 69be
000002d0: 3034 8dbe 7a56 43bd 4f93 39bd e72f 4c3d
000002e0: cff2 083c 59ff 65be 8f44 d13e 1ad3 d9be
000002f0: 9055 a93e 75e0 2ebe 7f02 6abe e832 d8be
00000300: fce6 74bc cf8c e9be 4f0a babd 7711 f4bd
00000310: 5c94 b13e 5a98 c83e 5ac4 dabe da48 9a3e
00000320: b81e a3be f3ba a7be 5308 2ebd fe5c d03e
00000330: 53e4 e83e 8697 e63e e058 a5be b1fd adbe
00000340: d4f2 c7be 25cb dc3e 9ee7 163e 0db4 8e3d
00000350: ca13 3ebd 22da c13e 6b27 e3be c001 8f3e
00000360: b2c8 2fbe 550d bebd 4474 803e 2f30 803e
00000370: 6c5f 9dbe 38e9 e6be 2abe 913e 0770 ef3e
00000380: c3f9 443e 6ba9 963c 6066 7e3e 7653 a8be
00000390: 592f e43c d75e 9a3e 94ae f23e 0ffb 89be
000003a0: bca8 d33e e7ed 2dbe 239b c7bc 5887 b0be
000003b0: d8fe ecbe 79d0 ab3e 0b7d 453d e952 cfbe
000003c0: 6a92 ab3e 75c3 d8bc b82d e73e 89b0 af3e
000003d0: 9212 f9be 249f 843d 5d3d 84be 9589 fabe
000003e0: 9610 6fbd f7e6 debd 591c 5cbe 3295 1abd
000003f0: fc8f 4d3e 3549 ab3c c952 7bbe b2ea 8d3d
0.26605114 -0.4442062 -0.17496349 -0.5248356 -0.1466894 0.31808877 0.35461175 -0.5301574
-0.11799876 0.32899296 -0.089626 0.066340834 0.07321461 -0.14311785 -0.48185644 0.08500753
0.44809112 0.47694075 0.43116617 -0.28033605 0.03644989 -0.32216144 0.39754912 -0.2827195
0.33765778 -0.42188665 0.13481116 -0.18594764 -0.2804332 -0.21769927 0.47745985 -0.24666975
0.31574056 -0.105434276 0.48339498 0.1678411 0.38913137 0.09573637 -0.10856911 0.41110024
-0.23560157 -0.21980605 0.41240537 0.057636544 0.46406454 -0.41131735 0.29731095 0.04322926
0.25849113 0.23369516 0.30543545 0.30893 0.024863126 -0.48621953 0.15978596 -0.24430002
-0.1585759 0.27163708 -0.29588097 -0.34882054 0.1710058 -0.36793405 -0.056605298 -0.23854905
-0.44613895 -0.13402902 -0.38771698 -0.21493751 -0.25724924 0.11786562 -0.009766198 -0.41578013
0.3750088 0.3842623 -0.18253165 0.26426408 0.49198285 0.10007838 -0.31484422 0.08568873
-0.3487083 -0.009384531 -0.24818332 -0.12751806 0.47458434 0.2576503 0.14943677 0.14344555
-0.021505293 0.24850678 0.32709244 0.3486052 0.2762116 -0.23354581 0.25906336 0.39489838
0.21279012 0.40735677 0.08121381 0.44835743 0.07010553 0.25535932 -0.052553464 0.36562246
-0.41597974 0.24070846 0.43551275 -0.21071605 -0.098402284 -0.39324376 -0.26822266 -0.28923237
-0.1792847 -0.058639545 0.26409575 0.035798397 -0.10793563 0.08636634 0.43053645 0.049615115
-0.25508407 0.10682589 -0.2690796 -0.30117393 -0.3036652 0.1594694 0.34952006 0.23882562
-0.15720014 0.35123953 -0.054060888 -0.34394416 0.34128138 0.07034347 -0.4686649 0.3829886
-0.07525868 0.12753679 0.0659801 0.024412349 0.16667551 0.1324657 -0.30616888 -0.2882083
-0.4463809 -0.06329543 -0.13072425 0.29216644 0.36026844 0.1176403 0.35832047 0.11783302
-0.02876622 -0.29353365 0.48089787 -0.37058544 -0.35510647 -0.33183634 0.03824221 -0.1252927
-0.28123656 0.39697865 0.26704356 0.12888674 -0.3846884 0.22652191 0.24854535 -0.30397618
0.18138437 -0.094967544 -0.3634371 -0.1462122 -0.4346299 0.16278137 0.36722553 0.30297583
-0.42459676 -0.076940805 0.19122414 -0.22796214 -0.27578878 -0.047689892 -0.0453065 0.04985037
0.008358671 -0.22460689 0.4087262 -0.4254387 0.33073092 -0.17077811 -0.22852515 -0.42226338
-0.014947649 -0.4561524 -0.090839975 -0.11917394 0.34683502 0.39178735 -0.4272793 0.30133706
-0.31859374 -0.32759818 -0.042488407 0.40695947 0.45486698 0.45037478 -0.3229437 -0.33982614
-0.3905245 0.43123737 0.14736792 0.06967936 -0.04640559 0.37861735 -0.4436601 0.27931023
-0.17166403 -0.09279887 0.25088704 0.2503676 -0.30736864 -0.45099807 0.28465396 0.46765158
0.19235902 0.018391332 0.2484374 -0.32876176 0.027854608 0.30150482 0.47398818 -0.26949355
0.41339672 -0.16985284 -0.024365967 -0.3447826 -0.4628818 0.3355749 0.048214953 -0.40492943
0.33510143 -0.026460389 0.45152068 0.34314373 -0.4864698 0.06475666 -0.25828066 -0.48933092
-0.058365427 -0.10883897 -0.21495189 -0.03773994 0.20074457 0.020908931 -0.24543299 0.0692953

mamba.layers.0.mixer.conv1d.bias f4 [64]
00000000: 72a6 013f b1ac bb3e 955c 093e ead2 a83e
00000010: 9968 92bd 19c8 3f3e 33f5 a93e e379 9c3c
00000020: deaa 8b3e 207d 4bbe 84ad fabd 2b41 2b3e
00000030: 153b 0d3e 90c5 0a3f 7f02 a6be 889a d5bd
00000040: db22 d9be 31c4 b5be e530 96be 8ac4 9a3e
00000050: 2858 b13e 1edf 16be 3bd9 c7bd aa1a cfbe
00000060: 2166 d8be 92e6 56be d5d4 4a3e 424d ae3e
00000070: de9b ef3e a2ed debe 016a f7bd 76af 96be
00000080: 0f06 6cbe da56 c3be 843f b9be 5e42 f6be
00000090: 3348 a6be 7cc7 ddbe 2cda 813e c30b 1e3e
000000a0: 8c64 c63d ad36 c4bd 1bb3 adbe 0726 803c
000000b0: 64f0 ee3e 1ed0 2ebd fb37 cabe 0f0b a63e
000000c0: 0345 a2be 7ab5 fdbe ff15 743e ebab e53e
000000d0: 7267 d8be a149 af3e d525 abb9 cbd2 9d3d
000000e0: d318 10be e3ba dcbe 473a 30bd 6f37 81be
000000f0: 484a cd3e 85f9 d1be 09a5 ae3e 59ad 5a3e
0.506446 0.3665519 0.13414223 0.32973415 -0.07148857 0.18728675 0.33194885 0.019101089
0.272788 -0.1987195 -0.12240127 0.16724078 0.1379207 0.54207706 -0.3242378 -0.10429865
-0.42409405 -0.35501245 -0.2933418 0.30228072 0.3463757 -0.1473355 -0.0975823 -0.4045003
-0.42265418 -0.20986393 0.19807751 0.34043318 0.46798605 -0.43540674 -0.120807655 -0.2943074
-0.23049186 -0.381522 -0.3618127 -0.4809751 -0.3247696 -0.43316257 0.25361764 0.15434174
0.096871465 -0.09580741 -0.3392571 0.015643133 0.46667778 -0.042678945 -0.39495835 0.32430312
-0.31693277 -0.49552518 0.23836516 0.44857726 -0.42266423 0.34235862 -0.0003264385 0.07706221
-0.1407197 -0.43111333 -0.043024328 -0.25237605 0.40095735 -0.4101068 0.34110287 0.2135519

mamba.layers.0.mixer.x_proj.weight f4 [34, 64]
00000000: cd89 05be b91a 5cbd b642 17bd 42ea 89bd
00000010: 7b97 073c e3c3 043c 2efd bf3d 8780 c13d
00000020: e43b 033d 4b85 d83c 1a0d b0bd 7791 0ebe
00000030: 2fd8 f23c 5773 463c f023 8bbd 6802 b33d
00000040: c957 9a3c 318b a73d d289 523d b403 85bd
00000050: c241 f33b c54e 4e3d 9d33 f53d e422 df3d
00000060: ca2f 273e 0ecb 3bbb 30af e0bc d86c 333d
00000070: 54b1 70bd 42eb d0bb 9c1f 99bd c945 a63c
00000080: 0f49 24be 557e 983b a4bd eebb 1d11 05bd
00000090: c86b d5bd c866 a4bc 9830 a5bd 7feb e93c
000000a0: 5a31 0abe 549f e3bd baab a73d 9488 5abd
000000b0: b207 a1bd 4258 b63d 5f99 9dbc 5399 04be
000000c0: a8c7 813d 0664 8cbd 3f2b 8e3d 0936 47bd
000000d0: b123 873c 93fd 5ebc b22a f8bd 15d6 b13c
000000e0: fbe5 e33c 932f acbd cf83 063e fbbe 04be
000000f0: 2bcf 623d ce10 bcbd 9e5f febd 387c fd3c
00000100: 5f54 5a3c 489a 52be c965 2fbe 99e3 c4bd
00000110: 8ada cf3d a820 57bd d0fe e1bd 494b e63d
00000120: 09c8 20be 9cfc e83d 6153 4a3e 195b afbd
00000130: e2f0 1bbe 129c 12bb 3d51 1d3d d063 aabb
00000140: 235e 363e 9494 5b3e b1bb 703e ef1d cdbd
00000150: 3579 50bd d9e2 ea3d 7da3 ab3c 63d5 c23d
00000160: 6e69 6b3e 58ab 083e 3781 07be e2be 10be
00000170: bb55 4fbe ae3a e0bc 75d0 3f3e c25a 173e
00000180: 0874 90bd 2651 023e 5e09 ee3a 6429 4a3e
00000190: a910 2bbd d3ed 6239 18e1 00bd d402 f5bd
000001a0: c0c9 26be 382b d03d 6d9c cc3d 23ca 0a3e
000001b0: ad2d e9bd 110a 043e 57d7 c33d 99b5 31bd
000001c0: e993 e93d 7a9e f73c 4fb7 2bbe 741d b6bc
000001d0: 1c75 ae3d ff91 f0bc 6ec3 36bd 3656 323d
000001e0: bdf0 21bc b5fe e53d 3dee d8bc 53b6 a93d
000001f0: 8e21 8a3d 7ca8 9abc a2c2 0bbe 1427 d5bd
00000200: cc13 e3bd 5b19 e7bd 3b97 eebc aa2b 05be
00000210: 9e7a debd 9577 23be 3adc a1bd b53d 983c
00000220: 768a 0b3c d0c1 1e3e c02d 20bd 8a91 1fbe
00000230: dbac cebd 8c75 8dbd fc77 793d bbc6 823d
00000240: 0b48 c13d f110 d53d ed82 5e3c a2e7 54bd
00000250: 7762 14be db16 a63c 01ee 44bd 9a2c 2e3e
00000260: cca0 413e 5c78 bf3b 8f0a 1fbe b36c 24be
00000270: 903a 103d 6b35 253e 202e 46bd 5c86 a4bd
00000280: 7d42 a7bc ee84 9f3d b372 0c3e 5450 3a3d
00000290: b312 68bd 3820 89bd 3a17 bfbb ecaa 5e3d
000002a0: fc2e 02be d178 3bbc f105 ef3d 62ab 853d
000002b0: 194e 27be a420 7ebd de6b 58bc 3081 72bc
000002c0: cc84 94bb 42ad 8a3d 7966 bc3c b642 2fbe
000002d0: ddae 9a3d 578c 543b d321 9b3d 9190 78bd
000002e0: 090f 14bd 74dc d03d c669 a0bd 373f 2d3c
000002f0: 1733 9cbd b043 77bc c434 b8bd adf6 a8bd
00000300: f915 c03d 6607 883a 3e46 81bd 0be7 e63d
00000310: 1eaf 6e3d d1ad a53d b644 3abd 556d 9ebd
00000320: c5ec 98bd 7a12 bebd 0062 52bd c027 223d
00000330: ea18 463e c9dc ac3d 0677 ecbd 154c 50bd
00000340: 990f 29bd 77f4 b6b9 a843 c3bd fa12 ce3d
00000350: 3f45 d53d f2ae a43d 2622 113e a324 5b3d
00000360: abdb 26be 314f 923d d87a 2d3d c7ce bbbd
00000370: 1912 2f3d c4f3 6bbd 4cae 32be 51fb f4bd
00000380: 7305 a4bd a2bb 613d 6c4b 12bc 876a d73b
00000390: e78e debd a542 ae3c e142 1d3c 2efa b53d
000003a0: 9a04 14bd 3d8c 47be 832c 1b3d ff4b 653d
000003b0: 95f4 1d3e ea76 7d3d b2f0 f33c b150 c73d
000003c0: 4bb4 14bd c8a0 d6bc a2cf 88bb dc4b 8d3d
000003d0: 922e bdbd 177b c43d 106e 043e b1dd 4dbd
000003e0: 6ce6 82bc fb2d 583d 57bf e2bd c9d5 c13d
000003f0: 1148 623b a202 ba3d 4287 153e 7e48 fabc
-0.13040848 -0.053736422 -0.036928855 -0.06734134 0.008275862 0.008103344 0.09374462 0.09448343
0.032039538 0.026430747 -0.08596249 -0.13922678 0.0296441 0.01211246 -0.06793964 0.08740693
0.018840687 0.081808455 0.051400967 -0.06494847 0.0074236104 0.05036809 0.11972735 0.10895327
0.16326824 -0.0028654966 -0.027427286 0.043804973 -0.058762863 -0.006375701 -0.07476732 0.020296948
-0.16043495 0.004653732 -0.0072857905 -0.032487024 -0.10420948 -0.020068541 -0.08065909 0.028554676
-0.13495389 -0.11114374 0.08187051 -0.053352907 -0.07862796 0.089035526 -0.019238172 -0.12949114
0.063369095 -0.068550155 0.06941842 -0.048635516 0.016496511 -0.0136102615 -0.121175185 0.021708528
0.027819624 -0.084075116 0.13136218 -0.12963478 0.055373352 -0.09182893 -0.12420581 0.030943021
0.01332578 -0.20566666 -0.17128672 -0.09613723 0.10149105 -0.052521378 -0.1103493 0.11244828
-0.15701307 0.113763064 0.19758369 -0.085622974 -0.15228608 -0.0022370857 0.038407553 -0.005199887
0.17809348 0.21443397 0.23509099 -0.10015475 -0.050896842 0.11469049 0.02095198 0.095133565
0.22989437 0.13346612 -0.13232885 -0.14135316 -0.20247547 -0.02737173 0.18731864 0.14780715
-0.07053381 0.12726268 0.0018160751 0.19742352 -0.041763935 0.00021641636 -0.031464666 -0.1196343
-0.16287899 0.10164493 0.09990773 0.13553672 -0.11385665 0.12894465 0.09562557 -0.043386076
0.11405165 0.030226935 -0.16769145 -0.022230841 0.085184306 -0.029366491 -0.04461997 0.04353925
-0.009884057 0.11230222 -0.026480788 0.08286729 0.06744681 -0.018879168 -0.13648465 -0.10407844
-0.1108776 -0.11284133 -0.029124847 -0.13004938 -0.10863231 -0.15963586 -0.07903333 0.018584112
0.008516898 0.15503621 -0.03910613 -0.15582862 -0.10091563 -0.06907186 0.06090544 0.06385561
0.09437569 0.10403622 0.01358102 -0.051978715 -0.14490686 0.02027457 -0.04807854 0.17009202
0.18908995 0.0058432054 -0.15531372 -0.1605709 0.0352121 0.16133659 -0.048383832 -0.080334395
-0.020417446 0.07789026 0.1371563 0.045486763 -0.056658458 -0.06695598 -0.0058316262 0.054362223
-0.12713236 -0.011442379 0.11671055 0.06526829 -0.16338386 -0.062042847 -0.013209311 -0.0148013085
-0.004532432 0.067713276 0.022998082 -0.17115292 0.07552884 0.0032432282 0.07574811 -0.060684744
-0.03614715 0.10198298 -0.07832675 0.010574154 -0.07626932 -0.015091822 -0.08994439 -0.08250175
0.09379191 0.0010378181 -0.06312226 0.11274537 0.058272474 0.080897935 -0.045475684 -0.07735697
-0.07467035 -0.09280868 -0.05136299 0.03958869 0.19345441 0.08440549 -0.115461394 -0.050853807
-0.04127464 -0.00034895886 -0.09534389 0.10062213 0.10413598 0.08041181 0.14173183 0.053501736
-0.16294734 0.07144011 0.04235348 -0.09170299 0.04274187 -0.05760552 -0.17449301 -0.11961997
-0.08008852 0.05511058 -0.008929115 0.0065739783 -0.108671 0.021272013 0.009598465 0.088856086
-0.0361372 -0.1948709 0.037884247 0.05598068 0.15425332 0.061880983 0.029777858 0.097321875
-0.036304753 -0.026199713 -0.0041751424 0.06899235 -0.09237398 0.0959379 0.1293261 -0.05026025
-0.015979014 0.052778225 -0.110716514 0.094646044 0.0034527818 0.090825334 0.14602378 -0.030552145

mamba.layers.0.mixer.dt_proj.weight f4 [64, 2]
00000000: a586 fd39 7e05 1dbf 81f6 29be 371b 2a3e
00000010: 5c25 473e 9e43 f0be 30cd 2cbf 6038 b23e
00000020: 255b 743e f003 383e 89ec abbe e255 073c
00000030: c919 893e c237 e23d 0c8c 2a3e f3cc c0bd
00000040: 5897 d83e 2709 afbb b187 88be d054 463b
00000050: 497f 1b3f 2d69 86be 203b 533d ccff 20bc
00000060: 6607 883e a73a a5be 4279 0f3f c31c efbe
00000070: d626 19bf 0a76 123e f868 b5be 1cd8 253e
00000080: d264 d9bd 45fa 733e b3bf 3fbe cb17 dfbe
00000090: 32fb fd3e be34 703e d506 423f d014 2c3f
000000a0: 1fc2 b93e e4cf 8cbe 044a bbbe 5406 243f
000000b0: 165a c73e 3f40 363d 99e2 f838 c4de d0be
000000c0: 750f 193f 8e5c fbbe ac7b e3bd 8d7b fabe
000000d0: ee87 283d 15bc 083f 864b 363f c867 e3be
000000e0: cdbe 19be 393f 9a3e 3783 01bf 6eca 1d3e
000000f0: 5ff8 103f a3f0 0f3f 84c7 bbbd 06a3 c8be
00000100: 1568 0fbf 465a 0a3f 6950 0c3f 3b85 43be
00000110: ef86 293e bc99 0e3f 57fb 01bf 42ae 4abe
00000120: f003 333d 2338 833e 4455 70be e7c2 0a3d
00000130: a759 2dbf a26b dbbe 9459 813e 77e5 26bf
00000140: 1848 393f 2a2d 8dbe 9c97 093f 5acf 8abe
00000150: 05a5 963e c4b1 e53e 1697 a63e 53e3 05bf
00000160: a45c 023e a353 39bf 3dc9 313f 51e6 93be
00000170: 23da 15bf 8441 ff3e 85d9 20be 15f6 da3e
00000180: 5c8c 103f 5e23 3f3e f455 0d3f aad9 9f3e
00000190: c775 babd 6a59 2cbf 8ca4 b9bd 7910 17bf
000001a0: c4d5 20bf 15d3 96bd a4ab 113f f334 943d
000001b0: f48c 6abd d0b0 10bf a318 bf3b 08bc 9f3d
000001c0: 1b31 fe3c 59d7 2c3f 2d9d 71be c716 e13e
000001d0: 504e e33e 0305 873d 3868 71bd 408a e63e
000001e0: be4c 19bf 6725 c03e d2a0 d8be ef52 81be
000001f0: 7ae9 19be 1506 19bf 5554 643e 2af9 aa3e
0.00048356238 -0.61336505 -0.1659794 0.16611944 0.19447845 -0.46926588 -0.6750059 0.34808636
0.23862894 0.17970252 -0.335789 0.008260222 0.26777485 0.11045791 0.16654986 -0.09414091
0.42302966 -0.005341667 -0.26666024 0.0030262955 0.60741097 -0.26252118 0.051570058 -0.009826612
0.26568145 -0.3227131 0.560444 -0.4670163 -0.59824884 0.14302841 -0.35431647 0.1619572
-0.10614933 0.23825939 -0.18725471 -0.4357284 0.4960571 0.2345762 0.75791675 0.6721926
0.36280915 -0.27502358 -0.36579907 0.64072156 0.38935918 0.044494864 0.000118677686 -0.40794957
0.5978921 -0.4909405 -0.11107573 -0.48922387 0.041145258 0.5341199 0.7120899 -0.44415116
-0.15014191 0.3012636 -0.5059084 0.15409252 0.56628984 0.5622656 -0.09168914 -0.39186877
-0.5601819 0.54043996 0.54810196 -0.19093792 0.1655538 0.5570333 -0.5077414 -0.19793037
0.043704927 0.25628766 -0.23470026 0.03387728 -0.67714924 -0.42855555 0.25263655 -0.65193886
0.7237563 -0.2757352 0.5374696 -0.27111322 0.29422775 0.44862187 0.32537144 -0.52299994
0.12730652 -0.72393245 0.6944769 -0.28886655 -0.58535975 0.49854672 -0.15707977 0.4276587
0.5646417 0.18665835 0.5520928 0.31220752 -0.091044955 -0.67323935 -0.09064588 -0.5900951
-0.6282618 -0.073644795 0.5690253 0.07236662 -0.05726333 -0.56519794 0.0058317943 0.07799536
0.031029275 0.67516094 -0.23595114 0.4396269 0.44395685 0.06592753 -0.05893728 0.4502735
-0.59882724 0.37528536 -0.42310196 -0.25258586 -0.1503047 -0.59774905 0.22297795 0.33393222

mamba.layers.0.mixer.dt_proj.bias f4 [64]
00000000: 4227 bbc0 7f5c 93c0 4d32 9dc0 a9a0 88c0
00000010: 95b9 5ec0 f794 d0c0 82a1 6ac0 f976 c4c0
00000020: 3288 bcc0 fcb9 9ec0 7b3a cfc0 8c2f 86c0
00000030: 27cd d8c0 8b2d ccc0 14d2 23c0 60eb d3c0
00000040: f7de d4c0 9aad d7c0 4d4f 39c0 4fe7 bac0
00000050: 5bc3 bfc0 14e0 60c0 d18f b4c0 9af4 2cc0
00000060: fa47 96c0 40c4 a5c0 b170 8dc0 7fb7 95c0
00000070: 307e a1c0 0f18 90c0 cc79 62c0 4fda 0fc0
00000080: d66c ccc0 9c32 4bc0 565d bdc0 2aa4 83c0
00000090: ecc7 50c0 8de2 a4c0 9f79 47c0 3a55 68c0
000000a0: b522 14c0 8240 11c0 d724 10c0 3acc 7ac0
000000b0: b5bb 01c0 eb33 a4c0 d15d 17c0 48ce 59c0
000000c0: b2ef afc0 eda5 80c0 a0d4 6dc0 6b26 d2c0
000000d0: 45a4 a2c0 8191 d8c0 f3b3 95c0 82e7 90c0
000000e0: 562c d2c0 0054 86c0 b66e adc0 b995 cfc0
000000f0: fda6 a7c0 9448 75c0 e63e bbc0 c885 1bc0
-5.848542 -4.605041 -4.91239 -4.269612 -3.480077 -6.518184 -3.6661077 -6.139523
-5.8916254 -4.960203 -6.4758887 -4.193304 -6.775043 -6.3805594 -2.5596972 -6.6224823
-6.6522174 -6.7399416 -2.8954651 -5.840736 -5.992597 -3.5136766 -5.6425557 -2.7024293
-4.696286 -5.1802063 -4.4200063 -4.6786494 -5.0466537 -4.502937 -3.538684 -2.2476995
-6.3882856 -3.174964 -5.9176435 -4.1137896 -3.2622023 -5.152655 -3.1167982 -3.6302018
-2.3146183 -2.2695622 -2.2522485 -3.918715 -2.0270817 -5.1313376 -2.365101 -3.4032154
-5.4980097 -4.0202546 -3.7161026 -6.5671897 -5.0825524 -6.7677617 -4.6782165 -4.52826
-6.567912 -4.197754 -5.4197645 -6.4870267 -5.2391343 -3.8325548 -5.851428 -2.4300404

mamba.layers.0.mixer.out_proj.weight f4 [32, 64]
00000000: a747 9bbd b983 103e 3896 803d 39e5 a7bc
00000010: ca69 bebc 9077 923b ecf8 9fbd a3f0 b83d
00000020: e399 523d edcc c83d 869c 8c3d 0c0f 88bd
00000030: d0fc b33d 39d1 69be 6b04 12be d338 cf3d
00000040: 5086 0bbe 6959 9cbd 8065 333d 41be bcbc
00000050: ae2a 9fbd f933 f03c 5dd6 89bd 9def 723d
00000060: e69d b3bd 4a0c 45bc 8295 86bd 9a0c 33bc
00000070: 88a3 c0bd 216d 87bd 428d ddbd 3530 64bd
00000080: e426 9d3d 396f bebd 08d5 7d3b 3127 403d
00000090: 0ee5 453d b94a 49bd 156e 8e3d 9c75 933d
000000a0: 6cf9 a03d e623 b5bd 9409 9a3d 1fa6 b23d
000000b0: e0fd 043d d03c 523d ad9f f2bc dd55 8d3d
000000c0: cda0 d53d fad2 b93d 1b43 e1bc ed17 99bd
000000d0: 2f34 a83d 02ad afbd 9554 693d bf46 b93d
000000e0: c552 bc3d 2c1e b33c db7d 803d ba41 8abd
000000f0: 9a40 02be 53a6 20be e14e 9f3d 7cab 8f3d
00000100: 3a98 cd3d 78ab 293e 11ec a33d 9a75 1cbd
00000110: 63db ce3d 586a a13d f72a bdbd 73d1 eb3d
00000120: 6e5d 853c 6bed a83c 1f8b 24be 5fa4 aa3c
00000130: 071b ac3d 188d 6fbe dccb 03be b30b c53c
00000140: 2f40 2ebe f4c4 1abc 9eda 8abc 19eb 3bbd
00000150: 374c 1b3e b057 24bd e60e 5cbb 2c2b 013c
00000160: db82 c63d a63c 473c d789 fe3c f156 233d
00000170: a27d 4fbc f173 b53d 682d 86bd 0216 c0bc
00000180: b2d7 c8bd ad6d a3bd c48a 6cbb 7d67 c13d
00000190: 0f70 fabd 0465 0b3d fcf2 2a3d 7ac5 e1bc
000001a0: 4fcf e4bc 11d2 2cbe ebf4 a6bd 9a54 f1bc
000001b0: 5c0e 393e 5ec1 f03d 2bd3 853c f27f ccbd
000001c0: 6a00 f73c 7671 bc3d 8db4 ef3c 6542 ff3d
000001d0: c2c8 e13d 46e3 0b3e 127f fe3c 48e0 0cbe
000001e0: 7706 0abc eebe 4dbb 274a 9b3d 4100 e8ba
000001f0: a54d b73d 16fc a6bd bceb 573d c7c4 08be
00000200: ae8b b93d 7178 0d3d 8796 5dbd 0115 be3c
00000210: d595 2e3d 9274 693d d331 4c3d 75a7 bd3d
00000220: cd74 c93d 31c7 373d 2743 a23d 2559 9cbd
00000230: 764f f53d ccae 4dbe 02dd 30be 380c eb3d
00000240: 1680 e6bd 5afe bb3d 2b3f 143d 8c95 f5ba
00000250: 6e96 e83d 7152 a7bc 5c41 d83d a01e 06bd
00000260: 75f6 1f3d b77a 063d 2c80 3f3a 6210 ffbd
00000270: 5347 57bc fb4e 633d e358 71bd 9740 cdbc
00000280: 49af b7bb 1e7d 433c 260e a83c 97f1 b83d
00000290: 7651 263d 77c5 d4bd e486 c1bd f3cb 023e
000002a0: fc8a 08be 457e 9ebd 6629 1bbd d520 d53d
000002b0: 6a7c be3d 6258 de3c 2934 88bd 75d5 f03d
000002c0: 4122 233d 112f 073c 2b95 abbd 3755 5bbd
000002d0: c19a 73bd f558 a23c 2ff0 ed3d 8dbf d5bd
000002e0: 67a5 d33d f643 cd3d d595 833d 8052 6bbd
000002f0: d8df cd3d 8af1 a0bc 8b35 ddbc e3e1 173d
00000300: 8d0e 95bc 8824 3bbd 634d 60bd 17b5 f1bc
00000310: 890d 61bd 480b 073d 963f af3c 22f5 e53c
00000320: 05ec 3dbd 320d ecbc 70d3 13bc 6a7c 663d
00000330: 5ae2 283d d168 ef3d 2686 8abb 144c a93d
00000340: 8f68 10bd 1ca7 81bd a093 d43c cb1c 8cbc
00000350: 420b 743c 0e01 dd3d 0129 6abe 3ca3 36bd
00000360: f698 7abd 84eb 003e 63f2 74bc 7965 b03b
00000370: 6033 67bd c1e4 d9bd 7d97 adbd 89a2 e1bd
00000380: 4328 523d e72a 92bd 49f6 fc3c 8844 debc
00000390: ec1c 7bbd 145f 07be 3f6c 273e d59c b73c
000003a0: 227f 5f3b 3f4e 73bd 3730 5cbd 944d 8fbd
000003b0: 62c8 2bbc ff02 1b3d 5dbf 04bd 8813 aabd
000003c0: cb01 26bc 76ff a63d 6961 f0bc 9628 d0bd
000003d0: aac0 bb3d 7570 9ebd bec5 06bc d424 0d3e
000003e0: dff1 9f3d beb9 e93c cec0 20bd e0ea 94bd
000003f0: cc21 88bd 47c8 aebd 5e0b 38bd e907 213e
-0.07582026 0.14112748 0.06278652 -0.020495044 -0.023243804 0.0044698194 -0.0781115 0.09030273
0.05141629 0.098047115 0.06865792 -0.06643495 0.087884545 -0.22833718 -0.14259498 0.1011826
-0.13625455 -0.07634241 0.04379797 -0.023039939 -0.077718124 0.029321657 -0.0673034 0.059310544
-0.08770351 -0.012026856 -0.06571485 -0.010928297 -0.09406191 -0.066126116 -0.108179584 -0.055710036
0.076734334 -0.09298558 0.0038731713 0.046912376 0.048314147 -0.049143527 0.0695459 0.072001666
0.078600734 -0.08844738 0.07521358 0.08723091 0.032468677 0.051327527 -0.029617155 0.06901143
0.10431061 0.09073444 -0.027497819 -0.074752666 0.08213078 -0.085779205 0.05696543 0.09046697
0.091954745 0.021864973 0.06274005 -0.067508176 -0.12719956 -0.15688448 0.07778717 0.0701513
0.100388005 0.16569316 0.080040105 -0.03819809 0.101004384 0.078816116 -0.092367105 0.11514559
0.016279902 0.020621022 -0.16068695 0.020830331 0.084035926 -0.23393667 -0.12870735 0.02405343
-0.17016672 -0.009446371 -0.016949948 -0.045878503 0.15165792 -0.040122688 -0.0033578216 0.007883828
0.096929274 0.012160456 0.031071587 0.039877836 -0.012664231 0.08860005 -0.06551629 -0.023447994
-0.098067656 -0.07979903 -0.0036093453 0.09443567 -0.12228405 0.034031883 0.041735634 -0.027559984
-0.027930884 -0.16877009 -0.08152183 -0.029459286 0.18071884 0.11755632 0.016336044 -0.09985341
0.030151565 0.092013285 0.029260898 0.124638356 0.1102462 0.13660917 0.031066451 -0.13757432
-0.008424393 -0.003139432 0.07582503 -0.0017700271 0.089503564 -0.0815355 0.05271505 -0.13356315
0.09059845 0.03453869 -0.054098632 0.023203375 0.04262336 0.056995936 0.049852204 0.092604555
0.09836731 0.044867698 0.079229645 -0.076341905 0.119780466 -0.20086211 -0.17271808 0.1147694
-0.11254899 0.09179373 0.036193054 -0.0018736585 0.11356817 -0.020425053 0.10559341 -0.03274405
0.0390534 0.032831874 0.0007305171 -0.12454297 -0.013139564 0.055495244 -0.05892266 -0.025055213
-0.0056056124 0.011931686 0.020514559 0.090304546 0.04060503 -0.10389226 -0.094495565 0.12773113
-0.13334268 -0.07738928 -0.037881278 0.10406653 0.09301074 0.027141754 -0.06650574 0.11759464
0.03982759 0.008250968 -0.08378061 -0.053548064 -0.059473757 0.019817809 0.11618077 -0.10436926
0.10334282 0.10022728 0.064250626 -0.057451725 0.100524604 -0.019646425 -0.02700307 0.037080657
-0.018195415 -0.045689136 -0.0547613 -0.029505296 -0.05494455 0.032969743 0.021392625 0.02807099
-0.046367664 -0.028814886 -0.009022579 0.056270994 0.04123149 0.11689914 -0.0042274175 0.08266464
-0.035255965 -0.06330702 0.0259493 -0.017103573 0.014895262 0.10791217 -0.22867204 -0.044589266
-0.06118103 0.12589842 -0.014950368 0.0053831902 -0.05644548 -0.106393345 -0.0847616 -0.11017329
0.051307928 -0.07137089 0.030879157 -0.027132288 -0.06130688 -0.13219863 0.16349886 0.02241365
0.0034102877 -0.059400793 -0.05375692 -0.06997219 -0.010484787 0.037844654 -0.03240906 -0.083045065
-0.010132263 0.08154194 -0.029343324 -0.10163991 0.09167607 -0.07736293 -0.008225856 0.1378358
0.07809805 0.028530952 -0.039246373 -0.07271361 -0.06647071 -0.085342936 -0.044932716 0.15725674

mamba.layers.0.norm.weight f4 [32]
00000000: db4f 813f a6ae 8b3f 5827 823f a893 813f
00000010: 41f6 7b3f 91d5 883f 4188 803f 1d8e 863f
00000020: 2f83 813f 4665 723f 44d2 833f 7d55 813f
00000030: ed21 943f 07b2 823f 21e4 943f b6af 7d3f
00000040: 331d 813f 071c 7c3f 799b 803f a39a 803f
00000050: bdf9 863f 9118 8b3f 8328 853f 8556 863f
00000060: 8036 823f cf16 803f 2e85 833f b3f5 7d3f
00000070: 3971 823f 33b5 7e3f b2bf 7b3f 8651 923f
1.0102495 1.0912673 1.0168257 1.0123186 0.9842263 1.0690175 1.0041581 1.051212
1.0118159 0.9468578 1.0298543 1.0104214 1.1572853 1.021058 1.163212 0.9909624
1.0087036 0.98480266 1.0047446 1.0047191 1.0544964 1.0866872 1.0402988 1.0495154
1.0172882 1.0006961 1.0275018 0.9920303 1.0190803 0.9949524 0.9833938 1.1431129
