saves_ar/soc_mamba_v3/model-b.pth (torch, 273786 bytes, 81 tensors)

input_proj.weight f4 [32, 12]
0	0xbd97b1c2	-0.074069515
1	0xbe25d06b	-0.16192786
2	0xbe082524	-0.13295418
3	0xbe555085	-0.20831497
4	0xbd74ed59	-0.059796665
5	0xbe001c2f	-0.12510751
6	0x3ef25552	0.4733072
7	0xbe76ee0c	-0.24114245
8	0xbe5d439e	-0.21607825
9	0xbd522be6	-0.051311396
10	0x3c8ad92d	0.01694926
11	0x3e5e683a	0.21719447
12	0x3e417bd5	0.18894894
13	0xbe7f3863	-0.24923854
14	0xbdd34462	-0.10315777
15	0x3d5edd78	0.054410428
16	0x3e842d8a	0.25815994
17	0xbd8bfbd9	-0.068351455
18	0x3f246952	0.64223206
19	0x3e7ab5e9	0.24483456
20	0x3e7483f0	0.23878455
21	0xbd0e1bf9	-0.034694646
22	0x3e795759	0.24349727
23	0x3e1c13e6	0.15241966
24	0xbe441323	-0.19147925
25	0x3e3336ad	0.17501326
26	0xbd39b1f5	-0.04533573
27	0x3dc4801b	0.09594747
28	0xbe1ce721	-0.15322544
29	0x3df77ea8	0.12084705
30	0x3e15f84e	0.14645502
31	0x3d636d69	0.055524264
32	0xbe4b240e	-0.19837973
33	0xbcf6e9a5	-0.030140707
34	0x3ca33d36	0.019926649
35	0x3dbf0327	0.09326773
36	0xbd2d9d39	-0.042386267
37	0x3dd93303	0.10605433
38	0x3c03192f	0.00800161
39	0xbd0bafb6	-0.034103118
40	0x3e48faa1	0.19626857
41	0x3e07b1d2	0.13251427
42	0xbf24a186	-0.64308965
43	0xbdb9e86b	-0.09077533
44	0xbd204359	-0.039126728
45	0x3d296662	0.041357405
46	0xbd759aef	-0.05996221
47	0x3dcc2627	0.099682145
48	0x3de1e237	0.11029475
49	0xbe45d8a0	-0.19320917
50	0x3e26ade7	0.16277276
51	0x3e82937a	0.2550314
52	0x3ea23435	0.31680456
53	0x3e85de26	0.26146048
54	0xbd0cc2b1	-0.03436536
55	0xbe687c9f	-0.22703789
56	0xbe3c503c	-0.18389982
57	0x3e1f0546	0.15529355
58	0xbc97bf53	-0.018523848
59	0x3db64c51	0.08901275
60	0xbd9fde2d	-0.078060485
61	0x3dd0a9f0	0.10188663
62	0x3e8043cc	0.25051725
63	0xbdbe95c7	-0.093059115
64	0x3e77cdcd	0.241996
65	0xbe2b6984	-0.1673947
66	0x3ea2e1e3	0.31812963
67	0xbe69195d	-0.22763582
68	0xbe5b0f92	-0.21392658
69	0xbe3d4a01	-0.18485261
70	0xbc31fa2e	-0.01086287
71	0x3ddc341a	0.10752125
72	0x3d47fc28	0.04882446
73	0x3e7fcc57	0.24980293
74	0x3e553ee8	0.20824778
75	0x3e0196c9	0.12655176
76	0xbbc84fd4	-0.006113032
77	0x3e3f004a	0.18652454
78	0x3e1629c4	0.1466437
79	0x3d3f84e2	0.046757586
80	0x3c00ec0d	0.007868779
81	0x3b88f7eb	0.0041799447
82	0x3e6b74b0	0.22993731
83	0xbd9ab80f	-0.07554638
84	0x3d9a7c62	0.075432554
85	0xbe234eb7	-0.15947996
86	0xbe966dec	-0.2938074
87	0xbc4d74e6	-0.012540078
88	0xbe984224	-0.2973796
89	0xbe4ea643	-0.20180611
90	0x3dc0cec2	0.09414436
91	0x3dd61e72	0.10455026
92	0xbdf1c4a1	-0.11805082
93	0x3dd530f8	0.10409731
94	0x3dfc8f30	0.12331998
95	0xbdda4d97	-0.1065933
96	0xbdd98910	-0.10621846
97	0xbacecb8c	-0.0015777214
98	0xbe367d10	-0.17821145
99	0x3e372708	0.17885983
100	0x3e830e8b	0.25597033
101	0x3e6a443c	0.22877592
102	0xbe9cfc61	-0.306613
103	0x3e06fe04	0.13182837
104	0x3e043f50	0.12914777
105	0xbe5a4ed5	-0.21319135
106	0xbde46cb1	-0.11153544
107	0xbdbe6602	-0.092968
108	0xbda9289f	-0.08259701
109	0xbe1c0e58	-0.15239847
110	0xbe6f7962	-0.23386148
111	0xbe92aa5e	-0.28645605
112	0xbd9f85ed	-0.07789216
113	0xbd92f2f9	-0.071752496
114	0x3dca4c0d	0.09877787
115	0xbccf5128	-0.025307253
116	0x3e573f4a	0.21020237
117	0xbb65e163	-0.0035076968
118	0x3d63ef67	0.055648234
119	0xbdc7b6fa	-0.09751697
120	0x3df780e3	0.1208513
121	0x3e38c58a	0.18044105
122	0xbdb844f6	-0.08997528
123	0xbd84606b	-0.06463703
124	0x3e63946e	0.2222459
125	0x3e0b7c78	0.136217
126	0x3edddf01	0.433342
127	0x3ddad3d9	0.10684938
128	0xbe109f8a	-0.1412336
129	0xbe1fb308	-0.15595639
130	0x3d06cee4	0.03291215
131	0xbe5fb224	-0.21845299
132	0x3cd685cc	0.026186846
133	0x3e0545ce	0.1301491
134	0xbe379725	-0.17928751
135	0xbdc01f99	-0.09381027
136	0x3d3bb786	0.04582932
137	0xbcd8cd2e	-0.026465025
138	0xbbdb018f	-0.0066835354
139	0xbc57ecce	-0.013179017
140	0x3e44601b	0.19177286
141	0x3de2fd1e	0.110834345
142	0x3e14e040	0.1453867
143	0x3c813bb8	0.015775546
144	0xbe11ebb1	-0.14250065
145	0xbe1429b8	-0.1446904
146	0xbd53cd9e	-0.051709764
147	0xbe5aeec4	-0.21380144
148	0xbe3cb910	-0.1842997
149	0x3dd03bd3	0.101676606
150	0xbe662468	-0.22474825
151	0xbdd76419	-0.10517139
152	0xbc32bac7	-0.010908789
153	0xbe1a293f	-0.15054797
154	0xbddb80bd	-0.10717914
155	0xbd79adb3	-0.060956668
156	0x3e4d34ac	0.20039624
157	0xbe2dacd8	-0.16960466
158	0x3bbb8aa0	0.0057233125
159	0xbc965af4	-0.018353917
160	0x3d4c784d	0.049919415
161	0x3de4f678	0.11179823
162	0xbe5550b3	-0.20831566
163	0x3c910d9f	0.01770669
164	0xbe0a210e	-0.13489172
165	0xbbe4b86a	-0.0069799917
166	0xbae64137	-0.0017567043
167	0xbe6738ef	-0.22580312
168	0xbd6c674d	-0.057715703
169	0xbdf21445	-0.11820272
170	0x3d3a5799	0.045493696
171	0xbdffb76e	-0.12486158
172	0xbd875469	-0.06607897
173	0x3e88c615	0.26713625
174	0x3ece9305	0.40346542
175	0xbe305706	-0.17220697
176	0xbe4156c0	-0.18880749
177	0xbca4dafb	-0.02012395
178	0x3da6ee2e	0.08150898
179	0xbe23c942	-0.15994743
180	0x3d801ea8	0.06255847
181	0x3de17d54	0.110102326
182	0x3e26edb7	0.16301619
183	0x3e168c2d	0.1470191
184	0xbdd0bb9c	-0.10192034
185	0x3e59230f	0.2120478
186	0xbcde29fe	-0.027119633
187	0x3e174716	0.14773211
188	0x3db4e3c2	0.08832504
189	0x3e0bd389	0.13654913
190	0x3d561b91	0.052272383
191	0xbd68d8d9	-0.056847427
192	0x3ddee7e4	0.108840734
193	0x3d26bcb9	0.040707324
194	0x3c0d27ed	0.008615476
195	0xbd933b91	-0.07189096
196	0xbe340f88	-0.1758405
197	0x3e156d7b	0.14592545
198	0xbe04a6bf	-0.12954234
199	0xbdbe58a7	-0.09294253
200	0x3d2b8758	0.04187712
201	0xbde4602e	-0.11151157
202	0x3e611a56	0.21982703
203	0xbca0dd37	-0.019636733
204	0x3e303c03	0.17210393
205	0x3e043876	0.12912163
206	0x3e70cf6e	0.23516628
207	0x3d85a567	0.065256886
208	0x3e8f1a81	0.27949908
209	0xbdf3577a	-0.11881919
210	0xbe9c61d2	-0.3054338
211	0x3e0a06b3	0.13479118
212	0x3cf4a47a	0.029863585
213	0xbd2bd98a	-0.04195551
214	0xbdd12931	-0.10212935
215	0x3be40c38	0.0069594644
216	0x3d880f3d	0.066435315
217	0xbdd86adc	-0.10567257
218	0x3db01ee5	0.08599643
219	0xbdd62b48	-0.10457474
220	0x3d8752f3	0.06607618
221	0x3e078efc	0.13238138
222	0xbed40a5e	-0.4141416
223	0x3e5c0d28	0.21489394
224	0x3e7cca5d	0.2468657
225	0xbe57673d	-0.21035476
226	0x3de830f5	0.11337463
227	0xbd4c04eb	-0.049809378
228	0xbc18ac2a	-0.009318391
229	0x3e23c776	0.15994057
230	0xbeb2e303	-0.3493882
231	0xbe9a26b5	-0.30107656
232	0xbeddbc0e	-0.43307537
233	0xbe955850	-0.2916894
234	0xbd11d214	-0.035600737
235	0x3c333abb	0.010939295
236	0x3e2fd179	0.17169751
237	0xbd8c755b	-0.06858321
238	0x3e259638	0.16170585
239	0xbd7e0377	-0.062015023
240	0xbd7f1ef4	-0.06228538
241	0xbe71c668	-0.23610842
242	0xbe080b41	-0.13285543
243	0x3e4767ba	0.19473162
244	0xbdaf91ca	-0.08572729
245	0x3e82e0ba	0.25562078
246	0x3e005bfb	0.12535088
247	0xbcf7ece3	-0.030264324
248	0x3d8052e7	0.06265812
249	0x3d26abae	0.04069107
250	0xbcec687d	-0.028858418
251	0xbe4b5b26	-0.19858989
252	0x3d73a941	0.059487585
253	0x3e54d0cb	0.20782773
254	0xbeb4a0e4	-0.35279
255	0xbe70778d	-0.23483105

input_proj.bias f4 [32]
0	0x3cc9ee23	0.024649685
1	0xbe0d90fb	-0.13824837
2	0xbdfa9190	-0.12234795
3	0xbd8cbba8	-0.0687173
4	0x3d393c7a	0.04522369
5	0xbe1939d7	-0.1496347
6	0xbd4b0a18	-0.049570173
7	0x3db6f06e	0.08932577
8	0x3e13861b	0.14406626
9	0xbe154564	-0.14577252
10	0xbe7ace75	-0.2449282
11	0x3de242cc	0.11047897
12	0x3dab5b9a	0.08367081
13	0xbe774c36	-0.24150166
14	0xbdeae114	-0.114687115
15	0xbd942fe8	-0.072357
16	0xbe348cce	-0.17631838
17	0x3e2283ee	0.1587064
18	0xbe326e79	-0.17424954
19	0x3efc9746	0.49334162
20	0xbdaffe80	-0.08593464
21	0xbe1c50fd	-0.1526527
22	0x3d0221b8	0.031770438
23	0xbdd5d4c2	-0.10440971
24	0x3ebfd4c3	0.37467012
25	0x3de0456d	0.10950742
26	0xbe423ab1	-0.18967701
27	0x3e096ded	0.1342084
28	0x3c6cace2	0.014445515
29	0xbdcecc42	-0.10097553
30	0x3d6245fc	0.055242524
31	0x3e485224	0.19562584

input_norm.weight f4 [32]
0	0x3f61ef71	0.88255984
1	0x3f753ba8	0.95794153
2	0x3f451338	0.7698245
3	0x3f8fc385	1.1231543
4	0x3f612ed9	0.8796211
5	0x3f2fcd41	0.6867257
6	0x3f5b1dcc	0.8559234
7	0x3f60a989	0.8775869
8	0x3f4d314a	0.80153334
9	0x3f57bba1	0.84270674
10	0x3f44e431	0.7691069
11	0x3f59ab87	0.85027355
12	0x3f4b9178	0.7951884
13	0x3f59d944	0.85097146
14	0x3f63f48a	0.8904501
15	0x3f582754	0.8443501
16	0x3f3cb2d8	0.73710394
17	0x3f57a66b	0.8423831
18	0x3f6ac31c	0.91703963
19	0x3f83ace2	1.0287135
20	0x3f544597	0.82918686
21	0x3f802d8a	1.0013897
22	0x3f695f56	0.91161096
23	0x3f516fbd	0.81811124
24	0x3f729ff3	0.94775313
25	0x3f647d0a	0.89253294
26	0x3f5eaa5f	0.86978716
27	0x3f56f9d2	0.83974946
28	0x3f576fe7	0.84155124
29	0x3f4480dc	0.76759124
30	0x3f5ef179	0.8708721
31	0x3f552c40	0.83270645

input_norm.bias f4 [32]
0	0xbc534d6b	-0.012896876
1	0x3ca40adb	0.020024708
2	0x3c66991b	0.014074589
3	0xbc53cf85	-0.0129278945
4	0x3c81870a	0.015811462
5	0x3c8e8d1f	0.017401276
6	0x3ae2c3e1	0.0017300808
7	0xbcd17d9f	-0.025572596
8	0xbc4bf938	-0.012449555
9	0xbca3da47	-0.020001544
10	0xbd1e5377	-0.038653817
11	0xbcbc2be5	-0.02297015
12	0xbd1f53c2	-0.038898237
13	0xbc0892bf	-0.008335768
14	0xbb899a27	-0.0041992846
15	0x3c7bdb7c	0.015372153
16	0x3cda262d	0.026629532
17	0x3c1464e0	0.009057254
18	0xbc67433e	-0.014115153
19	0x3d2c8f91	0.042129103
20	0xbd4c2130	-0.049836338
21	0xbc20fa23	-0.009825262
22	0xbc171fbd	-0.009223876
23	0x3bfeed5d	0.0077797608
24	0xbbc2125f	-0.0059226
25	0x3b6e88f1	0.0036397541
26	0xbbc26e67	-0.005933571
27	0xbd3c0ed7	-0.04591259
28	0x3b816976	0.0039493395
29	0x3c9eaf1a	0.019370604
30	0x3bef95b1	0.007311546
31	0xbc99f686	-0.01879431

mamba.layers.0.mixer.A_log f4 [64, 16]
0	0xbbc005df	-0.005860075
1	0x3f1631eb	0.5866992
2	0x3f752de3	0.9577314
3	0x3fa11341	1.2584001
4	0x3fb5a67a	1.419143
5	0x3fca780b	1.5817884
6	0x3fdfbcbf	1.7479476
7	0x3fe9cb0b	1.8265089
8	0x3ff15be3	1.8856167
9	0x4001ecad	2.0300705
10	0x400613c9	2.0949576
11	0x4007fdbb	2.1248615
12	0x400c62de	2.1935344
13	0x400f1715	2.2357838
14	0x4019d880	2.403839
15	0x40181e46	2.3768477
16	0xbcf28f00	-0.029609203
17	0x3f160764	0.5860503
18	0x3f733ac9	0.95011574
19	0x3f983281	1.1890413
20	0x3fa2059f	1.2657965
21	0x3fbc7542	1.4723284
22	0x3fcc0f1f	1.5942115
23	0x3fd93994	1.6970696
24	0x3fde14bf	1.7350081
25	0x3ff80a58	1.9378157
26	0x3ff0a9c3	1.8801807
27	0x4000228b	2.0021083
28	0x4010d43c	2.2629538
29	0x400ef96a	2.233973
30	0x40175b1f	2.3649366
31	0x401f345a	2.4875703
32	0xbccdd356	-0.025125187
33	0x3f15ffb9	0.58593327
34	0x3f7127dd	0.9420145
35	0x3f974b26	1.1819808
36	0x3fadf123	1.3589214
37	0x3fc4c616	1.5372951
38	0x3fd4fda0	1.66399
39	0x3fe2e81d	1.7727085
40	0x3ff04515	1.8771082
41	0x3ffad89b	1.9597353
42	0x40039e74	2.0565462
43	0x400737d7	2.1127832
44	0x400c306d	2.1904557
45	0x40101f8a	2.251925
46	0x4012ff9a	2.2968507
47	0x40176f14	2.3661547
48	0xbdc0a0e3	-0.09405687
49	0x3efe8b87	0.49715826
50	0x3f5da017	0.865724
51	0x3f8fa7be	1.1223066
52	0x3fa71986	1.3054664
53	0x3fc005d5	1.500178
54	0x3fcebde6	1.6151702
55	0x3fe1102b	1.7583059
56	0x3fee1a88	1.8601847
57	0x400102c1	2.015793
58	0x4003a885	2.0571606
59	0x4006e480	2.1076965
60	0x400fedd6	2.2488914
61	0x4011914f	2.274494
62	0x401684de	2.3518596
63	0x401d2692	2.4554791
64	0xbe11fb6a	-0.14256063
65	0x3f05fd18	0.52339315
66	0x3f66aa38	0.90103483
67	0x3f9df4bb	1.2340311
68	0x3fb1b99d	1.388477
69	0x3fc57d74	1.542891
70	0x3fd9b854	1.7009377
71	0x3fe094e8	1.7545443
72	0x3fea23d9	1.829219
73	0x40022810	2.0336952
74	0x4002787a	2.0386033
75	0x40030a86	2.0475173
76	0x40108cad	2.2585862
77	0x400fef80	2.248993
78	0x4015eaf8	2.3424664
79	0x401d1f8a	2.45505
80	0xbd04c26b	-0.032411974
81	0x3f0fe434	0.56207585
82	0x3f6e3cfd	0.9306181
83	0x3f9759f1	1.1824323
84	0x3fade18f	1.358446
85	0x3fc3c9de	1.529598
86	0x3fd5099d	1.6643559
87	0x3fe2c626	1.771672
88	0x3ff0094f	1.8752841
89	0x3ffc31c0	1.9702682
90	0x40035130	2.0518303
91	0x4007551e	2.1145701
92	0x400c2af5	2.190122
93	0x400ff339	2.2492201
94	0x4013edc8	2.311388
95	0x40178609	2.3675559
96	0xbdcec45c	-0.10096046
97	0x3f0003ce	0.50005805
98	0x3f344c92	0.7042934
99	0x3fa3e35e	1.2803762
100	0x3f9e14d4	1.2350106
101	0x3fc1d5d9	1.5143386
102	0x3fd682af	1.6758631
103	0x3fd7c9f4	1.6858506
104	0x3fdee677	1.7414082
105	0x4002ffe3	2.046868
106	0x3ff36f0e	1.9018266
107	0x3fffa76a	1.9972966
108	0x400d9070	2.2119408
109	0x400b6bbe	2.178451
110	0x4020f11b	2.514716
111	0x401ba368	2.4318485
112	0x3cd93d4b	0.026518485
113	0x3f1bd0df	0.60865587
114	0x3f6e7d03	0.931595
115	0x3f975b54	1.1824746
116	0x3fb04f1c	1.3774142
117	0x3fc37995	1.5271479
118	0x3fd47d9a	1.660083
119	0x3fe353ce	1.775995
120	0x3ff03313	1.8765587
121	0x3ffb497f	1.9631804
122	0x40033c37	2.0505502
123	0x4007e381	2.1232607
124	0x400bf55a	2.18685
125	0x400ff2be	2.2491908
126	0x4013cf5a	2.3095307
127	0x40173356	2.3625083
128	0x3cf6c501	0.030123236
129	0x3f15a54e	0.5845536
130	0x3f740dcd	0.9533356
131	0x3f94835c	1.1602588
132	0x3fae04df	1.3595237
133	0x3fc226f6	1.516814
134	0x3fd1ca58	1.6389875
135	0x3fe221e0	1.7666588
136	0x3fee1759	1.8600875
137	0x3ff8e049	1.9443446
138	0x40009c6c	2.0095472
139	0x400734c4	2.1125956
140	0x400be57f	2.1858823
141	0x400fd708	2.2474995
142	0x40142d83	2.3152778
143	0x40186bf9	2.3815901
144	0x3d287676	0.0411286
145	0x3f1ad999	0.6048828
146	0x3f72925f	0.94754595
147	0x3f992607	1.196473
148	0x3fb02c3c	1.3763499
149	0x3fc52f47	1.5405053
150	0x3fd79ed6	1.6845348
151	0x3fe34859	1.7756454
152	0x3ff15a6a	1.8855717
153	0x3ffd2498	1.9776793
154	0x4005a2cb	2.088061
155	0x40079dc0	2.1190033
156	0x400b4783	2.1762397
157	0x400f7f6e	2.2421527
158	0x401287e5	2.2895443
159	0x40149b6a	2.3219857
160	0x3dcfb594	0.10142055
161	0x3f224539	0.63386875
162	0x3f76ff00	0.9648285
163	0x3f989102	1.1919253
164	0x3fb35c08	1.4012461
165	0x3fc4ca84	1.5374303
166	0x3fd5bb92	1.6697867
167	0x3fe4216b	1.7822698
168	0x3ff1df34	1.8896241
169	0x3ffa5b40	1.9559097
170	0x4003a6f4	2.057065
171	0x40088605	2.13318
172	0x400b5ef8	2.1776714
173	0x400ff34b	2.2492244
174	0x40132d21	2.2996294
175	0x4015cc62	2.3405995
176	0x3d488990	0.048959315
177	0x3f16c4c4	0.5889399
178	0x3f7ca64c	0.9869125
179	0x3f951b14	1.1648889
180	0x3faf6f6a	1.3705876
181	0x3fc41e09	1.5321666
182	0x3fd15e09	1.6356822
183	0x3fe27e44	1.7694783
184	0x3fef9c75	1.8719622
185	0x3ff383be	1.902458
186	0x4000e794	2.0141344
187	0x4007cfcd	2.1220582
188	0x4008a6e8	2.1351871
189	0x40104338	2.2541027
190	0x401241df	2.2852705
191	0x4014c02e	2.3242297
192	0x3d8d14f8	0.06888765
193	0x3f21566b	0.6302249
194	0x3f77f337	0.9685549
195	0x3f97c025	1.1855513
196	0x3fb878b4	1.4411836
197	0x3fc3c70f	1.5295123
198	0x3fd53a57	1.6658429
199	0x3fe793c5	1.8091971
200	0x3ff493bf	1.9107589
201	0x3ff5bb54	1.9197793
202	0x4002f4b8	2.0461864
203	0x400afdd1	2.1717417
204	0x4007c220	2.1212234
205	0x400f6c3c	2.240981
206	0x40110d6e	2.2664447
207	0x40124f91	2.2861063
208	0xbc095eb1	-0.008384393
209	0x3f1832c5	0.5945247
210	0x3f6f6b0f	0.93522733
211	0x3f96bf90	1.177721
212	0x3fafabd5	1.3724314
213	0x3fc2f866	1.5232055
214	0x3fd40526	1.6564071
215	0x3fe2d9fc	1.7722774
216	0x3fef7cf3	1.8710006
217	0x3ffb9a03	1.9656376
218	0x4002c68c	2.0433683
219	0x400783c0	2.1174164
220	0x400c1ff1	2.1894495
221	0x400fecbd	2.2488244
222	0x4013d6a3	2.3099754
223	0x4017b421	2.3703692
224	0x3c117c32	0.008879708
225	0x3f1822c8	0.5942807
226	0x3f709868	0.93982553
227	0x3f979577	1.1842488
228	0x3fb1056d	1.3829781
229	0x3fc34cb2	1.525778
230	0x3fd4d4ff	1.6627501
231	0x3fe36bff	1.7767333
232	0x3ff02011	1.8759786
233	0x3ffb1b38	1.9617682
234	0x40032112	2.0488935
235	0x4007c084	2.1211252
236	0x400b5f03	2.177674
237	0x400fd872	2.2475858
238	0x40133b7b	2.3005054
239	0x40162db3	2.3465393
240	0x3c05ca5a	0.00816592
241	0x3f17a788	0.5924001
242	0x3f70169c	0.937845
243	0x3f976583	1.1827854
244	0x3faff228	1.3745775
245	0x3fc38ba5	1.5276991
246	0x3fd46fdb	1.6596636
247	0x3fe2e644	1.7726521
248	0x3fefd682	1.8737338
249	0x3ffaac8f	1.9583911
250	0x4002d0cb	2.0439937
251	0x40078d63	2.1180046
252	0x400b27dd	2.174308
253	0x400fb038	2.2451305
254	0x4013303f	2.2998197
255	0x4015e655	2.3421834

mamba.layers.0.mixer.D f4 [64]
0	0x3f5a99c9	0.8539091
1	0x3f88ae7d	1.067825
2	0x3f6a0c51	0.91425043
3	0x3f7f450b	0.99714726
4	0x3f5b8beb	0.8576037
5	0x3f6869c3	0.9078638
6	0x3f67d92d	0.9056576
7	0x3f55ed04	0.8356478
8	0x3f81dcf6	1.0145557
9	0x3f627d4b	0.8847243
10	0x3f5b1289	0.8557516
11	0x3f44fe2f	0.76950353
12	0x3f5f0cb0	0.87128735
13	0x3f62025e	0.8828486
14	0x3f54d6bb	0.8314015
15	0x3f802cfb	1.0013727
16	0x3f606439	0.8765293
17	0x3f7734d7	0.96565
18	0x3f497c33	0.7870514
19	0x3f5b2fda	0.8561989
20	0x3f5ff5af	0.8748426
21	0x3f89ca9a	1.0764954
22	0x3f57e897	0.8433928
23	0x3f6119f3	0.8793022
24	0x3f6919c2	0.9105493
25	0x3f8ca0bf	1.0986556
26	0x3f84da23	1.037907
27	0x3f72e7f7	0.948852
28	0x3f7c8dd7	0.9865393
29	0x3f5ccfe7	0.86254734
30	0x3f567d2d	0.83784753
31	0x3f7b30c6	0.981213
32	0x3f6fb74b	0.9363906
33	0x3f911bc4	1.1336598
34	0x3f6b03aa	0.91802466
35	0x3f6ad1e1	0.917265
36	0x3f70e1ef	0.9409475
37	0x3f697b02	0.9120332
38	0x3f703bb1	0.9384108
39	0x3f72e4a0	0.94880104
40	0x3f4fb786	0.8113941
41	0x3f511202	0.816681
42	0x3f8023ca	1.0010922
43	0x3f54273f	0.82872385
44	0x3f826c2c	1.0189261
45	0x3f5345d5	0.8252843
46	0x3f6788df	0.90443224
47	0x3f4601ac	0.773463
48	0x3f768347	0.96294063
49	0x3f746074	0.95459676
50	0x3f90e845	1.1320883
51	0x3f5a53c1	0.8528405
52	0x3f623495	0.88361484
53	0x3f5c809a	0.8613373
54	0x3f8c7948	1.0974512
55	0x3f4eda69	0.8080202
56	0x3f59435c	0.8486841
57	0x3f7d121e	0.9885577
58	0x3f489842	0.78357327
59	0x3f7999ad	0.97500116
60	0x3f68c4b6	0.9092516
61	0x3f7b7870	0.9823065
62	0x3f39c155	0.72560626
63	0x3f3c488c	0.735482

mamba.layers.0.mixer.in_proj.weight f4 [128, 32]
0	0x3dbf177a	0.0933065
1	0xbdc69595	-0.09696499
2	0xbe01089b	-0.12600939
3	0xbe1ea605	-0.15493019
4	0x3c050102	0.008117916
5	0xbe04fa5f	-0.12986134
6	0xbe0d449d	-0.13795705
7	0xba8e35f8	-0.0010849824
8	0xbcd8a4dd	-0.0264458
9	0x3dfbf321	0.123022325
10	0x3bdcd98a	0.0067398
11	0xbd26b848	-0.040703088
12	0x3e08c0d9	0.13354816
13	0x3e60297d	0.21890827
14	0x3e6d7a1d	0.23191114
15	0xbe728703	-0.23684315
16	0xbdd8cf32	-0.10586394
17	0xbe4075d5	-0.1879495
18	0x3e474bab	0.19462459
19	0xbe006b97	-0.12541042
20	0xbd233a48	-0.039850503
21	0x3d9380f9	0.07202334
22	0xbc9301e3	-0.017945236
23	0xbe579351	-0.2105229
24	0x3e413ec4	0.188716
25	0xbd260bc4	-0.040538564
26	0x3e6ceb5b	0.23136656
27	0xbd2018f8	-0.039086312
28	0xbe148c58	-0.14506662
29	0xbded5bcb	-0.11589774
30	0xbdf22202	-0.11822893
31	0x3d8700ca	0.065919474
32	0x3e0c8da8	0.13725913
33	0x3e9ce009	0.30639675
34	0xbe0f7d6b	-0.14012687
35	0xbe8625f9	-0.26200846
36	0x3ec56fed	0.38561955
37	0x3dc5e08d	0.0966197
38	0x3de86c0f	0.113487355
39	0xbcc73647	-0.024317874
40	0x3d2137b4	0.039359763
41	0x3e389b58	0.18028009
42	0x3d7692c7	0.06019857
43	0xbbd01c46	-0.0063510267
44	0xbda26c28	-0.079307854
45	0x3d8420c6	0.064515635
46	0x3ea93bb3	0.3305336
47	0x3d9868ae	0.07441841
48	0xbddc4c8e	-0.10756789
49	0xbbf6ab6e	-0.00752776
50	0xbd2b48e8	-0.041817576
51	0xbeaaf3b1	-0.33389047
52	0x3d722fe2	0.059127696
53	0xbec9c4a6	-0.39407843
54	0x3c3a2b63	0.011362883
55	0xbdc4d263	-0.096104406
56	0xbeb9e72d	-0.36309186
57	0x3a07c07a	0.00051785226
58	0xbcb228cc	-0.02174797
59	0xbe1c07c5	-0.15237339
60	0xbd21db7c	-0.039515957
61	0xbae8f533	-0.001777327
62	0x3df33268	0.118748486
63	0xbe9e0873	-0.3086582
64	0x3d95a03e	0.073059544
65	0xbe602416	-0.21888766
66	0x3a14050e	0.0005646505
67	0x3bca55f4	0.006174797
68	0xbd93b451	-0.07212127
69	0x3c9bea14	0.019032516
70	0x3e09b6f2	0.13448694
71	0xbe187c54	-0.14891177
72	0x3d5a7c8f	0.053341445
73	0x3d387ac5	0.045038957
74	0x3decf05e	0.11569284
75	0x3d27bd0d	0.040951777
76	0xbe110bbf	-0.14164637
77	0xbe015e2d	-0.12633581
78	0xbd8bea7c	-0.06831834
79	0x3dfdb89b	0.12388726
80	0xbc264894	-0.01014914
81	0xbc7f51c3	-0.015583458
82	0xbe0a5576	-0.13509163
83	0x3e73583f	0.23764132
84	0xbe3d418c	-0.18482035
85	0x3cad3dd5	0.021147648
86	0xbbc217d9	-0.005923253
87	0x3e1b637f	0.15174673
88	0xbbe410c4	-0.0069600064
89	0x3d899b58	0.067190826
90	0xbd7043ea	-0.058658518
91	0xbcc97614	-0.024592437
92	0x3d572e79	0.052534554
93	0x3e295d44	0.16539484
94	0xbc07855e	-0.008271543
95	0x3e136b2c	0.14396352
96	0xbcecab9d	-0.028890425
97	0x3c8a8f6b	0.01691409
98	0x3b1ffa75	0.0024410759
99	0xbe09fb38	-0.13474739
100	0x3e240518	0.16017568
101	0x3de07270	0.10959327
102	0x3e1215f1	0.14266182
103	0xbe885b40	-0.26632118
104	0x3c07e043	0.008293214
105	0xbe433127	-0.19061719
106	0x3e3f5369	0.18684162
107	0x3dac6496	0.08417623
108	0xbe4be931	-0.19913174
109	0xbe76d2a6	-0.24103794
110	0x3c2996d3	0.010350901
111	0x3d7c01c0	0.061525106
112	0xbdf663d3	-0.12030759
113	0xbdee6589	-0.1164046
114	0xbe4d20eb	-0.20032088
115	0xbda3d6a8	-0.07999927
116	0xbc99cd04	-0.018774517
117	0xbe552741	-0.20815755
118	0xbe548e59	-0.20757426
119	0x3e25a9cc	0.16178054
120	0xbe3705c2	-0.1787329
121	0x3d0b9136	0.03407403
122	0xbd33f03c	-0.043930277
123	0x3e380fbb	0.1797475
124	0x3d005834	0.031334117
125	0x3e0fc0f2	0.14038447
126	0x3e016891	0.12637545
127	0xbe41d2c3	-0.18928055
128	0x3e36e217	0.17859684
129	0x3e027bcc	0.12742537
130	0xbadc38ee	-0.0016801634
131	0xbead9ef1	-0.33910325
132	0xbe9e9ebf	-0.3098049
133	0x3d0bfdd3	0.034177613
134	0x39cf10aa	0.00039494532
135	0x3c39c6ee	0.011338932
136	0xbe1e485c	-0.1545729
137	0x3e49721b	0.19672434
138	0x3de47b78	0.11156362
139	0xbdf6c72d	-0.120497085
140	0xbd397b77	-0.04528376
141	0xbd85b921	-0.06529451
142	0xbce84147	-0.02835144
143	0xbe2e003f	-0.16992281
144	0xbe143a9b	-0.14475481
145	0xbd669fc5	-0.05630471
146	0xbddf16bc	-0.10893008
147	0x3db8ba4d	0.09019909
148	0xbcfe0a3d	-0.031010741
149	0xbcc7948a	-0.024362821
150	0x3e307051	0.17230345
151	0xbe171d48	-0.14757264
152	0x3db8571b	0.09000989
153	0x3e06ddb0	0.13170505
154	0xbc00f346	-0.007870501
155	0xbe0af367	-0.13569413
156	0x3bfa9bcd	0.0076479674
157	0xbd935c25	-0.071953095
158	0xbdfeb01d	-0.12435935
159	0x3da27cf3	0.079339884
160	0x3dd78aeb	0.105245434
161	0x3d6903f3	0.056888532
162	0xbda02ed3	-0.07821431
163	0xbc2b79e4	-0.010466073
164	0xbdc09d6b	-0.09405025
165	0x3daee153	0.08539071
166	0xbcc1c7c4	-0.023654826
167	0x3e1cf3c8	0.1532737
168	0x3dc4093c	0.09572074
169	0x3db453ee	0.08805071
170	0xbd1ea6fd	-0.03873347
171	0xbe2854bb	-0.16438572
172	0x3e51f52d	0.20503683
173	0xbca34c71	-0.019933911
174	0xbae6af56	-0.0017599862
175	0xbde25b71	-0.11052597
176	0x3e172753	0.14761095
177	0xbde2c334	-0.11072388
178	0x3dcd3358	0.10019559
179	0xbe3e04ca	-0.18556514
180	0x3d70e6a9	0.058813725
181	0xbe0dec44	-0.1385966
182	0xbdee933b	-0.11649176
183	0xbe59c06a	-0.21264806
184	0xbdbc0b9c	-0.09181902
185	0xbe00e43f	-0.12587069
186	0x3dc078c4	0.09398034
187	0x3dbddbe4	0.092704564
188	0x3d788128	0.060670048
189	0xbc4a0700	-0.0123307705
190	0xbdcd4f9f	-0.10024952
191	0x3d5466a6	0.051855706
192	0xbe7db6df	-0.24776791
193	0x3c479b68	0.012183048
194	0x3d8206c5	0.063489474
195	0x3e47dabd	0.19517036
196	0x3e19cbfb	0.15019219
197	0xbdbb5a67	-0.09148102
198	0x3e28ea10	0.16495538
199	0xbe880b89	-0.265713
200	0xbc9ecc35	-0.019384483
201	0xbdc6fa17	-0.097156696
202	0x3e4bf6d9	0.19918384
203	0x3e0354d3	0.12825327
204	0xbe99aa50	-0.3001275
205	0xbe490e9d	-0.19634481
206	0xbd5709b9	-0.052499507
207	0x3e75bf0c	0.2399866
208	0xbdbac962	-0.09120442
209	0x3e287f83	0.16454892
210	0xbe676e20	-0.22600603
211	0x3d9f8d69	0.07790644
212	0xbdfdeec2	-0.12399055
213	0xbe4067c3	-0.18789582
214	0xbdf8a873	-0.12141504
215	0x3d289a6d	0.041162897
216	0xbe8007de	-0.25006002
217	0x3d948752	0.07252373
218	0x3cc53026	0.02407081
219	0x3d6ea2b4	0.058260635
220	0x3e6ae678	0.2293948
221	0xbdf37327	-0.11887198
222	0x3e2bafe6	0.16766319
223	0xbe010be0	-0.12602186
224	0x3e16bd46	0.1472064
225	0x3d03a545	0.032140035
226	0x3defafdf	0.117034666
227	0xbc7d759f	-0.015469938
228	0x3c6e4b0f	0.014544263
229	0xbc678d2b	-0.014132778
230	0x3d9c10d6	0.07620399
231	0xbe02530f	-0.12726997
232	0xbc361b48	-0.011114903
233	0x3ca647c1	0.020297887
234	0x3cbdf9ff	0.023190496
235	0xbca338ba	-0.01992451
236	0x3d62a6bc	0.05533479
237	0xbdd7bdce	-0.10534249
238	0x3e4017a9	0.18759026
239	0x3d5994f6	0.053120576
240	0xbe2aa869	-0.16665806
241	0x3d25d2df	0.040484305
242	0xbdd9eb30	-0.106405616
243	0xbe0afbd3	-0.13572626
244	0x3e272e12	0.16326168
245	0xbd839db7	-0.06426566
246	0x3e313e27	0.17308865
247	0xbe079ba0	-0.1324296
248	0xbc0afa9b	-0.008482601
249	0x3c947eea	0.018126924
250	0x3c2c8c17	0.010531447
251	0xbe05d859	-0.13070811
252	0x3e0562ce	0.13025972
253	0xbe4a994e	-0.19785044
254	0xbdff107c	-0.12454316
255	0x3e391015	0.18072541

mamba.layers.0.mixer.conv1d.weight f4 [64, 1, 4]
0	0xbec8f12c	-0.392465
1	0xbf0019e0	-0.5003948
2	0x3ca6d59c	0.020365529
3	0xbee05c57	-0.4382045
4	0x3e5b6760	0.21426153
5	0x3eaf26ae	0.34209198
6	0x3e8a2423	0.26980695
7	0xbe70f076	-0.23529229
8	0xbe18854a	-0.14894596
9	0x3e9f791f	0.31147096
10	0xbd23511b	-0.03987227
11	0x3e76f084	0.24115187
12	0x3e07b49f	0.13252495
13	0xbd9d9a14	-0.07695404
14	0xbe8857e8	-0.26629567
15	0xbdebd32f	-0.115148894
16	0x3b148b58	0.0022666063
17	0xbed3e0a5	-0.41382328
18	0x3e9bb348	0.30410218
19	0xbeb9a9a6	-0.36262244
20	0xbe57f1a9	-0.2108828
21	0xbe120e3e	-0.14263245
22	0x3e3d0c24	0.18461663
23	0x3e5c2c58	0.21501291
24	0x3ed81e2f	0.42210528
25	0x3ede2b63	0.43392476
26	0x3ed9dd40	0.42551613
27	0x3e376906	0.17911157
28	0xbe1d61b8	-0.15369308
29	0x3e6cfcf7	0.23143373
30	0x3e0e7848	0.13913071
31	0xbecc7761	-0.3993483
32	0x3ea142f7	0.31496403
33	0x3d85de79	0.06536574
34	0x3e593f23	0.21215491
35	0x3e64671f	0.22304963
36	0x3d6432f8	0.05571267
37	0x3e8cdb7a	0.27511197
38	0x3e954b57	0.29159042
39	0x3eb16945	0.34650627
40	0xbec061b9	-0.37574556
41	0x3dccffe3	0.10009744
42	0xbe01b1aa	-0.1266543
43	0x3ebd4c69	0.3697236
44	0x3a992688	0.0011684457
45	0x3ed9b66e	0.42521995
46	0x3e877e7f	0.26463696
47	0xbed88d96	-0.42295521
48	0x3e93ac8e	0.28842586
49	0xbea56c5a	-0.32309228
50	0xbda9ae27	-0.0828517
51	0xbf01085f	-0.504034
52	0x3eb5509c	0.35413063
53	0x3d30a11e	0.043122403
54	0xbed0fac5	-0.40816322
55	0x3eedba9c	0.46431434
56	0xbd889e8a	-0.06670864
57	0x3e93dff5	0.28881803
58	0x3e1241a2	0.1428285
59	0xbe430f1f	-0.19048737
60	0xbe742c46	-0.23845014
61	0x3e98aae6	0.29817885
62	0xbe792d8f	-0.24333785
63	0x3e1d2037	0.1534432
64	0x3dc5ed20	0.09664369
65	0x3eb9099d	0.36140147
66	0xbd843d46	-0.064569995
67	0xbf04e43b	-0.5191075
68	0xbe9b1f75	-0.30297437
69	0xbe8add94	-0.27122176
70	0x3e09bf70	0.13451934
71	0xbe2ab368	-0.1667
72	0x3e1dd0d4	0.15411693
73	0x3beeddb5	0.007289613
74	0x3d79d76a	0.06099645
75	0x3ea25326	0.31704062
76	0xbe12fe58	-0.14354837
77	0xbe90fe5b	-0.28319058
78	0x3e9efed1	0.31053784
79	0x3d917f9f	0.0710442
80	0x3e94d2bd	0.2906703
81	0x3ee1f7a0	0.44134235
82	0xbe9b3a05	-0.30317703
83	0xbe6adb8f	-0.22935317
84	0xbd96fa4a	-0.073719576
85	0x3e489ed1	0.19591834
86	0xbd1eaf80	-0.03874159
87	0x3edbcd52	0.42930084
88	0x3e40595f	0.18784092
89	0xbecb4c65	-0.39706722
90	0xbe7c7151	-0.24652602
91	0xbedb88d0	-0.42877817
92	0x3ea11b2a	0.31466037
93	0x3ec1122a	0.3770917
94	0x3e387d52	0.18016556
95	0x3ed6ee80	0.41978836
96	0x3e3935e3	0.18086962
97	0xbda007c5	-0.07813982
98	0xbedfc1eb	-0.43702635
99	0xbe6c1bd1	-0.23057486
100	0x3e3475d0	0.17623067
101	0xbeb0a47e	-0.34500498
102	0x3d993d21	0.074823625
103	0xbec4a011	-0.3840337
104	0xbe6f5f79	-0.23376264
105	0xbd939767	-0.07206612
106	0x3e2466dc	0.16054863
107	0x3ea48c5e	0.32138342
108	0xbe29cf61	-0.16583015
109	0x3e868d60	0.26279736
110	0x3ec38ae7	0.38191912
111	0xbec2f6b3	-0.38078842
112	0x3d3d448f	0.04620796
113	0xbe5dcea6	-0.21660861
114	0x3dd64bfa	0.1046371
115	0x3d231837	0.039818015
116	0x3ec6e142	0.38843733
117	0x3dc0c0a8	0.09411746
118	0x3e445513	0.19173078
119	0x3e712c6d	0.23552103
120	0xbe20c931	-0.15701748
121	0x3b89f08f	0.004209585
122	0xbee4c483	-0.44681177
123	0xbd0ffce1	-0.035153273
124	0xbe30f63f	-0.17281435
125	0x3e144b00	0.14481735
126	0x39f1928c	0.00046076288
127	0x3b97ecd3	0.004636386
128	0xbe91d27c	-0.284809
129	0xbdc4b223	-0.096042894
130	0xbe2ae372	-0.16688326
131	0x3cfb3990	0.030667096
132	0xbebdd898	-0.3707931
133	0x3e6813d2	0.22663811
134	0xbe2d147c	-0.16902345
135	0xbd6d8ed4	-0.05799754
136	0x3e80089a	0.25006562
137	0x3e9bff0d	0.30468026
138	0x3c5517cd	0.013006163
139	0x3eed8f1d	0.4639825
140	0x3ed65ff8	0.41870093
141	0x3ec659c7	0.3874037
142	0x3eddedeb	0.4334558
143	0xbe319f5f	-0.17345951
144	0x3d243c3e	0.040096514
145	0x3e72ae28	0.23699248
146	0xbe94018b	-0.28907427
147	0xbeb431b2	-0.35194165
148	0xbe222bc0	-0.15837002
149	0x3ef55a03	0.47920236
150	0x3eb0d22c	0.34535348
151	0x3ee2f183	0.44324884
152	0x3ecbcc48	0.39804292
153	0x3e9b782b	0.30365118
154	0x3e3d77fc	0.18502802
155	0x3eae5b4b	0.34054026
156	0xbec3698f	-0.38166472
157	0x3e84baaa	0.25923663
158	0x3eb6cfed	0.3570551
159	0xbe5600d2	-0.2089875
160	0x3da563e5	0.08075694
161	0x3cb7de1d	0.022444779
162	0xbea75469	-0.32681587
163	0xbf0f5b61	-0.5599881
164	0xbdb6bbfe	-0.089225754
165	0x3eb5646b	0.35428175
166	0x3e811d32	0.25217587
167	0xbe2e5e95	-0.17028268
168	0x3e1daa81	0.15397073
169	0xbd803cfb	-0.06261631
170	0xbe97daed	-0.29659215
171	0xbe896e88	-0.2684214
172	0xbea5899b	-0.32331547
173	0xbe790540	-0.24318409
174	0xbeac54d6	-0.33658475
175	0x3e624f9b	0.2210068
176	0x3e7ce1c3	0.24695496
177	0xbe1072f0	-0.14106345
178	0xbec2cc26	-0.38046378
179	0xbec12e01	-0.3773041
180	0xbe079fc7	-0.13244544
181	0x3ec1e449	0.3786948
182	0x3e5ec03a	0.21753016
183	0xbde18c39	-0.110130735
184	0x3ecaabd1	0.3958421
185	0x3f066a47	0.52505916
186	0x3e88869c	0.266652
187	0xbe1a9551	-0.15096022
188	0xbe7858f5	-0.24252684
189	0xbe50dc0a	-0.20396438
190	0xbd957254	-0.07297197
191	0xbe87e40b	-0.2654117
192	0xbe17029a	-0.14747086
193	0x3e70a1ad	0.23499174
194	0x3e2ba88c	0.16763514
195	0xbef58042	-0.47949415
196	0xbe5ed424	-0.21760613
197	0xbbb3182f	-0.0054655294
198	0xbde53deb	-0.111934505
199	0x3e5394df	0.20662259
200	0xbe33a6ad	-0.1754405
201	0x3e834f36	0.2564637
202	0xbed07cca	-0.40720206
203	0x3b8d9a0a	0.0043213414
204	0xbe992519	-0.29911116
205	0xbe043d86	-0.12914094
206	0xbe932a9a	-0.2874344
207	0xbf021ac9	-0.5082212
208	0xbe64492c	-0.22293538
209	0x3eb38c3d	0.3506793
210	0x3ed2d617	0.41178963
211	0x3edaf62a	0.42765933
212	0x3d33f495	0.043934423
213	0xbee32c5e	-0.44369787
214	0x3dec3821	0.11534143
215	0x3ea0e61e	0.31425565
216	0xbef5b568	-0.47989964
217	0xbd1dcd71	-0.038526002
218	0xbea9dc9a	-0.33176118
219	0x3da1141c	0.07865164
220	0xbeaf2024	-0.3420421
221	0xbe5e0dd4	-0.21684963
222	0xbefe07b9	-0.49615267
223	0xbe9a35ed	-0.30119267
224	0x3dccde72	0.100033656
225	0x3e48415e	0.19556186
226	0x3ea4e5b4	0.322065
227	0xbecab722	-0.39592844
228	0x3db9f3d5	0.090797104
229	0xbeb3f357	-0.3514659
230	0xbebce0f7	-0.36890385
231	0x3e9d7947	0.3075659
232	0xbe9df035	-0.30847326
233	0x3e33008f	0.17480682
234	0xbec02576	-0.3752858
235	0x3e580c88	0.2109853
236	0x3e6c8ee9	0.23101391
237	0x3e89ed2f	0.2693877
238	0x3eadb86c	0.33929765
239	0xbe4a0820	-0.19729662
240	0xbecf1c26	-0.40451163
241	0xbe71b6c9	-0.23604883
242	0xbe7fe228	-0.24988616
243	0xbe8bc844	-0.27301228
244	0x3e2a9bc3	0.16660981
245	0x3e77e67b	0.24209015
246	0x3e72eaef	0.23722433
247	0xbebeb5bf	-0.37248036
248	0xbc2f61a9	-0.010704436
249	0x3f09f14b	0.5388381
250	0x3e93e8f6	0.28888673
251	0xbec1d333	-0.37856445
252	0x3ed7be45	0.42137352
253	0x3e9baa58	0.304034
254	0x3d621ed5	0.055205185
255	0x3e2bff41	0.1679659

mamba.layers.0.mixer.conv1d.bias f4 [64]
0	0x3e0e11ee	0.13874027
1	0x3d6deff9	0.058090184
2	0xbe6380e6	-0.2221714
3	0xbe0e4660	-0.13894033
4	0xbe912227	-0.2834637
5	0xbea6915b	-0.32532772
6	0x3e98fb80	0.2987938
7	0x3de82c5f	0.11336588
8	0x3ee4c4fd	0.4468154
9	0x3e9b2e35	0.3030869
10	0xbe96506e	-0.29358238
11	0x3e54f330	0.20795894
12	0x3e844098	0.2583053
13	0xbe9752a2	-0.2955523
14	0xbeb28295	-0.3486525
15	0x3ead9275	0.339008
16	0x3dc81ff8	0.097717226
17	0x3e2afcb0	0.16697955
18	0x3e3750eb	0.17901962
19	0xbec1acee	-0.37827247
20	0xbe7f9e62	-0.24962762
21	0xbea839de	-0.3285665
22	0x3e374d3f	0.17900561
23	0xbd80a975	-0.06282321
24	0xbbd134e8	-0.0063844807
25	0xbf03159a	-0.51204836
26	0x3eaa2fbc	0.33239543
27	0x3ee04433	0.43802032
28	0xbeb9807f	-0.36230847
29	0x3e7cf7aa	0.24703851
30	0x3dfe5931	0.12419356
31	0xbeabf852	-0.3358789
32	0xbe830938	-0.2559297
33	0x3ed5753c	0.41691005
34	0xbdd71c07	-0.10503393
35	0xbeaa946f	-0.3331637
36	0xbe98166b	-0.29704604
37	0xbe4ce301	-0.2000847
38	0x3ef0e7f0	0.47051954
39	0x3edadd3b	0.4274691
40	0x3e9e4a49	0.3091605
41	0x3dc9383a	0.098251775
42	0x3f0ca3fd	0.54937726
43	0xbdabd20c	-0.08389673
44	0xbe7ae5ad	-0.24501677
45	0xbd9f4240	-0.07776308
46	0x3d68ec0e	0.056865744
47	0x3df7b066	0.12094192
48	0x3c3a5f0f	0.011375203
49	0xbe88d8a3	-0.2672778
50	0xbefd5f92	-0.49486977
51	0x3e1158d8	0.14194047
52	0x3ed5173a	0.41619283
53	0x3e60d928	0.21957839
54	0x3e2f48ee	0.17117664
55	0xbe950c3d	-0.291109
56	0xbe5d608f	-0.21618865
57	0xbe772a3c	-0.24137205
58	0xbd42658e	-0.04746013
59	0xbe1c28fc	-0.1525001
60	0xbd5957be	-0.053062193
61	0xbdce56be	-0.100751385
62	0x3e1b8a9f	0.15189599
63	0xbe6f3d1b	-0.23363154

mamba.layers.0.mixer.x_proj.weight f4 [34, 64]
0	0xbd1e56c0	-0.03865695
1	0x3da1c985	0.07899765
2	0x3d6509a6	0.055917405
3	0xbdcc7c23	-0.09984615
4	0xbc051c86	-0.008124476
5	0xbd002611	-0.031286303
6	0xbcb00766	-0.021487903
7	0x3d94faf9	0.07274432
8	0x3d4ce59e	0.050023668
9	0xbdd39674	-0.10331431
10	0x3d7cc0d4	0.061707333
11	0x3d83822d	0.064213134
12	0x3e790e84	0.24321944
13	0xbce8df74	-0.028426863
14	0xbbb3295e	-0.005467578
15	0x3e7a166b	0.24422614
16	0x3d4cc3c6	0.04999139
17	0x3deeeb72	0.116660014
18	0xbc2be41c	-0.010491397
19	0xbe0fcffb	-0.14044182
20	0xbd1763e6	-0.036960505
21	0xbe775661	-0.24154045
22	0x3e25dae9	0.16196789
23	0x3e027e41	0.12743475
24	0xbc5dcdc5	-0.013537829
25	0xbe0f6eb3	-0.14007072
26	0x3db657bd	0.089034535
27	0x3e2fbc23	0.17161612
28	0xbdb6c07e	-0.08923434
29	0xbd5b8997	-0.053598013
30	0x3cb8f4f8	0.022577748
31	0xbe19e692	-0.15029362
32	0xbe04af08	-0.12957394
33	0x3e1f8a27	0.15580045
34	0x3d02bc7a	0.031918027
35	0xbe0fcf64	-0.14043957
36	0xbe300ba0	-0.17191935
37	0x3d83c60b	0.06434258
38	0x3d8344b0	0.064095855
39	0x3dcf0e27	0.10110121
40	0x3e921183	0.28528985
41	0xbd9f2d93	-0.077723645
42	0x3dac3e8a	0.08410366
43	0xbdea329d	-0.11435435
44	0xbd83e042	-0.06439258
45	0xbdd146b0	-0.10218561
46	0xbb4bef02	-0.0031117802
47	0x3d0e7ed9	0.03478894
48	0x3d0817c7	0.0332258
49	0xbd9661dd	-0.07342885
50	0xbe349adc	-0.17637199
51	0x3d18e4a4	0.037327424
52	0x3d3e77ff	0.046501156
53	0x3e57706c	0.2103898
54	0x3dd64c94	0.10463825
55	0x3c95ff6e	0.018310275
56	0xbdaec145	-0.08532957
57	0xbe00936a	-0.12556234
58	0xbd643877	-0.05571791
59	0xbd4675ca	-0.048452176
60	0xbd83a1f3	-0.06427374
61	0xbdd4b466	-0.10385971
62	0x3dddc158	0.10827893
63	0xbe4a3fac	-0.19750851
64	0xbc79702e	-0.0152245
65	0x3d32ce1c	0.043653592
66	0xbe3facb2	-0.18718222
67	0xbd040491	-0.032230917
68	0x3d91fdea	0.071285084
69	0xbdeb57dc	-0.11491367
70	0x3de09a9e	0.10966991
71	0x3d06315a	0.03276191
72	0x3dd21627	0.102581315
73	0x3e3e2d72	0.18572024
74	0x3b02ae38	0.0019940268
75	0x3d7a641c	0.061130628
76	0x3d11d609	0.03560451
77	0xbe045313	-0.12922315
78	0xbdd2762c	-0.10276446
79	0x3e7894b0	0.2427547
80	0x3e4e9f11	0.20177867
81	0x3c2f6766	0.010705804
82	0xbafe00e7	-0.0019378931
83	0xbd920274	-0.07129374
84	0xbb6118b6	-0.0034347004
85	0xbdadfda0	-0.08495641
86	0xbbde4d69	-0.0067841304
87	0x3b22d3b9	0.0024845435
88	0x3b17b993	0.0023151382
89	0xbe3464d1	-0.17616583
90	0x3de67d9f	0.11254429
91	0xbb519238	-0.0031978022
92	0xbd99e120	-0.07513642
93	0xba251c9b	-0.0006298513
94	0x3df4a05a	0.11944647
95	0xbc37e6ad	-0.011224431
96	0xbdd06f6f	-0.10177504
97	0x3daa8184	0.083254844
98	0x3d62b481	0.055347923
99	0xbe06652d	-0.13124533
100	0x3e148e81	0.14507486
101	0xbdc79c0a	-0.09746559
102	0x3dbc2c5f	0.091881506
103	0x3d84a63b	0.064770184
104	0x3e48c968	0.1960808
105	0x3c8950f3	0.016762232
106	0x3e0fa785	0.14028747
107	0x3c39b904	0.011335615
108	0x3d8186b0	0.06324518
109	0xbcb278a6	-0.021786045
110	0xbdf0e81c	-0.11763021
111	0x3d461db2	0.048368163
112	0x3d819881	0.06327916
113	0xbdab8f77	-0.08376973
114	0xbcd9285f	-0.026508508
115	0x3e038b41	0.1284609
116	0x3d784f3d	0.060622443
117	0x3d92f9fd	0.07176588
118	0xbd01d4c9	-0.03169707
119	0xbcae451c	-0.021273188
120	0xbcdd2792	-0.026996408
121	0xbe34b944	-0.17648798
122	0xbd74f000	-0.059799194
123	0xbd1b9c48	-0.03799084
124	0xbe02ba95	-0.12766488
125	0xbd818b55	-0.063254036
126	0x3e18185e	0.14853045
127	0xbc279a0c	-0.010229599
128	0x3e4370c6	0.19085988
129	0xbc8fe5e9	-0.017565684
130	0x3e28b4d9	0.16475238
131	0xbe4eb015	-0.20184357
132	0xbe2e2e11	-0.1700976
133	0xbe27e377	-0.16395365
134	0x3e2b4a61	0.16727592
135	0x3dce7a85	0.100819625
136	0x3e379d5d	0.17931123
137	0x3ea3bbf9	0.3197935
138	0xbd217c77	-0.03942534
139	0x3e998ab6	0.2998864
140	0x3e25d15b	0.16193144
141	0xbe5dcc3a	-0.21659938
142	0xbe83acbc	-0.25717723
143	0x3e9a5726	0.30144614
144	0x3e348b47	0.17631255
145	0x3bad3858	0.0052862577
146	0x3d585314	0.052813604
147	0xbdf1c690	-0.11805451
148	0xbe44fbc1	-0.19236661
149	0xbe22c122	-0.15893987
150	0x3d0182cb	0.031618875
151	0x3b5a33fd	0.0033295148
152	0xbe177c16	-0.14793429
153	0xbe787a34	-0.24265367
154	0x3e9d0d8d	0.306744
155	0x3e45e284	0.1932469
156	0xbe208fe1	-0.15679885
157	0xbd7a38d4	-0.06108935
158	0x3e164aa0	0.14676905
159	0xbded4095	-0.11584584
160	0xbd8fe9ae	-0.07026993
161	0x3e6df0cb	0.23236386
162	0xbe3b9b7a	-0.18321028
163	0xbe756b00	-0.23966599
164	0xbd47709b	-0.048691373
165	0x3dee5838	0.1163792
166	0x3e67eb4f	0.22648357
167	0x3e90a52d	0.2825102
168	0x3c65cffe	0.01402664
169	0x3e1a3460	0.15059042
170	0x3e5551d6	0.20831999
171	0xbd3e020b	-0.046388667
172	0xbc829256	-0.015938919
173	0xbe470a20	-0.19437456
174	0x3dbdaf91	0.09262002
175	0x3e2f7a79	0.17136563
176	0x3e6b6d43	0.22990899
177	0xbe05310e	-0.13006994
178	0xbe86cc1d	-0.263276
179	0x3e4b735c	0.19868225
180	0x3db64ae3	0.08901002
181	0x3e80e73d	0.2517642
182	0x3dbb8fe9	0.09158308
183	0x3ea20751	0.31646207
184	0xbe5f3fdd	-0.21801706
185	0xbe7a412d	-0.24438925
186	0x3c56faa6	0.013121283
187	0xbd09785e	-0.033562057
188	0x3d9b86d3	0.07594075
189	0xbc9d75ba	-0.019221175
190	0x3d057fff	0.03259277
191	0xbe347570	-0.17622924
192	0x3cfc86e6	0.030826043
193	0xbd98cacd	-0.07460556
194	0xbd17b7c4	-0.037040487
195	0x3de02335	0.10944215
196	0x3d30b18f	0.043138083
197	0x3e36b6f1	0.17843224
198	0xbbc8b218	-0.006124746
199	0x3d864991	0.065570004
200	0xbdb8ed34	-0.09029618
201	0xbe295ca1	-0.16539241
202	0x3d128acc	0.0357769
203	0xbdd1539b	-0.102210246
204	0xbd85ddc6	-0.065364406
205	0xbd883cf0	-0.06652248
206	0x3dc2a5df	0.09504294
207	0xbe2edd28	-0.17076552
208	0xbe37f232	-0.17963484
209	0x3cc68a39	0.024235832
210	0x3ca81b29	0.020520763
211	0xbbb0d059	-0.0053959307
212	0x3d693f41	0.05694509
213	0xbd17cc98	-0.03706035
214	0x3ca51fb7	0.020156724
215	0x3bca5bfc	0.006175516
216	0xbcccfe1b	-0.02502351
217	0xbc31a860	-0.010843366
218	0xbdaf78ee	-0.085679874
219	0xbd83f1b2	-0.06442584
220	0x3da469b7	0.08027976
221	0x3cc5d8f4	0.024151303
222	0xbd6c2c97	-0.05765971
223	0x3d95ba50	0.07310927
224	0x3de26b06	0.11055569
225	0xbe4bc316	-0.19898638
226	0x3d03acc6	0.03214719
227	0x3d33d152	0.043900795
228	0x3c97488c	0.01846721
229	0xbbf82c97	-0.007573675
230	0x3b2ffa53	0.0026852086
231	0xbd853021	-0.065033205
232	0xbd9896d2	-0.07450642
233	0x3d03c2b2	0.032168098
234	0xbd5b4937	-0.05353662
235	0xbdc37863	-0.09544446
236	0x3c74eed1	0.014949516
237	0x3dadd521	0.08487917
238	0xbd8a05d8	-0.06739396
239	0xbd8e5e2c	-0.069515556
240	0xbdb878c1	-0.09007407
241	0x3e0b9ac7	0.13633262
242	0xbc4ac282	-0.012375476
243	0xbe35d496	-0.17756876
244	0xbdbe5603	-0.09293749
245	0xbe77ac84	-0.24186903
246	0xbdc78235	-0.09741632
247	0xbe9f4084	-0.3110391
248	0x3d573693	0.05254228
249	0x3da94f3d	0.08267067
250	0x3e0ea27c	0.1392917
251	0x3da21190	0.07913506
252	0xbe1b0304	-0.15137869
253	0x3d88b2a8	0.06674701
254	0x3d723ea1	0.05914176
255	0xbbcbac34	-0.0062155966

mamba.layers.0.mixer.dt_proj.weight f4 [64, 2]
0	0xbee8fa8c	-0.45503652
1	0x3e3b430d	0.18287297
2	0x3e13368b	0.14376275
3	0x3d27bdb3	0.040952396
4	0x3ed29a6d	0.41133443
5	0xbf199eb3	-0.6000778
6	0x3e66ec5b	0.225511
7	0x3e8c035e	0.2734632
8	0x3eb3a7a3	0.35088834
9	0x3e5f0232	0.21778181
10	0x3b655fbf	0.0034999696
11	0x3ec5cc42	0.386324
12	0x3f229935	0.63515025
13	0x3f2f15f0	0.6839285
14	0xbdccb37f	-0.09995174
15	0x3b00a363	0.0019628636
16	0xbea327ae	-0.3186621
17	0x3e839fe8	0.25707936
18	0xbf01836c	-0.5059116
19	0xbeb79a4d	-0.3585991
20	0xbcd4bfac	-0.025970303
21	0xbe9466e9	-0.28984764
22	0xbeb050fd	-0.3443679
23	0x3ed34410	0.41262865
24	0xbecae531	-0.39627984
25	0x3e91609f	0.2839403
26	0x3ebe6f67	0.37194368
27	0xbe599c19	-0.21250953
28	0xbf2047b0	-0.62609386
29	0xbea01387	-0.31264898
30	0xbed90f04	-0.4239427
31	0xbf1743dc	-0.5908792
32	0xbe892ebe	-0.26793474
33	0xbe782f9c	-0.24236912
34	0x3eebe8a5	0.4607593
35	0xbe6652b6	-0.22492489
36	0xbe8eb9a2	-0.27876002
37	0xbf1ad9cf	-0.604886
38	0xbeae7125	-0.34070697
39	0xbe9f00a5	-0.3105518
40	0x3e52a87d	0.20572086
41	0xbd4d1641	-0.05007005
42	0x3f38313c	0.71950126
43	0xbe279534	-0.1636551
44	0xbededc27	-0.43527338
45	0xbf1845dd	-0.594816
46	0x3f113f19	0.56736904
47	0x3f109121	0.5647145
48	0xbe6cfe43	-0.23143868
49	0x3eac28e7	0.33624956
50	0x3f0bc01d	0.54590017
51	0x3f02453f	0.5088691
52	0xbe6faf88	-0.23406804
53	0xbe1577e3	-0.14596514
54	0xbe801e15	-0.2502295
55	0xbd173276	-0.036913358
56	0xbe7f9dc2	-0.24962524
57	0x3ea8cf24	0.32970536
58	0xbd75ce5a	-0.060011245
59	0x3e995a5b	0.29951748
60	0xbe289871	-0.16464402
61	0x3e58af39	0.21160592
62	0x3e456b7b	0.19279282
63	0x3f3bc970	0.73354244
64	0xbee06825	-0.43829456
65	0x3d9150b5	0.07095472
66	0xbd9dec96	-0.07711141
67	0x3e02712f	0.12738489
68	0xbf090366	-0.5352081
69	0xbe81db33	-0.25362548
70	0x3e67969a	0.22616044
71	0xbcb0bc22	-0.021574084
72	0x3daf793b	0.08568045
73	0xbefb6d25	-0.49106708
74	0xbeda4f16	-0.42638463
75	0x3f0aa6d9	0.5416084
76	0x3eaed5a1	0.3414736
77	0xbf577f81	-0.8417893
78	0xbed40dbb	-0.41416726
79	0x3dfac343	0.122442745
80	0xbe8916b1	-0.26775125
81	0xbf2c2808	-0.6724858
82	0x3ed4f322	0.41591746
83	0x3aef7236	0.001826829
84	0x3e5ea1df	0.21741436
85	0x3ecc3e37	0.39891216
86	0xbd4775cf	-0.048696335
87	0xbee84b71	-0.45370057
88	0xbeecfe81	-0.4628792
89	0xbd35ee29	-0.04441658
90	0xbed342fc	-0.41262043
91	0xbf02fb18	-0.5116439
92	0x3ebc26d1	0.36748365
93	0x3dbd4607	0.09241872
94	0xbe5b00c3	-0.2138701
95	0xbec407d3	-0.3828722
96	0xbcd265dc	-0.025683336
97	0xbe7b8236	-0.2456139
98	0xbeabe00d	-0.33569375
99	0x3e66a239	0.2252282
100	0x3ed71cf2	0.4201427
101	0xbf413260	-0.7546749
102	0xbdb11e7d	-0.08648393
103	0xbf2036f4	-0.6258385
104	0x3f15cffe	0.58520496
105	0x3f0d6fc8	0.5524869
106	0xbf009051	-0.5022021
107	0x3c8c3c47	0.017118586
108	0x3d3e3b54	0.0464433
109	0xbf01b9cb	-0.5067412
110	0x3e93b394	0.28847945
111	0x3f1e9d96	0.6195921
112	0x3e0afc7d	0.13572879
113	0xbe24a9d4	-0.1608041
114	0x3e226972	0.15860537
115	0xbce5eca7	-0.028066946
116	0x3f14de2b	0.581515
117	0xbe6d285c	-0.23159927
118	0x3e4ad6de	0.19808528
119	0x3f0e8eae	0.5568646
120	0xbe519af4	-0.20469266
121	0x3f136a6d	0.5758427
122	0xbe754260	-0.23951101
123	0x3efae2c0	0.49001122
124	0x3f2f1e34	0.6840546
125	0xbeae0a5d	-0.33992282
126	0xbed854f0	-0.42252302
127	0xbda42d39	-0.08016438

mamba.layers.0.mixer.dt_proj.bias f4 [64]
0	0xc03b00b1	-2.9219172
1	0xc0868067	-4.203174
2	0xc09e0a80	-4.9387817
3	0xc0a2f1c5	-5.092013
4	0xc030250a	-2.7522607
5	0xc028a61c	-2.6351385
6	0xc095e111	-4.683724
7	0xc0900aa2	-4.501298
8	0xc09734ad	-4.72518
9	0xc0b9a1e1	-5.8010106
10	0xc095cfc1	-4.6816106
11	0xc080ee22	-4.029069
12	0xc048ee96	-3.1395621
13	0xc00b9ba6	-2.181375
14	0xc08a66a2	-4.3250284
15	0xc0b9c207	-5.804935
16	0xc0b97fb5	-5.796839
17	0xc049f86d	-3.1557877
18	0xc00e533b	-2.22383
19	0xc09c036c	-4.8754177
20	0xc011d8f5	-2.278867
21	0xc07ef627	-3.983774
22	0xc015e819	-2.342291
23	0xc0b660c1	-5.699311
24	0xc0b806a1	-5.750809
25	0xc01152aa	-2.2706704
26	0xc06eab60	-3.72921
27	0xc0a96641	-5.293732
28	0xc08ca987	-4.3956943
29	0xc0a8666c	-5.2625027
30	0xc04f41c3	-3.2383888
31	0xc060bf07	-3.5116594
32	0xc0baa474	-5.832575
33	0xc05f1899	-3.4858763
34	0xc04d2601	-3.2054446
35	0xc0622d08	-3.5339985
36	0xc00c7f31	-2.1952631
37	0xc082e441	-4.090363
38	0xc0945dd5	-4.636454
39	0xc09d910c	-4.923956
40	0xc064b83b	-3.5737445
41	0xc00ce17e	-2.201263
42	0xc087fc3d	-4.249541
43	0xc0092853	-2.1430862
44	0xc0ae3880	-5.444397
45	0xc000141f	-2.001228
46	0xc074160a	-3.8138452
47	0xc0012db9	-2.0184157
48	0xc0a6a197	-5.2072253
49	0xc0b2644d	-5.5747437
50	0xc0bff967	-5.9991946
51	0xc08c1381	-4.377381
52	0xc079811f	-3.898506
53	0xc09774b8	-4.732998
54	0xc09db122	-4.9278727
55	0xc0ad9038	-5.423855
56	0xc090b16f	-4.5216594
57	0xbff6a71c	-1.9269748
58	0xc0a86174	-5.261896
59	0xc07baccf	-3.9324224
60	0xc0b6424e	-5.695594
61	0xc0750b22	-3.8288045
62	0xc08b3584	-4.3502827
63	0xc01e8482	-2.4768376
