saves_ar/soc_mamba_v3/model.pth (torch, 273786 bytes, 81 tensors)

input_proj.weight f4 [32, 12]
0	0xbd97aff2	-0.07406606
1	0xbe25d080	-0.16192818
2	0xbe0825a1	-0.13295604
3	0xbe55508a	-0.20831504
4	0xbd74ec0d	-0.059795428
5	0xbe001b28	-0.1251036
6	0x3ef2554e	0.47330707
7	0xbe76edc2	-0.24114135
8	0xbe5d43ed	-0.21607943
9	0xbd522b2a	-0.051310696
10	0x3c8ad377	0.016946537
11	0x3e5e6806	0.2171937
12	0x3e417c72	0.18895128
13	0xbe7f38a6	-0.24923953
14	0xbdd34741	-0.10316325
15	0x3d5eda24	0.054407254
16	0x3e842d57	0.25815842
17	0xbd8bf9c1	-0.06834746
18	0x3f24690f	0.64222807
19	0x3e7ab5dc	0.24483436
20	0x3e7483e1	0.23878433
21	0xbd0e1b49	-0.03469399
22	0x3e79562b	0.24349277
23	0x3e1c136d	0.15241785
24	0xbe4411d6	-0.19147429
25	0x3e333749	0.17501558
26	0xbd39b3af	-0.045337375
27	0x3dc480b8	0.09594864
28	0xbe1ce73d	-0.15322585
29	0x3df77eed	0.12084756
30	0x3e15f825	0.14645441
31	0x3d636c3d	0.055523146
32	0xbe4b2454	-0.19838077
33	0xbcf6e81e	-0.030139979
34	0x3ca33e74	0.01992724
35	0x3dbf0339	0.093267865
36	0xbd2d9dbf	-0.042386767
37	0x3dd932de	0.10605405
38	0x3c0321ff	0.008003711
39	0xbd0bafd5	-0.034103233
40	0x3e48fab7	0.1962689
41	0x3e07b1a1	0.13251354
42	0xbf24a167	-0.6430878
43	0xbdb9e87d	-0.09077547
44	0xbd204134	-0.039124683
45	0x3d2965d9	0.041356895
46	0xbd75998e	-0.059960894
47	0x3dcc266d	0.09968267
48	0x3de1e30a	0.110296324
49	0xbe45d8b8	-0.19320953
50	0x3e26ae71	0.16277482
51	0x3e829385	0.25503173
52	0x3ea2343f	0.31680486
53	0x3e85de27	0.2614605
54	0xbd0cc1f8	-0.03436467
55	0xbe687c41	-0.22703649
56	0xbe3c4f07	-0.18389522
57	0x3e1f0596	0.15529475
58	0xbc97bbdc	-0.018522196
59	0x3db64cde	0.0890138
60	0xbd9fdac6	-0.078053996
61	0x3dd0aabf	0.10188817
62	0x3e804359	0.25051382
63	0xbdbe96ab	-0.093060814
64	0x3e77cda0	0.24199533
65	0xbe2b6914	-0.16739303
66	0x3ea2e17c	0.31812656
67	0xbe69196a	-0.22763601
68	0xbe5b0ff7	-0.21392809
69	0xbe3d49b0	-0.18485141
70	0xbc32020b	-0.010864745
71	0x3ddc33fc	0.10752103
72	0x3d47f8b1	0.048821155
73	0x3e7fcca0	0.24980402
74	0x3e553e33	0.20824508
75	0x3e019726	0.12655315
76	0xbbc85b91	-0.006114431
77	0x3e3f0125	0.1865278
78	0x3e16299a	0.14664307
79	0x3d3f7ec7	0.046751764
80	0x3c00e8fb	0.007868047
81	0x3b88eb87	0.0041784677
82	0x3e6b747f	0.22993658
83	0xbd9ab94b	-0.07554873
84	0x3d9a7b4c	0.07543048
85	0xbe23502a	-0.15948549
86	0xbe966e3b	-0.29380974
87	0xbc4d86c7	-0.01254434
88	0xbe984204	-0.29737866
89	0xbe4ea77b	-0.20181076
90	0x3dc0ccfc	0.09414098
91	0x3dd621eb	0.10455688
92	0xbdf1ca15	-0.11806122
93	0x3dd53062	0.10409619
94	0x3dfc89e6	0.123309895
95	0xbdda4f0b	-0.106596075
96	0xbdd98972	-0.10621919
97	0xbaced943	-0.0015781302
98	0xbe367ca0	-0.17820978
99	0x3e37270e	0.17885992
100	0x3e830e8d	0.2559704
101	0x3e6a43fe	0.228775
102	0xbe9cfc34	-0.30661166
103	0x3e06fe14	0.1318286
104	0x3e04403d	0.1291513
105	0xbe5a4ecf	-0.21319126
106	0xbde46bb3	-0.111533545
107	0xbdbe6571	-0.09296692
108	0xbda92886	-0.08259682
109	0xbe1c0e62	-0.15239862
110	0xbe6f79e2	-0.23386338
111	0xbe92aa70	-0.28645658
112	0xbd9f85d0	-0.077891946
113	0xbd92f3e1	-0.071754225
114	0x3dca4b12	0.098776
115	0xbccf4978	-0.025303587
116	0x3e573e5b	0.2101988
117	0xbb65c57b	-0.0035060334
118	0x3d63ee5b	0.055647235
119	0xbdc7b656	-0.09751575
120	0x3df77fd6	0.1208493
121	0x3e38c617	0.18044315
122	0xbdb8450c	-0.08997545
123	0xbd845fd9	-0.06463594
124	0x3e6394e0	0.2222476
125	0x3e0b7df0	0.1362226
126	0x3edddf35	0.43334356
127	0x3ddad13f	0.10684442
128	0xbe10a13a	-0.14124003
129	0xbe1fb463	-0.15596156
130	0x3d06c67d	0.032904137
131	0xbe5fb3a0	-0.21845865
132	0x3cd688c3	0.02618826
133	0x3e054701	0.13015367
134	0xbe3796fe	-0.17928693
135	0xbdc01e59	-0.09380788
136	0x3d3bb8c7	0.045830514
137	0xbcd8c471	-0.026460858
138	0xbbdae3d3	-0.006679991
139	0xbc57f33f	-0.013180553
140	0x3e445f96	0.19177088
141	0x3de2fd20	0.11083436
142	0x3e14e0b2	0.1453884
143	0x3c813e0c	0.015776657
144	0xbe11ecd8	-0.14250505
145	0xbe142a7b	-0.1446933
146	0xbd53ceb1	-0.05171079
147	0xbe5aee5c	-0.2137999
148	0xbe3cb97f	-0.18430136
149	0x3dd037f2	0.10166921
150	0xbe662581	-0.22475244
151	0xbdd763f9	-0.10517115
152	0xbc32cac8	-0.010912605
153	0xbe1a28fd	-0.15054698
154	0xbddb7f77	-0.10717671
155	0xbd79aca4	-0.06095566
156	0x3e4d334e	0.20039102
157	0xbe2dad9c	-0.16960758
158	0x3bbb988c	0.005724972
159	0xbc965ae5	-0.018353889
160	0x3d4c77ce	0.049918942
161	0x3de4f4b8	0.11179489
162	0xbe5550fd	-0.20831676
163	0x3c910ef0	0.017707318
164	0xbe0a2082	-0.13488963
165	0xbbe4b480	-0.006979525
166	0xbae5fa6c	-0.0017545945
167	0xbe6738a4	-0.225802
168	0xbd6c625d	-0.057710994
169	0xbdf2143f	-0.11820268
170	0x3d3a54eb	0.04549114
171	0xbdffb70b	-0.124860846
172	0xbd8753ed	-0.066078044
173	0x3e88c6a9	0.26714066
174	0x3ece92cc	0.40346372
175	0xbe305627	-0.17220365
176	0xbe4155cc	-0.18880385
177	0xbca4d203	-0.020119673
178	0x3da6ed8a	0.08150776
179	0xbe23c911	-0.1599467
180	0x3d801fec	0.062560886
181	0x3de17e01	0.110103615
182	0x3e26ee84	0.16301924
183	0x3e168c59	0.14701976
184	0xbdd0ba98	-0.1019184
185	0x3e592467	0.21205293
186	0xbcde22ad	-0.027116144
187	0x3e1746f7	0.14773165
188	0x3db4e5ba	0.08832879
189	0x3e0bd363	0.13654856
190	0x3d561b6b	0.05227224
191	0xbd68d927	-0.056847718
192	0x3ddeec1d	0.10884879
193	0x3d26c997	0.040719595
194	0x3c0d344a	0.008618424
195	0xbd933a63	-0.07188871
196	0xbe340e9d	-0.175837
197	0x3e15700e	0.14593527
198	0xbe04a522	-0.12953618
199	0xbdbe5096	-0.09292714
200	0x3d2b9876	0.041893445
201	0xbde458cd	-0.1114975
202	0x3e611ed5	0.21984418
203	0xbca0ba4c	-0.019620083
204	0x3e303b2f	0.17210077
205	0x3e04383c	0.12912077
206	0x3e70cfce	0.23516771
207	0x3d85a550	0.065256715
208	0x3e8f1a69	0.27949837
209	0xbdf357d4	-0.11881986
210	0xbe9c61a6	-0.3054325
211	0x3e0a060f	0.13478874
212	0x3cf4a814	0.029865302
213	0xbd2bdba0	-0.041957498
214	0xbdd12922	-0.102129236
215	0x3be401c3	0.006958218
216	0x3d880d77	0.06643193
217	0xbdd86c61	-0.10567547
218	0x3db01efb	0.08599659
219	0xbdd62c4d	-0.104576685
220	0x3d87518c	0.06607351
221	0x3e078ceb	0.1323735
222	0xbed40ad5	-0.41414514
223	0x3e5c0d91	0.2148955
224	0x3e7ccaa5	0.24686678
225	0xbe576710	-0.21035409
226	0x3de83257	0.113377266
227	0xbd4c0336	-0.04980775
228	0xbc18a89c	-0.009317543
229	0x3e23c9d2	0.15994957
230	0xbeb2e2d5	-0.34938684
231	0xbe9a26f2	-0.30107838
232	0xbeddbb14	-0.43306792
233	0xbe9555e8	-0.29167104
234	0xbd11c63b	-0.035589438
235	0x3c333a05	0.010939126
236	0x3e2fd0af	0.1716945
237	0xbd8c773d	-0.068586804
238	0x3e259450	0.16169858
239	0xbd7e0558	-0.062016815
240	0xbd7f13c7	-0.06227472
241	0xbe71c6e2	-0.23611024
242	0xbe080c3b	-0.13285916
243	0x3e476728	0.19472945
244	0xbdaf9238	-0.08572811
245	0x3e82e0c4	0.25562108
246	0x3e005ae5	0.12534674
247	0xbcf7eae8	-0.03026338
248	0x3d805189	0.062655516
249	0x3d26ac1c	0.04069148
250	0xbcec6f88	-0.028861776
251	0xbe4b5b66	-0.19859084
252	0x3d739fa0	0.059478402
253	0x3e54d161	0.20782997
254	0xbeb4a0b4	-0.35278857
255	0xbe707679	-0.23482694

input_proj.bias f4 [32]
0	0x3cc9e4b9	0.024645196
1	0xbe0d92d7	-0.13825546
2	0xbdfa91f9	-0.12234873
3	0xbd8cb9ee	-0.06871401
4	0x3d393dd9	0.045225
5	0xbe193a41	-0.14963628
6	0xbd4b0d30	-0.049573123
7	0x3db6edd0	0.08932078
8	0x3e1386aa	0.14406839
9	0xbe1545fd	-0.1457748
10	0xbe7acdde	-0.24492595
11	0x3de24432	0.110481635
12	0x3dab5872	0.08366479
13	0xbe774c58	-0.24150217
14	0xbdeae4df	-0.11469435
15	0xbd942dc4	-0.072352916
16	0xbe3489f3	-0.17630748
17	0x3e22849c	0.15870899
18	0xbe326e74	-0.17424947
19	0x3efc9972	0.4933582
20	0xbdb00237	-0.085941724
21	0xbe1c50a2	-0.15265134
22	0x3d021eab	0.03176753
23	0xbdd5d27b	-0.104405366
24	0x3ebfd5eb	0.37467894
25	0x3de044ec	0.10950646
26	0xbe42396b	-0.18967216
27	0x3e096b38	0.13419807
28	0x3c6c5d69	0.014426568
29	0xbdceca92	-0.10097231
30	0x3d6242f0	0.055239618
31	0x3e48522e	0.19562599

input_norm.weight f4 [32]
0	0x3f61ef40	0.8825569
1	0x3f753bb9	0.95794255
2	0x3f451335	0.7698243
3	0x3f8fc351	1.1231481
4	0x3f612ee2	0.8796216
5	0x3f2fcca0	0.6867161
6	0x3f5b1ddc	0.85592437
7	0x3f60a9df	0.877592
8	0x3f4d3165	0.80153495
9	0x3f57bb8e	0.8427056
10	0x3f44e4d2	0.7691165
11	0x3f59ac04	0.850281
12	0x3f4b9180	0.7951889
13	0x3f59d947	0.85097164
14	0x3f63f42d	0.8904446
15	0x3f58276c	0.84435153
16	0x3f3cb2e1	0.7371045
17	0x3f57a666	0.8423828
18	0x3f6ac356	0.9170431
19	0x3f83ad40	1.0287247
20	0x3f54457b	0.8291852
21	0x3f802d35	1.0013796
22	0x3f695f71	0.9116126
23	0x3f516fa9	0.81811005
24	0x3f72a119	0.94777066
25	0x3f647d2e	0.8925351
26	0x3f5eaa41	0.86978537
27	0x3f56f950	0.8397417
28	0x3f576f7f	0.84154505
29	0x3f4480ce	0.7675904
30	0x3f5ef177	0.87087196
31	0x3f552cff	0.83271784

input_norm.bias f4 [32]
0	0xbc5353f0	-0.01289843
1	0x3ca4035d	0.020021135
2	0x3c66a029	0.014076271
3	0xbc53c7a1	-0.012926013
4	0x3c8186d4	0.015811361
5	0x3c8e91b6	0.017403465
6	0x3ae26175	0.0017271476
7	0xbcd1847f	-0.025575874
8	0xbc4bf4dd	-0.012448517
9	0xbca3d734	-0.020000078
10	0xbd1e53da	-0.038654186
11	0xbcbc151d	-0.022959286
12	0xbd1f57a5	-0.038901944
13	0xbc0892de	-0.008335797
14	0xbb89cc18	-0.004205238
15	0x3c7be776	0.015375009
16	0x3cda4020	0.026641905
17	0x3c146636	0.009057572
18	0xbc674449	-0.014115402
19	0x3d2ca286	0.042147182
20	0xbd4c247d	-0.049839485
21	0xbc20daef	-0.009817823
22	0xbc1726c4	-0.009225551
23	0x3bff0358	0.007782381
24	0xbbc13cdc	-0.0058971476
25	0x3b6e930f	0.0036403572
26	0xbbc248a3	-0.005929069
27	0xbd3c1666	-0.0459198
28	0x3b8085c4	0.003922196
29	0x3c9eb4c4	0.019373305
30	0x3bef85a5	0.007309633
31	0xbc99e841	-0.018787505

mamba.layers.0.mixer.A_log f4 [64, 16]
0	0xbbc00665	-0.0058601373
1	0x3f163249	0.5867048
2	0x3f752dd9	0.9577308
3	0x3fa1135e	1.2584035
4	0x3fb5a67a	1.419143
5	0x3fca780b	1.5817884
6	0x3fdfbcc7	1.7479485
7	0x3fe9cb0b	1.8265089
8	0x3ff15bd9	1.8856155
9	0x4001ec92	2.030064
10	0x400613c8	2.0949574
11	0x4007fdbb	2.1248615
12	0x400c627c	2.193511
13	0x400f16f3	2.2357757
14	0x4019d84f	2.4038274
15	0x40181dd7	2.3768213
16	0xbcf28b74	-0.029607512
17	0x3f16076c	0.58605075
18	0x3f733b1e	0.9501208
19	0x3f98326a	1.1890385
20	0x3fa2059b	1.2657961
21	0x3fbc7542	1.4723284
22	0x3fcc0f1f	1.5942115
23	0x3fd93994	1.6970696
24	0x3fde14c2	1.7350085
25	0x3ff80a28	1.93781
26	0x3ff0a9ab	1.8801779
27	0x4000228b	2.0021083
28	0x4010d418	2.2629452
29	0x400ef95d	2.23397
30	0x40175b08	2.364931
31	0x401f3434	2.4875612
32	0xbccdc9bd	-0.02512061
33	0x3f15ffb8	0.5859332
34	0x3f7127d0	0.94201374
35	0x3f974b26	1.1819808
36	0x3fadf123	1.3589214
37	0x3fc4c616	1.5372951
38	0x3fd4fda0	1.66399
39	0x3fe2e81d	1.7727085
40	0x3ff04515	1.8771082
41	0x3ffad89e	1.9597356
42	0x40039e74	2.0565462
43	0x400737d7	2.1127832
44	0x400c306e	2.190456
45	0x40101f8a	2.251925
46	0x4012ff9a	2.2968507
47	0x40176f18	2.3661556
48	0xbdc0a3d3	-0.09406247
49	0x3efe8adb	0.49715313
50	0x3f5d9fbc	0.8657186
51	0x3f8fa7be	1.1223066
52	0x3fa71985	1.3054663
53	0x3fc005d5	1.500178
54	0x3fcebde6	1.6151702
55	0x3fe1102b	1.7583059
56	0x3fee1a88	1.8601847
57	0x400102c1	2.015793
58	0x4003a885	2.0571606
59	0x4006e480	2.1076965
60	0x400fedde	2.2488933
61	0x4011914f	2.274494
62	0x401684df	2.3518598
63	0x401d26a4	2.4554834
64	0xbe12005d	-0.14257951
65	0x3f05fcc0	0.5233879
66	0x3f66a9fa	0.90103114
67	0x3f9df4bb	1.2340311
68	0x3fb1b9a2	1.3884776
69	0x3fc57d74	1.542891
70	0x3fd9b854	1.7009377
71	0x3fe094e8	1.7545443
72	0x3fea23d9	1.829219
73	0x40022810	2.0336952
74	0x4002787a	2.0386033
75	0x40030a86	2.0475173
76	0x40108caf	2.2585866
77	0x400fef80	2.248993
78	0x4015eaf8	2.3424664
79	0x401d1f8a	2.45505
80	0xbd04bd16	-0.03240689
81	0x3f0fe434	0.56207585
82	0x3f6e3cfd	0.9306181
83	0x3f9759f1	1.1824323
84	0x3fade18f	1.358446
85	0x3fc3c9de	1.529598
86	0x3fd5099d	1.6643559
87	0x3fe2c626	1.771672
88	0x3ff0094f	1.8752841
89	0x3ffc31c0	1.9702682
90	0x40035130	2.0518303
91	0x4007551e	2.1145701
92	0x400c2af5	2.190122
93	0x400ff339	2.2492201
94	0x4013edc8	2.311388
95	0x40178609	2.3675559
96	0xbdcec3d5	-0.10095946
97	0x3f0003c8	0.5000577
98	0x3f344bdd	0.7042826
99	0x3fa3e3d0	1.2803898
100	0x3f9e14c7	1.2350091
101	0x3fc1d5b7	1.5143346
102	0x3fd682d0	1.6758671
103	0x3fd7c9d7	1.6858472
104	0x3fdee67a	1.7414086
105	0x4002fff3	2.046872
106	0x3ff36f35	1.9018313
107	0x3fffa75a	1.9972947
108	0x400d9050	2.2119331
109	0x400b6ba2	2.1784444
110	0x4020f106	2.514711
111	0x401ba33f	2.4318388
112	0x3cd944a2	0.026521984
113	0x3f1bd0df	0.60865587
114	0x3f6e7d03	0.931595
115	0x3f975b54	1.1824746
116	0x3fb04f1c	1.3774142
117	0x3fc37995	1.5271479
118	0x3fd47d9a	1.660083
119	0x3fe353ce	1.775995
120	0x3ff03313	1.8765587
121	0x3ffb497f	1.9631804
122	0x40033c37	2.0505502
123	0x4007e381	2.1232607
124	0x400bf55a	2.18685
125	0x400ff2be	2.2491908
126	0x4013cf5a	2.3095307
127	0x40173356	2.3625083
128	0x3cf6c257	0.030121965
129	0x3f15a54e	0.5845536
130	0x3f740dcd	0.9533356
131	0x3f94835c	1.1602588
132	0x3fae04df	1.3595237
133	0x3fc226f6	1.516814
134	0x3fd1ca58	1.6389875
135	0x3fe221e0	1.7666588
136	0x3fee1759	1.8600875
137	0x3ff8e049	1.9443446
138	0x40009c6c	2.0095472
139	0x400734c4	2.1125956
140	0x400be57f	2.1858823
141	0x400fd708	2.2474995
142	0x40142d83	2.3152778
143	0x40186bf9	2.3815901
144	0x3d287a23	0.041132104
145	0x3f1ad999	0.6048828
146	0x3f72925f	0.94754595
147	0x3f992607	1.196473
148	0x3fb02c3c	1.3763499
149	0x3fc52f47	1.5405053
150	0x3fd79ed6	1.6845348
151	0x3fe34859	1.7756454
152	0x3ff15a6a	1.8855717
153	0x3ffd2498	1.9776793
154	0x4005a2cb	2.088061
155	0x40079dc0	2.1190033
156	0x400b4783	2.1762397
157	0x400f7f6e	2.2421527
158	0x401287e5	2.2895443
159	0x40149b6a	2.3219857
160	0x3dcfb870	0.101426005
161	0x3f224539	0.63386875
162	0x3f76ff00	0.9648285
163	0x3f989102	1.1919253
164	0x3fb35c08	1.4012461
165	0x3fc4ca84	1.5374303
166	0x3fd5bb92	1.6697867
167	0x3fe4216b	1.7822698
168	0x3ff1df34	1.8896241
169	0x3ffa5b40	1.9559097
170	0x4003a6f4	2.057065
171	0x40088605	2.13318
172	0x400b5ef8	2.1776714
173	0x400ff34b	2.2492244
174	0x40132d21	2.2996294
175	0x4015cc62	2.3405995
176	0x3d48900d	0.048965503
177	0x3f16c4e2	0.5889417
178	0x3f7ca672	0.98691475
179	0x3f951b14	1.1648889
180	0x3faf6f6a	1.3705876
181	0x3fc41e09	1.5321666
182	0x3fd15e09	1.6356822
183	0x3fe27e44	1.7694783
184	0x3fef9c75	1.8719622
185	0x3ff383be	1.902458
186	0x4000e794	2.0141344
187	0x4007cfcd	2.1220582
188	0x4008a6e8	2.1351871
189	0x40104338	2.2541027
190	0x401241df	2.2852705
191	0x4014c02e	2.3242297
192	0x3d8d0dbb	0.068873845
193	0x3f21566b	0.6302249
194	0x3f77f337	0.9685549
195	0x3f97c025	1.1855513
196	0x3fb878b4	1.4411836
197	0x3fc3c70f	1.5295123
198	0x3fd53a57	1.6658429
199	0x3fe793c5	1.8091971
200	0x3ff493bf	1.9107589
201	0x3ff5bb54	1.9197793
202	0x4002f4b8	2.0461864
203	0x400afdd1	2.1717417
204	0x4007c220	2.1212234
205	0x400f6c3c	2.240981
206	0x40110d6e	2.2664447
207	0x40124f91	2.2861063
208	0xbc098b7c	-0.008395072
209	0x3f1832c5	0.5945247
210	0x3f6f6b0f	0.93522733
211	0x3f96bf90	1.177721
212	0x3fafabd5	1.3724314
213	0x3fc2f866	1.5232055
214	0x3fd40526	1.6564071
215	0x3fe2d9fc	1.7722774
216	0x3fef7cf3	1.8710006
217	0x3ffb9a03	1.9656376
218	0x4002c68c	2.0433683
219	0x400783c0	2.1174164
220	0x400c1ff1	2.1894495
221	0x400fecbd	2.2488244
222	0x4013d6a3	2.3099754
223	0x4017b421	2.3703692
224	0x3c1170d2	0.008876996
225	0x3f1822c8	0.5942807
226	0x3f709868	0.93982553
227	0x3f979577	1.1842488
228	0x3fb1056d	1.3829781
229	0x3fc34cb2	1.525778
230	0x3fd4d4ff	1.6627501
231	0x3fe36bff	1.7767333
232	0x3ff02011	1.8759786
233	0x3ffb1b38	1.9617682
234	0x40032112	2.0488935
235	0x4007c084	2.1211252
236	0x400b5f03	2.177674
237	0x400fd872	2.2475858
238	0x40133b7b	2.3005054
239	0x40162db3	2.3465393
240	0x3c05c98c	0.008165728
241	0x3f17a788	0.5924001
242	0x3f70169c	0.937845
243	0x3f976583	1.1827854
244	0x3faff228	1.3745775
245	0x3fc38ba5	1.5276991
246	0x3fd46fdb	1.6596636
247	0x3fe2e644	1.7726521
248	0x3fefd682	1.8737338
249	0x3ffaac8f	1.9583911
250	0x4002d0cb	2.0439937
251	0x40078d63	2.1180046
252	0x400b27dd	2.174308
253	0x400fb038	2.2451305
254	0x4013303f	2.2998197
255	0x4015e655	2.3421834

mamba.layers.0.mixer.D f4 [64]
0	0x3f5a9852	0.8538867
1	0x3f88af16	1.0678432
2	0x3f6a0b73	0.9142372
3	0x3f7f4619	0.99716336
4	0x3f5b8b11	0.85759073
5	0x3f6869fe	0.9078673
6	0x3f67d8c6	0.90565145
7	0x3f55ecae	0.8356427
8	0x3f81dd84	1.0145726
9	0x3f627e33	0.88473815
10	0x3f5b11e1	0.85574156
11	0x3f44ff98	0.76952505
12	0x3f5f0c9e	0.8712863
13	0x3f62028d	0.8828514
14	0x3f54d6b9	0.8314014
15	0x3f802c66	1.0013549
16	0x3f60639a	0.8765198
17	0x3f773421	0.9656392
18	0x3f497c21	0.7870503
19	0x3f5b2ffe	0.85620105
20	0x3f5ff533	0.8748352
21	0x3f89caec	1.0765052
22	0x3f57e877	0.8433909
23	0x3f6119d0	0.8793001
24	0x3f6919bb	0.91054887
25	0x3f8ca09e	1.0986516
26	0x3f84d9fb	1.0379022
27	0x3f72e76e	0.94884384
28	0x3f7c8dd1	0.98653895
29	0x3f5cd0ac	0.8625591
30	0x3f567d7a	0.8378521
31	0x3f7b30ed	0.9812153
32	0x3f6fb7c5	0.93639785
33	0x3f911c11	1.133669
34	0x3f6b0442	0.9180337
35	0x3f6ad198	0.91726065
36	0x3f70e1c3	0.94094485
37	0x3f697ab4	0.91202855
38	0x3f703b3d	0.9384039
39	0x3f72e651	0.94882685
40	0x3f4fb74a	0.8113905
41	0x3f511214	0.8166821
42	0x3f8023d1	1.001093
43	0x3f542624	0.828707
44	0x3f826d23	1.0189556
45	0x3f534637	0.82529014
46	0x3f678b55	0.9044698
47	0x3f4601ac	0.773463
48	0x3f768299	0.96293026
49	0x3f746073	0.9545967
50	0x3f90e8ef	1.1321086
51	0x3f5a52bb	0.85282487
52	0x3f62352a	0.8836237
53	0x3f5c8147	0.8613476
54	0x3f8c795c	1.0974536
55	0x3f4ed800	0.8079834
56	0x3f5942ab	0.8486735
57	0x3f7d1201	0.98855597
58	0x3f489824	0.7835715
59	0x3f7999bd	0.9750021
60	0x3f68c593	0.90926474
61	0x3f7b7632	0.98227227
62	0x3f39c319	0.7256332
63	0x3f3c4875	0.7354806

mamba.layers.0.mixer.in_proj.weight f4 [128, 32]
0	0x3dbf129e	0.09329723
1	0xbdc67d7d	-0.09691904
2	0xbe010b6b	-0.12602012
3	0xbe1ea8aa	-0.15494028
4	0x3c050f5c	0.008121338
5	0xbe05023f	-0.12989138
6	0xbe0d4387	-0.13795291
7	0xba8de41b	-0.0010825427
8	0xbcd8db51	-0.026471766
9	0x3dfbf12f	0.123018615
10	0x3bdd02d5	0.0067447224
11	0xbd26b26d	-0.040697504
12	0x3e08bdaa	0.13353601
13	0x3e602a62	0.21891168
14	0x3e6d7778	0.23190105
15	0xbe728496	-0.2368339
16	0xbdd8c4fa	-0.10584445
17	0xbe407369	-0.18794025
18	0x3e474f6f	0.19463895
19	0xbe006c67	-0.12541352
20	0xbd233fc4	-0.039855734
21	0x3d9384fe	0.072031006
22	0xbc92e4d3	-0.017931378
23	0xbe579030	-0.21051097
24	0x3e413fb0	0.18871951
25	0xbd2624e5	-0.04056253
26	0x3e6cebfb	0.23136894
27	0xbd201abb	-0.039087992
28	0xbe148ace	-0.14506075
29	0xbded64e2	-0.115915075
30	0xbdf22110	-0.118227124
31	0x3d86f7aa	0.06590207
32	0x3e0c8c8a	0.13725486
33	0x3e9ce488	0.30643106
34	0xbe0f7f8c	-0.14013499
35	0xbe862801	-0.26202396
36	0x3ec571a2	0.38563257
37	0x3dc5d784	0.09660247
38	0x3de86c45	0.11348776
39	0xbcc7339d	-0.024316603
40	0x3d212da0	0.039350152
41	0x3e389b47	0.18027984
42	0x3d7693b9	0.060199473
43	0xbbd01120	-0.0063496977
44	0xbda26e3f	-0.07931184
45	0x3d8422a5	0.064519204
46	0x3ea93b24	0.33052933
47	0x3d986a7c	0.07442185
48	0xbddc4749	-0.10755784
49	0xbbf68426	-0.0075230775
50	0xbd2b3eee	-0.04180806
51	0xbeaaf504	-0.33390057
52	0x3d722fb8	0.05912754
53	0xbec9c4ba	-0.39407903
54	0x3c3a503a	0.011371667
55	0xbdc4d022	-0.09610011
56	0xbeb9e74a	-0.36309272
57	0x3a056210	0.000508816
58	0xbcb221b1	-0.021744581
59	0xbe1c0852	-0.15237549
60	0xbd21da37	-0.039514747
61	0xbaea7f02	-0.0017890634
62	0x3df33236	0.11874811
63	0xbe9e091a	-0.3086632
64	0x3d95a168	0.073061764
65	0xbe6026da	-0.2188982
66	0x3a15b769	0.0005711229
67	0x3bca84b0	0.0061803684
68	0xbd93b710	-0.07212651
69	0x3c9bf262	0.019036476
70	0x3e09b696	0.13448557
71	0xbe187ca6	-0.148913
72	0x3d5a844e	0.05334883
73	0x3d387de1	0.045041922
74	0x3decee40	0.1156888
75	0x3d27bc4a	0.04095105
76	0xbe110b09	-0.14164366
77	0xbe015ec6	-0.1263381
78	0xbd8be974	-0.06831637
79	0x3dfdb7ea	0.123885944
80	0xbc266914	-0.0101568885
81	0xbc7f6afe	-0.015589474
82	0xbe0a560d	-0.13509388
83	0x3e735841	0.23764135
84	0xbe3d4122	-0.18481877
85	0x3cad3db3	0.021147585
86	0xbbc26b1b	-0.005933178
87	0x3e1b622f	0.15174173
88	0xbbe42c7d	-0.006963311
89	0x3d899e0c	0.06719598
90	0xbd7043ba	-0.05865834
91	0xbcc978da	-0.02459376
92	0x3d573167	0.052537348
93	0x3e295fea	0.16540495
94	0xbc077b10	-0.0082690865
95	0x3e136b45	0.14396389
96	0xbcec931d	-0.028878743
97	0x3c8a5787	0.01688744
98	0x3b212523	0.0024588786
99	0xbe09f880	-0.13473701
100	0x3e240553	0.16017656
101	0x3de07ddb	0.10961505
102	0x3e121495	0.14265664
103	0xbe885c19	-0.26632765
104	0x3c08444c	0.0083170645
105	0xbe432f31	-0.19060971
106	0x3e3f50dc	0.18683189
107	0x3dac60b7	0.084168844
108	0xbe4be59f	-0.19911812
109	0xbe76d466	-0.24104461
110	0x3c29cf4b	0.010364364
111	0x3d7bf912	0.06151683
112	0xbdf66d39	-0.12032551
113	0xbdee6cca	-0.116418436
114	0xbe4d2372	-0.20033053
115	0xbda3da73	-0.0800065
116	0xbc99b5d1	-0.018763455
117	0xbe552cf4	-0.2081793
118	0xbe5494ef	-0.20759939
119	0x3e25a582	0.16176417
120	0xbe370b11	-0.17875315
121	0x3d0bae7d	0.034101952
122	0xbd33ee19	-0.04392824
123	0x3e380ec3	0.17974381
124	0x3d005c9a	0.03133831
125	0x3e0fc704	0.14040762
126	0x3e01697a	0.12637892
127	0xbe41d1a3	-0.18927626
128	0x3e36e3a3	0.17860274
129	0x3e02710f	0.12738441
130	0xbadb04bb	-0.0016709784
131	0xbead9c6f	-0.33908412
132	0xbe9e9fe6	-0.30981368
133	0x3d0c0c2a	0.034191288
134	0x39cd6b2f	0.00039180505
135	0x3c39c5e7	0.0113386875
136	0xbe1e43a8	-0.15455496
137	0x3e49732a	0.19672838
138	0x3de476c1	0.11155463
139	0xbdf6c8e5	-0.12050036
140	0xbd3973eb	-0.045276564
141	0xbd85bacf	-0.065297715
142	0xbce83568	-0.028345779
143	0xbe2e0190	-0.16992784
144	0xbe143ef9	-0.14477147
145	0xbd66a98f	-0.056314047
146	0xbddf1a0b	-0.10893639
147	0x3db8bc0e	0.090202436
148	0xbcfe0366	-0.03100748
149	0xbcc79616	-0.024363559
150	0x3e306be8	0.17228663
151	0xbe171fba	-0.14758196
152	0x3db857e9	0.090011425
153	0x3e06e007	0.13171397
154	0xbc00f487	-0.0078708
155	0xbe0af3cd	-0.13569565
156	0x3bfa9e4b	0.0076482645
157	0xbd9352b5	-0.071935095
158	0xbdfeafc6	-0.1243587
159	0x3da28091	0.07934678
160	0x3dd78f4d	0.10525379
161	0x3d68fef2	0.05688376
162	0xbda02b2f	-0.078207366
163	0xbc2b6f6d	-0.010463578
164	0xbdc09d35	-0.09404985
165	0x3daee40f	0.085395925
166	0xbcc1d15f	-0.023659406
167	0x3e1cf364	0.15327221
168	0x3dc40cb2	0.09572734
169	0x3db45779	0.088057466
170	0xbd1ead60	-0.038739562
171	0xbe2855c6	-0.1643897
172	0x3e51f771	0.20504548
173	0xbca3548d	-0.019937778
174	0xbae58e9c	-0.0017513814
175	0xbde25d92	-0.11053003
176	0x3e1725ff	0.14760588
177	0xbde2c88c	-0.110734075
178	0x3dcd32c0	0.100194454
179	0xbe3e06e5	-0.18557318
180	0x3d70ef79	0.05882213
181	0xbe0deefe	-0.138607
182	0xbdee9a0f	-0.11650478
183	0xbe59c352	-0.21265915
184	0xbdbc0fe3	-0.09182718
185	0xbe00e280	-0.12586403
186	0x3dc07af5	0.09398452
187	0x3dbdda07	0.09270101
188	0x3d78862e	0.06067484
189	0xbc49dffe	-0.01232147
190	0xbdcd4d9b	-0.10024568
191	0x3d5465cb	0.05185489
192	0xbe7db653	-0.24776582
193	0x3c472648	0.012155123
194	0x3d8208bf	0.063493244
195	0x3e47db62	0.19517282
196	0x3e19cb81	0.15019037
197	0xbdbb5264	-0.09146574
198	0x3e28ea25	0.16495569
199	0xbe880bf8	-0.2657163
200	0xbc9eacc5	-0.019369492
201	0xbdc6fb41	-0.09715892
202	0x3e4bf77b	0.19918625
203	0x3e0354bb	0.12825291
204	0xbe99a9d6	-0.30012387
205	0xbe490f69	-0.19634785
206	0xbd57071f	-0.052497026
207	0x3e75be41	0.23998357
208	0xbdbaceb4	-0.09121457
209	0x3e287f80	0.16454887
210	0xbe6770ed	-0.22601672
211	0x3d9f9003	0.0779114
212	0xbdfdeed2	-0.12399067
213	0xbe406872	-0.18789843
214	0xbdf8a934	-0.12141648
215	0x3d2897ad	0.041160274
216	0xbe8007b9	-0.25005892
217	0x3d949052	0.072540894
218	0x3cc527a3	0.024066752
219	0x3d6ea7fe	0.05826568
220	0x3e6ae574	0.22939092
221	0xbdf370f1	-0.11886776
222	0x3e2bafd8	0.16766298
223	0xbe010805	-0.12600715
224	0x3e16bd0b	0.14720552
225	0x3d03ac6b	0.032146852
226	0x3defad03	0.11702921
227	0xbc7d80c2	-0.015472593
228	0x3c6e641f	0.014550238
229	0xbc679502	-0.014134647
230	0x3d9c0ff6	0.07620232
231	0xbe02529f	-0.1272683
232	0xbc362807	-0.011117942
233	0x3ca645a1	0.020296874
234	0x3cbe04aa	0.023195583
235	0xbca33e97	-0.019927306
236	0x3d62a553	0.055333447
237	0xbdd7ba37	-0.105335645
238	0x3e4017eb	0.18759124
239	0x3d5994f7	0.05312058
240	0xbe2aa7bb	-0.16665547
241	0x3d25d5bd	0.04048704
242	0xbdd9e929	-0.10640175
243	0xbe0afdd3	-0.13573389
244	0x3e272e4f	0.16326259
245	0xbd839cf6	-0.06426422
246	0x3e31400b	0.17309587
247	0xbe079a8f	-0.13242553
248	0xbc0b0657	-0.008485398
249	0x3c947847	0.018123759
250	0x3c2c99ee	0.010534747
251	0xbe05d8de	-0.1307101
252	0x3e0561c1	0.13025571
253	0xbe4a9aa3	-0.19785552
254	0xbdff12d5	-0.12454764
255	0x3e390f43	0.18072228

mamba.layers.0.mixer.conv1d.weight f4 [64, 1, 4]
0	0xbec8f04b	-0.3924583
1	0xbf001972	-0.50038826
2	0x3ca6d4a8	0.020365074
3	0xbee05cc0	-0.43820763
4	0x3e5b6c08	0.2142793
5	0x3eaf285b	0.34210476
6	0x3e8a2516	0.2698142
7	0xbe70ef6a	-0.23528829
8	0xbe188127	-0.14893018
9	0x3e9f7a1f	0.31147859
10	0xbd23555e	-0.039876334
11	0x3e76f0b4	0.24115258
12	0x3e07b570	0.13252807
13	0xbd9d991c	-0.07695219
14	0xbe885852	-0.26629883
15	0xbdebda03	-0.11516192
16	0x3b1454af	0.0022633483
17	0xbed3e167	-0.41382906
18	0x3e9bb1a8	0.30408978
19	0xbeb9aa8e	-0.36262935
20	0xbe57efc7	-0.21087562
21	0xbe120c00	-0.1426239
22	0x3e3d0ef4	0.18462735
23	0x3e5c2fdc	0.21502632
24	0x3ed81da8	0.42210126
25	0x3ede2b18	0.43392253
26	0x3ed9dd9f	0.42551896
27	0x3e376a6a	0.17911687
28	0xbe1d6242	-0.15369514
29	0x3e6cfc22	0.23143056
30	0x3e0e76f3	0.13912563
31	0xbecc77cf	-0.39935157
32	0x3ea143b3	0.31496963
33	0x3d85e22b	0.06537279
34	0x3e5940ad	0.21216078
35	0x3e646768	0.22305071
36	0x3d643eed	0.055724073
37	0x3e8cdd1d	0.27512446
38	0x3e954e5f	0.29161355
39	0x3eb16ba0	0.34652424
40	0xbec06231	-0.37574914
41	0x3dccffe3	0.10009744
42	0xbe01b34d	-0.12666054
43	0x3ebd4a3a	0.36970693
44	0x3a998a3d	0.0011714172
45	0x3ed9b6e8	0.4252236
46	0x3e877eb1	0.26463845
47	0xbed88d7b	-0.4229544
48	0x3e93ac82	0.2884255
49	0xbea56bf3	-0.3230892
50	0xbda9ad49	-0.08285005
51	0xbf010892	-0.504037
52	0x3eb5515e	0.3541364
53	0x3d30a829	0.04312912
54	0xbed0faa9	-0.4081624
55	0x3eedbaca	0.4643157
56	0xbd889b9d	-0.06670306
57	0x3e93e061	0.28882125
58	0x3e1242a2	0.14283231
59	0xbe430f31	-0.19048764
60	0xbe742d70	-0.23845458
61	0x3e98aa0a	0.2981723
62	0xbe792f32	-0.2433441
63	0x3e1d1c91	0.15342928
64	0x3dc5ef87	0.09664827
65	0x3eb909fa	0.36140424
66	0xbd843e74	-0.064572245
67	0xbf04e3ec	-0.5191028
68	0xbe9b1fb7	-0.30297634
69	0xbe8add88	-0.2712214
70	0x3e09c055	0.13452275
71	0xbe2ab2ad	-0.16669722
72	0x3e1dd267	0.15412293
73	0x3bef1344	0.007295998
74	0x3d79db8f	0.061000403
75	0x3ea25418	0.31704783
76	0xbe12ffbb	-0.14355366
77	0xbe90feca	-0.2831939
78	0x3e9efe8c	0.3105358
79	0x3d917e7e	0.071042046
80	0x3e94d296	0.29066914
81	0x3ee1f738	0.44133925
82	0xbe9b3a82	-0.30318075
83	0xbe6adc26	-0.22935542
84	0xbd96f6cb	-0.07371291
85	0x3e48a009	0.19592299
86	0xbd1eaa56	-0.038736664
87	0x3edbce3a	0.42930776
88	0x3e4058c1	0.18783857
89	0xbecb4cbb	-0.39706978
90	0xbe7c72d9	-0.24653186
91	0xbedb891f	-0.42878053
92	0x3ea11b11	0.31465963
93	0x3ec111fa	0.37709028
94	0x3e387c6e	0.18016216
95	0x3ed6ee54	0.41978705
96	0x3e393706	0.18087396
97	0xbda010f0	-0.078157306
98	0xbedfc6ef	-0.43706462
99	0xbe6c245a	-0.23060742
100	0x3e347302	0.17621997
101	0xbeb0a547	-0.34501097
102	0x3d993af2	0.07481946
103	0xbec4a134	-0.38404238
104	0xbe6f5c8a	-0.23375145
105	0xbd939303	-0.07205775
106	0x3e24657a	0.16054335
107	0x3ea48d55	0.32139078
108	0xbe29d1b5	-0.16583903
109	0x3e868c01	0.2627869
110	0x3ec389cf	0.38191077
111	0xbec2f756	-0.38079327
112	0x3d3d3f1c	0.046202764
113	0xbe5dd02b	-0.21661441
114	0x3dd649a8	0.104632676
115	0x3d230d70	0.039807737
116	0x3ec6e1c1	0.38844112
117	0x3dc0bf9c	0.094115466
118	0x3e445299	0.19172134
119	0x3e712ee5	0.23553045
120	0xbe20c87a	-0.15701476
121	0x3b89ff3b	0.004211334
122	0xbee4c3c9	-0.44680622
123	0xbd0ff434	-0.035145
124	0xbe30f744	-0.17281824
125	0x3e144a84	0.1448155
126	0x39f27f33	0.00046252608
127	0x3b97d8f4	0.004634017
128	0xbe91d45f	-0.2848234
129	0xbdc4b818	-0.096054256
130	0xbe2ae59d	-0.16689153
131	0x3cfb35de	0.030665334
132	0xbebdd987	-0.37080023
133	0x3e68134c	0.22663611
134	0xbe2d14b1	-0.16902424
135	0xbd6d8d56	-0.057996117
136	0x3e800901	0.2500687
137	0x3e9bff48	0.30468202
138	0x3c5504c1	0.013001622
139	0x3eed9021	0.46399024
140	0x3ed6638b	0.4187282
141	0x3ec65dc1	0.38743404
142	0x3eddf202	0.433487
143	0xbe31940a	-0.17341629
144	0x3d243a5c	0.04009472
145	0x3e72adfc	0.23699182
146	0xbe9400b9	-0.289068
147	0xbeb4308e	-0.35193294
148	0xbe2226b7	-0.15835081
149	0x3ef55c7b	0.4792212
150	0x3eb0d47b	0.3453711
151	0x3ee2f411	0.44326833
152	0x3ecbcd79	0.398052
153	0x3e9b79a5	0.30366245
154	0x3e3d798c	0.18503398
155	0x3eae5c08	0.3405459
156	0xbec36a5f	-0.38167092
157	0x3e84bafd	0.2592391
158	0x3eb6d126	0.35706443
159	0xbe55fe22	-0.20897725
160	0x3da56388	0.08075625
161	0x3cb7e75c	0.022449188
162	0xbea7546f	-0.32681605
163	0xbf0f5bbc	-0.5599935
164	0xbdb6b49a	-0.08921166
165	0x3eb56670	0.35429716
166	0x3e811f56	0.2521922
167	0xbe2e5ad4	-0.17026836
168	0x3e1da9c8	0.15396798
169	0xbd803fd6	-0.06262176
170	0xbe97dbc4	-0.29659855
171	0xbe896f52	-0.26842743
172	0xbea58930	-0.32331228
173	0xbe7901d4	-0.24317104
174	0xbeac53ec	-0.33657777
175	0x3e625950	0.22104383
176	0x3e7cdfa7	0.24694692
177	0xbe10755a	-0.14107266
178	0xbec2ce0e	-0.38047832
179	0xbec1300f	-0.37731978
180	0xbe079f95	-0.1324447
181	0x3ec1e4fc	0.37870014
182	0x3e5ec211	0.21753718
183	0xbde18ba4	-0.110129625
184	0x3ecaab62	0.3958388
185	0x3f066a12	0.525056
186	0x3e88870e	0.2666554
187	0xbe1a971a	-0.15096703
188	0xbe78589c	-0.24252552
189	0xbe50db1e	-0.20396087
190	0xbd957144	-0.07296994
191	0xbe87e2e3	-0.26540288
192	0xbe1701de	-0.14746806
193	0x3e70a223	0.2349935
194	0x3e2ba537	0.16762243
195	0xbef5800c	-0.47949255
196	0xbe5ed79a	-0.21761933
197	0xbbb35fb3	-0.0054740547
198	0xbde541d5	-0.11194197
199	0x3e5391c3	0.20661072
200	0xbe33a69d	-0.17544027
201	0x3e834d39	0.25644854
202	0xbed07e8d	-0.4072155
203	0x3b8d7e6f	0.0043180506
204	0xbe9924b7	-0.29910824
205	0xbe043e42	-0.12914374
206	0xbe932af1	-0.287437
207	0xbf021b03	-0.50822467
208	0xbe644a0b	-0.2229387
209	0x3eb38c58	0.3506801
210	0x3ed2d65a	0.41179162
211	0x3edaf6c4	0.42766392
212	0x3d33f13b	0.043931227
213	0xbee32c4b	-0.4436973
214	0x3dec3911	0.11534322
215	0x3ea0e6ca	0.31426078
216	0xbef5b503	-0.47989663
217	0xbd1ddf6f	-0.03854316
218	0xbea9de8d	-0.33177605
219	0x3da10c31	0.078636535
220	0xbeaf2096	-0.3420455
221	0xbe5e0c3a	-0.21684352
222	0xbefe096d	-0.49616566
223	0xbe9a36e1	-0.30119994
224	0x3dccdf2d	0.10003505
225	0x3e48419d	0.1955628
226	0x3ea4e5f3	0.32206687
227	0xbecab5ec	-0.3959192
228	0x3db9eb32	0.09078063
229	0xbeb3f5b0	-0.35148382
230	0xbebce275	-0.36891523
231	0x3e9d77c6	0.30755442
232	0xbe9df187	-0.30848333
233	0x3e32fdcf	0.17479633
234	0xbec0275a	-0.37530023
235	0x3e580a62	0.2109771
236	0x3e6c8f93	0.23101644
237	0x3e89ed48	0.26938844
238	0x3eadb859	0.3392971
239	0xbe4a0878	-0.19729793
240	0xbecf21b5	-0.40455404
241	0xbe71c24b	-0.23609273
242	0xbe7fed9d	-0.24992986
243	0xbe8bcdcf	-0.27305457
244	0x3e2a9e46	0.16661939
245	0x3e77e8c6	0.2420989
246	0x3e72ed3c	0.2372331
247	0xbebeb49c	-0.3724717
248	0xbc2f47e2	-0.010698291
249	0x3f09f184	0.5388415
250	0x3e93e8cf	0.28888556
251	0xbec1d36e	-0.3785662
252	0x3ed7c00b	0.42138705
253	0x3e9bac2a	0.30404788
254	0x3d622e69	0.05522004
255	0x3e2c044d	0.16798516

mamba.layers.0.mixer.conv1d.bias f4 [64]
0	0x3e0e11c6	0.13873968
1	0x3d6dee10	0.058088362
2	0xbe637fbe	-0.22216699
3	0xbe0e43fd	-0.13893123
4	0xbe9121df	-0.28346154
5	0xbea6900e	-0.3253178
6	0x3e98fbba	0.29879552
7	0x3de82f5a	0.113371566
8	0x3ee4c6c6	0.44682902
9	0x3e9b2eb3	0.30309066
10	0xbe965130	-0.29358816
11	0x3e54f332	0.20795897
12	0x3e843fc1	0.2582989
13	0xbe975272	-0.29555088
14	0xbeb282d1	-0.3486543
15	0x3ead9117	0.33899757
16	0x3dc81cd5	0.09771124
17	0x3e2afcd8	0.16698015
18	0x3e375316	0.17902789
19	0xbec1ac94	-0.3782698
20	0xbe7f9e9b	-0.24962847
21	0xbea83a0a	-0.3285678
22	0x3e374ea5	0.17901094
23	0xbd80ac2d	-0.0628284
24	0xbbd22aec	-0.006413808
25	0xbf031695	-0.5120633
26	0x3eaa308c	0.33240163
27	0x3ee043e9	0.4380181
28	0xbeb97f8a	-0.36230117
29	0x3e7cfb1d	0.24705167
30	0x3dfe5a21	0.124195345
31	0xbeabf7ee	-0.33587593
32	0xbe830971	-0.2559314
33	0x3ed575fe	0.41691583
34	0xbdd721c0	-0.10504484
35	0xbeaa94b9	-0.3331659
36	0xbe9817bb	-0.29705605
37	0xbe4cdfa5	-0.20007189
38	0x3ef0e90b	0.47052798
39	0x3edade05	0.42747512
40	0x3e9e48bf	0.30914876
41	0x3dc935c0	0.09824705
42	0x3f0ca435	0.5493806
43	0xbdabcffc	-0.08389279
44	0xbe7af391	-0.24506976
45	0xbd9f4166	-0.07776146
46	0x3d68ec33	0.056865882
47	0x3df7b582	0.12095167
48	0x3c3a6965	0.011377667
49	0xbe88d7a3	-0.26727018
50	0xbefd61ee	-0.49488777
51	0x3e1158f2	0.14194086
52	0x3ed51722	0.4161921
53	0x3e60d9bb	0.21958058
54	0x3e2f46d1	0.17116858
55	0xbe950a72	-0.29109532
56	0xbe5d63d3	-0.21620111
57	0xbe772671	-0.24135758
58	0xbd4266a4	-0.047461167
59	0xbe1c2834	-0.15249711
60	0xbd594794	-0.053046778
61	0xbdce5574	-0.10074893
62	0x3e1b8bdf	0.15190075
63	0xbe6f3a4a	-0.2336208

mamba.layers.0.mixer.x_proj.weight f4 [34, 64]
0	0xbd1e6057	-0.038666096
1	0x3da1bee1	0.078977354
2	0x3d65053e	0.055913202
3	0xbdcc78dc	-0.099839896
4	0xbc05015b	-0.008117999
5	0xbd001bba	-0.031276442
6	0xbcb01b9b	-0.021497538
7	0x3d94f71d	0.072736956
8	0x3d4cdcb7	0.050015178
9	0xbdd3a0bd	-0.10333393
10	0x3d7cd1ba	0.06172345
11	0x3d837b5d	0.06420014
12	0x3e790ef4	0.2432211
13	0xbce8c8c3	-0.028416043
14	0xbbb2d5f2	-0.005457633
15	0x3e7a13f3	0.24421673
16	0x3d4cc1a8	0.049989372
17	0x3deee723	0.116651796
18	0xbc2c45ad	-0.010514659
19	0xbe0fcd83	-0.1404324
20	0xbd17632e	-0.03695982
21	0xbe775662	-0.24154046
22	0x3e25d917	0.16196094
23	0x3e027b9c	0.12742466
24	0xbc5da17e	-0.013527272
25	0xbe0f6baf	-0.14005922
26	0x3db65678	0.08903211
27	0x3e2fb936	0.17160496
28	0xbdb6baf9	-0.08922381
29	0xbd5b836f	-0.05359214
30	0x3cb8dea7	0.022567106
31	0xbe19e3dd	-0.15028329
32	0xbe04ac64	-0.12956387
33	0x3e1f869a	0.1557869
34	0x3d02c863	0.031929385
35	0xbe0fceb9	-0.14043702
36	0xbe300b63	-0.17191844
37	0x3d83c271	0.06433571
38	0x3d833d20	0.06408143
39	0x3dcf0acc	0.10109481
40	0x3e9212f1	0.28530076
41	0xbd9f323e	-0.07773255
42	0x3dac3a15	0.08409516
43	0xbdea3064	-0.11435011
44	0xbd83df15	-0.06439034
45	0xbdd14328	-0.10217887
46	0xbb4c69b6	-0.0031190938
47	0x3d0e6cd8	0.03477177
48	0x3d081894	0.033226565
49	0xbd965d11	-0.0734197
50	0xbe349866	-0.1763626
51	0x3d18da38	0.037317485
52	0x3d3e62b0	0.046480834
53	0x3e5771e9	0.21039547
54	0x3dd64767	0.10462838
55	0x3c95de6c	0.018294536
56	0xbdaebb37	-0.08531802
57	0xbe00917b	-0.12555496
58	0xbd6445e0	-0.0557307
59	0xbd467d41	-0.048459295
60	0xbd83ada5	-0.064296044
61	0xbdd4ba88	-0.103871405
62	0x3dddb915	0.10826317
63	0xbe4a3f69	-0.19750752
64	0xbc799314	-0.01523282
65	0x3d32ac9a	0.043621637
66	0xbe3fad2f	-0.18718408
67	0xbd03feac	-0.032225296
68	0x3d91fecc	0.07128677
69	0xbdeb5428	-0.11490661
70	0x3de095f6	0.10966103
71	0x3d062bcb	0.032756608
72	0x3dd212dd	0.10257504
73	0x3e3e2a28	0.18570769
74	0x3b029f61	0.0019931423
75	0x3d7a5704	0.06111814
76	0x3d11cea9	0.035597477
77	0xbe045091	-0.12921359
78	0xbdd271ad	-0.10275588
79	0x3e7892c4	0.24274737
80	0x3e4e9fa0	0.2017808
81	0x3c2f4aa3	0.010698947
82	0xbaff936d	-0.0019498892
83	0xbd91fe89	-0.07128627
84	0xbb6173f4	-0.003440139
85	0xbdadf893	-0.084946774
86	0xbbde870b	-0.0067910007
87	0x3b22478c	0.0024761884
88	0x3b185bef	0.0023248156
89	0xbe34621d	-0.17615552
90	0x3de67dcb	0.11254462
91	0xbb5230fc	-0.0032072654
92	0xbd99dc26	-0.07512693
93	0xba22e0da	-0.0006213315
94	0x3df49a35	0.11943475
95	0xbc37bfac	-0.011215132
96	0xbdd06059	-0.10174627
97	0x3daa7de3	0.08324792
98	0x3d62be85	0.055357475
99	0xbe0665b0	-0.13124728
100	0x3e14915c	0.14508575
101	0xbdc79ad6	-0.097463295
102	0x3dbc28c4	0.09187463
103	0x3d84a3b2	0.06476535
104	0x3e48c943	0.19608025
105	0x3c894663	0.016757196
106	0x3e0fa5b8	0.1402806
107	0x3c39957f	0.011327147
108	0x3d818494	0.063241154
109	0xbcb26b03	-0.021779543
110	0xbdf0ebc4	-0.11763719
111	0x3d46171d	0.048361886
112	0x3d8197d7	0.06327789
113	0xbdab8c24	-0.08376339
114	0xbcd91664	-0.026499934
115	0x3e0387da	0.12844792
116	0x3d783e58	0.06060633
117	0x3d930177	0.07178014
118	0xbd01d3d3	-0.031696152
119	0xbcae77f5	-0.021297434
120	0xbcdd16a3	-0.026988333
121	0xbe34b875	-0.1764849
122	0xbd74fe52	-0.05981285
123	0xbd1b9e34	-0.03799267
124	0xbe02b9c3	-0.12766175
125	0xbd819111	-0.06326497
126	0x3e1813c6	0.14851293
127	0xbc278c30	-0.010226294
128	0x3e4377df	0.19088696
129	0xbc8febf0	-0.017568558
130	0x3e28ba86	0.16477403
131	0xbe4eb7a4	-0.20187241
132	0xbe2e3130	-0.17010951
133	0xbe27ea9d	-0.16398092
134	0x3e2b5248	0.16730607
135	0x3dce81d6	0.10083358
136	0x3e37a4eb	0.17934005
137	0x3ea3be03	0.31980905
138	0xbd217e78	-0.03942725
139	0x3e998d9b	0.2999085
140	0x3e25da01	0.16196443
141	0xbe5dd242	-0.21662238
142	0xbe83b02a	-0.2572034
143	0x3e9a5cb1	0.30148843
144	0x3e3491a0	0.17633677
145	0x3badd7ec	0.005305281
146	0x3d585291	0.052813116
147	0xbdf1d567	-0.118082814
148	0xbe450191	-0.19238879
149	0xbe22c446	-0.15895185
150	0x3d01ad74	0.03165956
151	0x3b5bb580	0.003352493
152	0xbe17844b	-0.1479656
153	0xbe7882a3	-0.24268584
154	0x3e9d1367	0.30678865
155	0x3e45ec35	0.19328387
156	0xbe2096ea	-0.15682569
157	0xbd7a57cb	-0.061118882
158	0x3e164e97	0.14678417
159	0xbded4ecc	-0.11587295
160	0xbd8ffcfc	-0.07030675
161	0x3e6df825	0.23239191
162	0xbe3ba406	-0.18324289
163	0xbe7571be	-0.2396917
164	0xbd477e52	-0.048704453
165	0x3dee5932	0.116381064
166	0x3e67ef4a	0.22649875
167	0x3e90ad61	0.28257278
168	0x3c65f023	0.014034304
169	0x3e1a37cb	0.15060346
170	0x3e555b0e	0.20835516
171	0xbd3df52b	-0.04637639
172	0xbc82b86c	-0.01595708
173	0xbe470f9b	-0.19439547
174	0x3dbdb0dc	0.09262249
175	0x3e2f7a0b	0.171364
176	0x3e6b750c	0.22993869
177	0xbe05372b	-0.13009326
178	0xbe86cff8	-0.26330543
179	0x3e4b81c4	0.1987372
180	0x3db65b4f	0.089041345
181	0x3e80e999	0.2517822
182	0x3dbb8f66	0.091582105
183	0x3ea20eeb	0.31652007
184	0xbe5f4585	-0.21803863
185	0xbe7a4524	-0.24440438
186	0x3c56f8a4	0.013120804
187	0xbd097f75	-0.033568818
188	0x3d9b7a27	0.07591658
189	0xbc9d5d47	-0.019209517
190	0x3d059956	0.032616936
191	0xbe347ae7	-0.17625009
192	0x3cfce4cf	0.030870823
193	0xbd98c923	-0.07460239
194	0xbd17af40	-0.037032366
195	0x3de01d11	0.10943044
196	0x3d30b6d8	0.043143123
197	0x3e36b5ce	0.1784279
198	0xbbc7272d	-0.006077668
199	0x3d864cac	0.06557593
200	0xbdb8e925	-0.09028844
201	0xbe296420	-0.16542101
202	0x3d1283bb	0.03577016
203	0xbdd151b3	-0.10220661
204	0xbd85deca	-0.06536634
205	0xbd8841ff	-0.06653213
206	0x3dc2a465	0.09504012
207	0xbe2edda9	-0.17076744
208	0xbe37eeea	-0.17962232
209	0x3cc6bba2	0.024259392
210	0x3ca81065	0.02051563
211	0xbbb0f0b0	-0.005399786
212	0x3d694051	0.056946103
213	0xbd17c9b2	-0.037057586
214	0x3ca546ee	0.020175423
215	0x3bcb7d5a	0.0062100114
216	0xbccd10d4	-0.025032438
217	0xbc31c6a3	-0.010850581
218	0xbdaf713f	-0.08566522
219	0xbd83ef5f	-0.06442141
220	0x3da46788	0.080275595
221	0x3cc5b4d9	0.024134086
222	0xbd6c26c2	-0.05765415
223	0x3d95b87c	0.07310578
224	0x3de26b4b	0.11055621
225	0xbe4bc4e8	-0.19899333
226	0x3d03a525	0.032139916
227	0x3d33ca3f	0.04389405
228	0x3c9746cf	0.018466381
229	0xbbf7fd14	-0.007568011
230	0x3b305c33	0.0026910424
231	0xbd85336e	-0.0650395
232	0xbd98a061	-0.07452465
233	0x3d03bf76	0.032165013
234	0xbd5b38bf	-0.053520914
235	0xbdc37ab0	-0.09544885
236	0x3c74e149	0.01494629
237	0x3dadd26c	0.084874004
238	0xbd8a071c	-0.06739637
239	0xbd8e604d	-0.06951962
240	0xbdb874e0	-0.09006667
241	0x3e0b9a6c	0.13633126
242	0xbc4ae57a	-0.012383813
243	0xbe35cfe6	-0.17755088
244	0xbdbe4e91	-0.09292329
245	0xbe77a84e	-0.24185297
246	0xbdc785ca	-0.09742315
247	0xbe9f431b	-0.31105885
248	0x3d5732f3	0.052538823
249	0x3da94f2f	0.08267056
250	0x3e0ea3fd	0.13929744
251	0x3da21194	0.07913509
252	0xbe1b037e	-0.15138051
253	0x3d88baf7	0.06676286
254	0x3d724589	0.059148345
255	0xbbcc7947	-0.0062400433

mamba.layers.0.mixer.dt_proj.weight f4 [64, 2]
0	0xbee8fd8c	-0.4550594
1	0x3e3b39d5	0.1828378
2	0x3e133c47	0.14378463
3	0x3d27d4a1	0.040974263
4	0x3ed29bc1	0.41134456
5	0xbf199dc6	-0.6000637
6	0x3e66eb83	0.22550778
7	0x3e8c0283	0.27345666
8	0x3eb3a5c6	0.35087413
9	0x3e5efdf7	0.21776567
10	0x3b65855c	0.0035022115
11	0x3ec5cc83	0.38632593
12	0x3f22995a	0.63515246
13	0x3f2f15e3	0.6839277
14	0xbdccb102	-0.09994699
15	0x3b011613	0.0019696995
16	0xbea32655	-0.31865183
17	0x3e83a1ff	0.2570953
18	0xbf0183ff	-0.50592035
19	0xbeb79b63	-0.35860738
20	0xbcd4c9a3	-0.025975054
21	0xbe9467b5	-0.28985372
22	0xbeb05050	-0.34436274
23	0x3ed3452e	0.41263717
24	0xbecae8da	-0.39630777
25	0x3e915d7c	0.28391635
26	0x3ebe6e6f	0.3719363
27	0xbe599e51	-0.21251799
28	0xbf2047eb	-0.6260974
29	0xbea01434	-0.31265414
30	0xbed90f59	-0.42394522
31	0xbf174427	-0.5908837
32	0xbe892efa	-0.26793653
33	0xbe78308f	-0.24237274
34	0x3eebe569	0.46073464
35	0xbe66595c	-0.22495025
36	0xbe8eb850	-0.27874994
37	0xbf1ad90f	-0.60487455
38	0xbeae705a	-0.34070092
39	0xbe9eff51	-0.31054166
40	0x3e52aa98	0.20572889
41	0xbd4d0c65	-0.05006065
42	0x3f3831eb	0.7195117
43	0xbe2790a8	-0.16363776
44	0xbededbfc	-0.4352721
45	0xbf1845ad	-0.59481317
46	0x3f114067	0.56738895
47	0x3f1091c2	0.5647241
48	0xbe6cf8d8	-0.23141801
49	0x3eac2ba9	0.3362706
50	0x3f0bc05a	0.5459038
51	0x3f0245fb	0.5088803
52	0xbe6fa945	-0.23404415
53	0xbe156fc7	-0.14593421
54	0xbe801c3b	-0.25021538
55	0xbd172535	-0.036900718
56	0xbe7f9cc9	-0.24962153
57	0x3ea8cf8c	0.32970846
58	0xbd75d5b2	-0.06001825
59	0x3e995c00	0.29953003
60	0xbe289e8b	-0.1646673
61	0x3e58a9c9	0.21158518
62	0x3e456c0c	0.19279498
63	0x3f3bc9dc	0.7335489
64	0xbee066f3	-0.43828544
65	0x3d91594c	0.0709711
66	0xbd9deafe	-0.07710837
67	0x3e027373	0.12739353
68	0xbf0903f0	-0.53521633
69	0xbe81dbd3	-0.25363025
70	0x3e6793ef	0.22615026
71	0xbcb0d6ac	-0.021586739
72	0x3daf6dba	0.085658506
73	0xbefb6ff4	-0.4910885
74	0xbeda4f6a	-0.42638713
75	0x3f0aa749	0.54161507
76	0x3eaed44d	0.34146348
77	0xbf578059	-0.8418022
78	0xbed40e40	-0.41417122
79	0x3dfabfbb	0.12243601
80	0xbe891738	-0.26775527
81	0xbf2c2800	-0.67248535
82	0x3ed4f49a	0.41592866
83	0x3aefed0a	0.0018304896
84	0x3e5ea7ed	0.21743746
85	0x3ecc4239	0.39894274
86	0xbd4786ba	-0.04871247
87	0xbee84ed9	-0.45372656
88	0xbeecfae9	-0.4628518
89	0xbd35c833	-0.044380378
90	0xbed34325	-0.41262165
91	0xbf02fb0e	-0.5116433
92	0x3ebc1f59	0.36742666
93	0x3dbd2874	0.092362314
94	0xbe5b0485	-0.21388443
95	0xbec40a42	-0.38289076
96	0xbcd270d3	-0.025688564
97	0xbe7b841b	-0.24562113
98	0xbeabe012	-0.3356939
99	0x3e66a1f3	0.22522716
100	0x3ed71bbe	0.42013353
101	0xbf413340	-0.75468826
102	0xbdb11d50	-0.08648169
103	0xbf2036f3	-0.62583846
104	0x3f15d0d4	0.5852177
105	0x3f0d6fde	0.5524882
106	0xbf00905c	-0.50220275
107	0x3c8c3b9d	0.01711827
108	0x3d3e474f	0.046454724
109	0xbf01b8fa	-0.50672877
110	0x3e93b18b	0.28846392
111	0x3f1e9d2d	0.6195858
112	0x3e0afe00	0.13573456
113	0xbe24a70f	-0.16079353
114	0x3e2265e2	0.15859178
115	0xbce607a2	-0.028079811
116	0x3f14de3c	0.581516
117	0xbe6d27b7	-0.23159681
118	0x3e4ad36a	0.1980721
119	0x3f0e8ebc	0.55686545
120	0xbe519059	-0.2046522
121	0x3f136da8	0.575892
122	0xbe754569	-0.23952259
123	0x3efae14f	0.49000022
124	0x3f2f1e93	0.6840603
125	0xbeae09bb	-0.339918
126	0xbed85380	-0.42251205
127	0xbda42925	-0.0801566

mamba.layers.0.mixer.dt_proj.bias f4 [64]
0	0xc03b0138	-2.9219494
1	0xc086806d	-4.203177
2	0xc09e0a76	-4.938777
3	0xc0a2f1b6	-5.0920057
4	0xc030253b	-2.7522724
5	0xc028a620	-2.6351395
6	0xc095e104	-4.6837177
7	0xc0900aa2	-4.501298
8	0xc09734ad	-4.72518
9	0xc0b9a1e0	-5.80101
10	0xc095cfc1	-4.6816106
11	0xc080ee22	-4.029069
12	0xc048ee97	-3.1395624
13	0xc00b9bad	-2.1813767
14	0xc08a66a2	-4.3250284
15	0xc0b9c207	-5.804935
16	0xc0b97fb5	-5.796839
17	0xc049f8f6	-3.1558204
18	0xc00e5339	-2.2238295
19	0xc09c036c	-4.8754177
20	0xc011d8d8	-2.27886
21	0xc07ef613	-3.9837692
22	0xc015e800	-2.3422852
23	0xc0b660c3	-5.6993117
24	0xc0b80697	-5.7508044
25	0xc011528b	-2.270663
26	0xc06eaadb	-3.7291782
27	0xc0a96643	-5.293733
28	0xc08ca987	-4.3956943
29	0xc0a8666c	-5.2625027
30	0xc04f422c	-3.2384138
31	0xc060bf02	-3.5116582
32	0xc0baa474	-5.832575
33	0xc05f18a1	-3.4858782
34	0xc04d260c	-3.2054472
35	0xc0622d24	-3.5340052
36	0xc00c7f51	-2.1952708
37	0xc082e43d	-4.090361
38	0xc0945dd5	-4.636454
39	0xc09d910e	-4.923957
40	0xc064b835	-3.573743
41	0xc00ce17e	-2.201263
42	0xc087fc3d	-4.249541
43	0xc00928a9	-2.1431067
44	0xc0ae3880	-5.444397
45	0xc000141b	-2.0012271
46	0xc07416f9	-3.8139021
47	0xc0012db9	-2.0184157
48	0xc0a6a195	-5.2072244
49	0xc0b2644d	-5.5747437
50	0xc0bff967	-5.9991946
51	0xc08c1385	-4.3773828
52	0xc079812a	-3.8985085
53	0xc09774b8	-4.732998
54	0xc09db137	-4.9278827
55	0xc0ad903a	-5.423856
56	0xc090b16f	-4.5216594
57	0xbff6a76d	-1.9269844
58	0xc0a86174	-5.261896
59	0xc07baccd	-3.932422
60	0xc0b6424c	-5.695593
61	0xc0750b52	-3.828816
62	0xc08b3596	-4.3502913
63	0xc01e8464	-2.4768305
