saves_ar/soc_mamba_v2/model-b.pth (torch, 59642 bytes, 48 tensors)

input_proj.weight f4 [16, 3]
000000 26 c5 27 be 6d b1 c5 be a0 e1 b3 be da 9f 01 bf
       -0.163838 -0.38611928 -0.35133076 -0.5063454
000010 ff 44 7e bd 0e 5a 98 be 63 83 db 3e bc e2 04 bf
       -0.06207752 -0.29756206 0.42873678 -0.5190847
000020 ca 5b d4 be 5c 5a 54 bd 25 71 06 3d d3 c3 e5 3e
       -0.4147628 -0.051843986 0.032822747 0.44875965
000030 d8 38 ed 3e 11 1a f8 be 2e 07 a8 be 23 99 d6 bc
       0.4633243 -0.48457387 -0.32817978 -0.026196068
000040 86 94 17 3f 2d a6 ba be 76 e1 fd 3e 9e 81 03 3f
       0.59211004 -0.36454907 0.49586076 0.51369655
000050 50 ff eb 3e 41 55 ab bd 61 ec 08 3f 1a 2a 4e 3e
       0.46093225 -0.0836587 0.53485686 0.20133248
000060 21 7b fd be a7 26 a4 3e 72 54 1e be 1a b8 31 3e
       -0.49508002 0.3206074 -0.15461901 0.17355385
000070 1c 16 90 be 57 4e 82 3e 04 bf 50 be cd 2d e5 3d
       -0.28141868 0.25450394 -0.20385367 0.111903764
000080 7f d4 fe be 19 54 f1 bd 07 ad 93 3d bf a4 8a 3e
       -0.49771497 -0.117836185 0.07210737 0.27078816
000090 7c 7c 32 be 33 93 95 3e 9b 33 dc 3d d3 41 9c bc
       -0.174303 0.29213867 0.107520305 -0.019074356
0000a0 cb ce b4 3e a3 13 c4 3e 55 fc ec be f0 cb 32 be
       0.3531402 0.38296232 -0.46286264 -0.17460608
0000b0 87 c7 6c bd 16 09 18 3e 01 4e 31 be b7 1c 89 3e
       -0.05780747 0.14847216 -0.17314912 0.2677972

input_proj.bias f4 [16]
000000 4a df 5f 3e c6 3e 95 be d0 c3 53 3e 5e c2 ba 3e
       0.21862522 -0.29149455 0.20680165 0.36476415
000010 cc d8 04 3f 97 97 e5 3e cd fc 03 3e 42 72 11 bf
       0.51893306 0.44842216 0.12889405 -0.5681497
000020 af 2e fd be d4 a8 be 3e dd 9d 14 bd a2 59 84 3e
       -0.4944968 0.3723818 -0.036283363 0.25849634
000030 d3 5c eb be a0 f8 2d 3e 66 3e 18 3f d5 d4 93 be
       -0.45969257 0.16989374 0.5947021 -0.28873315

input_norm.weight f4 [16]
000000 d8 78 82 3f 2e fc 75 3f 55 d1 74 3f 99 6f 76 3f
       1.0193129 0.9608792 0.95631915 0.96264035
000010 fc 97 74 3f 0a 27 82 3f cb 97 76 3f df a6 75 3f
       0.9554441 1.0168164 0.9632537 0.9595775
000020 c1 2b 75 3f 09 57 77 3f 89 3e 80 3f df 5b 87 3f
       0.9576989 0.9661718 1.0019084 1.0574912
000030 40 49 83 3f 6b 70 76 3f 33 af 78 3f 60 c3 82 3f
       1.0256729 0.96265286 0.9714233 1.0215874

input_norm.bias f4 [16]
000000 c1 ff c6 bc 09 3a 9d 3c cb 64 bb bb 5a 83 b3 bc
       -0.024291875 0.019192712 -0.0057188026 -0.02191322
000010 48 98 ae 3c d5 99 b9 3c 86 75 ad bc da 7e ac bc
       0.021312848 0.02265636 -0.021174204 -0.021056581
000020 a5 8d ab bc 0d ce a8 3c 18 22 b8 bc ff 14 1b 3d
       -0.020941565 0.020606065 -0.022477195 0.03786182
000030 cf 94 bb 3c 44 38 bb bc 3e d8 98 3c f2 4f dc bc
       0.022898106 -0.022853978 0.0186578 -0.02689359

mamba.layers.0.mixer.A_log f4 [32, 16]
000000 d1 2e c6 3c 62 4d 31 3f 46 e9 8d 3f 0a 50 ae 3f
       0.024192246 0.692587 1.1086814 1.3618176
000010 50 ca ca 3f c8 81 e5 3f 50 d1 f9 3f 41 bc 05 40
       1.5842991 1.7930231 1.9517002 2.089615
000020 1e 94 0c 40 f0 ae 13 40 89 44 19 40 4b 8d 1f 40
       2.1965404 2.3075523 2.394808 2.4929988
000030 12 11 24 40 93 f8 27 40 49 91 2d 40 29 0d 32 40
       2.563542 2.6245468 2.7119925 2.7820532
000040 65 7f d8 3c c4 fc 32 3f cd e2 8e 3f af 6d ae 3f
       0.026427934 0.6991694 1.1162964 1.3627223
000050 43 f6 ca 3f 63 7c e6 3f 15 a3 fa 3f 16 44 06 40
       1.5856403 1.800671 1.9581019 2.0979056
000060 c8 49 0d 40 c8 31 14 40 76 f3 19 40 a3 04 20 40
       2.2076283 2.3155384 2.4054847 2.500283
000070 4d 72 24 40 4e c7 28 40 f0 43 2e 40 23 aa 32 40
       2.5694764 2.6371646 2.7228966 2.7916343
000080 9d 11 09 bc c4 49 34 3f 10 c5 8d 3f 34 cb b6 3f
       -0.008366016 0.7042506 1.1075764 1.4280763
000090 09 de cc 3f 4d 25 e3 3f 75 21 f4 3f ae 33 03 40
       1.600526 1.7745758 1.907271 2.0500293
0000a0 1e 42 0b 40 00 ef 10 40 74 49 17 40 4d 4b 1c 40
       2.1759105 2.2645874 2.3638582 2.442096
0000b0 f3 89 20 40 99 87 27 40 c7 0e 2b 40 e7 3d 2e 40
       2.5084198 2.6176512 2.672777 2.7225282
0000c0 05 12 f1 ba df 67 36 3f d4 14 8b 3f e5 f1 b7 3f
       -0.0018392211 0.71252245 1.0865731 1.4370695
0000d0 d8 3c d6 3f 40 3f df 3f 73 28 f4 3f f1 c8 02 40
       1.6737318 1.7441177 1.9074844 2.0435145
0000e0 b9 e1 0a 40 5a 01 10 40 ee b5 16 40 c1 3b 1b 40
       2.170027 2.2500825 2.354854 2.425522
0000f0 c7 3c 22 40 7d 7b 26 40 7d 50 29 40 58 45 2c 40
       2.5349596 2.6012871 2.6455376 2.6917324
000100 d1 86 4f bc ab 94 33 3f 43 c5 8f 3f b6 3c ba 3f
       -0.01266642 0.70148724 1.1232074 1.4549778
000110 30 e1 ca 3f 17 fb e3 3f 18 fd f6 3f 99 50 04 40
       1.5849972 1.7811002 1.9295988 2.0674193
000120 9f df 0c 40 a3 e8 11 40 a7 69 18 40 e2 08 1d 40
       2.2011487 2.279824 2.3814485 2.4536672
000130 df 4d 22 40 cd 91 29 40 e5 12 2c 40 a6 4c 2f 40
       2.5360029 2.649524 2.6886532 2.7390532
000140 02 5c dc 3c 84 98 33 3f b3 de 8e 3f d4 88 ae 3f
       0.026899341 0.70154595 1.1161712 1.3635507
000150 16 81 cc 3f b5 27 e6 3f 8a 34 fb 3f 58 88 06 40
       1.5976894 1.7980868 1.9625409 2.1020718
000160 55 69 0d 40 cf 81 14 40 b0 34 1a 40 c2 eb 1f 40
       2.209554 2.320423 2.4094658 2.4987645
000170 6c d4 24 40 00 b7 28 40 f4 2f 2e 40 55 06 33 40
       2.5754652 2.6361694 2.7216768 2.7972615
000180 69 14 80 bc 10 8f 2b 3f ea 4f 8c 3f e3 ec b1 3f
       -0.015634732 0.6701517 1.0961888 1.3900417
000190 9c c8 b6 3f ee 50 e3 3f e6 89 f7 3f 67 18 03 40
       1.4279971 1.7759073 1.9338958 2.0483644
0001a0 b3 10 0c 40 37 59 12 40 65 e8 17 40 38 7c 1c 40
       2.1885192 2.2866952 2.3735592 2.4450817
0001b0 b4 cf 21 40 32 11 28 40 fd 1b 2b 40 bd c7 2f 40
       2.5283022 2.6260495 2.6735833 2.746566
0001c0 be 13 a0 bb 0d 47 30 3f c7 f4 89 3f 01 8e b2 3f
       -0.004885166 0.68858415 1.0777825 1.3949586
0001d0 48 6c d0 3f 00 41 e1 3f 2f 58 f4 3f 5a 72 02 40
       1.6283045 1.7597961 1.9089411 2.0382295
0001e0 71 59 0a 40 40 eb 10 40 5b 4e 16 40 cd ca 1b 40
       2.161709 2.2643585 2.3485324 2.434253
0001f0 62 e8 20 40 4d a8 25 40 b6 25 2a 40 95 55 2e 40
       2.5141835 2.5883973 2.6585517 2.7239735
000200 63 d9 aa bc 13 f1 29 3f fe e6 88 3f 50 4b b2 3f
       -0.020855611 0.66383475 1.0695493 1.3929234
000210 a3 72 be 3f fe 8e dd 3f 7d 2a f2 3f e7 6c 01 40
       1.4878734 1.7309263 1.8919216 2.0222719
000220 7c 72 09 40 52 09 0f 40 e2 18 15 40 84 2f 1a 40
       2.1476126 2.2349439 2.3296437 2.4091501
000230 77 1e 21 40 96 a7 26 40 df b5 28 40 cf bc 2b 40
       2.5174844 2.6039786 2.6361005 2.683399
000240 d3 8e 48 bb 9b 7d 33 3f d0 a1 8c 3f 7a d4 b4 3f
       -0.0030602708 0.70113534 1.0986881 1.4127343
000250 34 01 cc 3f 23 60 e3 3f bb 4f f5 3f 29 72 03 40
       1.5937867 1.7763714 1.9164957 2.0538428
000260 2f 8d 0b 40 ca b2 11 40 52 9d 17 40 fa cf 1c 40
       2.1804922 2.2765374 2.368977 2.450194
000270 cf b0 21 40 c7 76 27 40 c7 4e 2b 40 e4 9c 2e 40
       2.5264165 2.6166246 2.6766832 2.7283258
000280 46 e7 28 3a 20 48 35 3f 9a b4 8c 3f 8b 30 b5 3f
       0.0006443154 0.7081318 1.0992615 1.4155439
000290 21 51 d2 3f 39 ec e4 3f 1a 23 f7 3f 86 50 04 40
       1.6431009 1.788459 1.9307587 2.0674148
0002a0 3e 93 0c 40 54 c6 12 40 5e af 18 40 ae ad 1d 40
       2.196487 2.293355 2.3857036 2.4637256
0002b0 df ad 22 40 77 76 28 40 60 0f 2c 40 f2 21 30 40
       2.5418622 2.6322305 2.6884384 2.7520719
0002c0 6f ed 04 3d c8 d0 2e 3f e4 1d 8f 3f d3 2d b0 3f
       0.032452997 0.68287325 1.1180997 1.3763984
0002d0 bc 8b bc 3f ae 0e e8 3f 6e 44 f9 3f f3 91 04 40
       1.4730144 1.812948 1.9474008 2.071408
0002e0 a9 0a 0c 40 6b 35 13 40 9f 6d 18 40 99 9d 1e 40
       2.1881506 2.3001354 2.3816907 2.478369
0002f0 bd 17 23 40 b1 fb 26 40 f9 fa 2c 40 48 8a 2f 40
       2.5483239 2.609112 2.7028182 2.742815
000300 3a e5 25 3d 2e a0 2c 3f b2 76 9b 3f f5 6e ae 3f
       0.04050181 0.67431915 1.2145598 1.3627611
000310 08 b1 aa 3f ea 88 f0 3f 56 3d 05 40 dc 93 05 40
       1.3335276 1.8791783 2.0818686 2.0871496
000320 b6 77 14 40 67 c2 1a 40 e6 ca 20 40 80 7d 1f 40
       2.3198066 2.4181154 2.512384 2.492035
000330 b7 b3 29 40 6f 67 2e 40 75 78 2e 40 d7 28 34 40
       2.651594 2.725063 2.726102 2.8149927
000340 91 96 a7 bc 81 f9 29 3f 17 ba 87 3f cb ac b0 3f
       -0.020457538 0.6639634 1.0603665 1.3802732
000350 41 c8 c5 3f 00 df df 3f eb 23 f1 3f a6 50 01 40
       1.5451738 1.7489929 1.8839086 2.0205474
000360 78 d0 08 40 5d 4f 0f 40 4b df 14 40 f8 e2 1a 40
       2.137724 2.239219 2.3261287 2.420103
000370 97 04 20 40 1c f1 25 40 74 49 29 40 00 39 2b 40
       2.5002801 2.5928411 2.6451082 2.675354
000380 a2 69 8a bc 9f 88 28 3f 84 ca 87 3f 54 47 ae 3f
       -0.016896073 0.6583347 1.0608678 1.3615518
000390 38 ca c4 3f df 22 e0 3f 3a 65 f3 3f 01 37 01 40
       1.5374212 1.7510642 1.9015267 2.0189822
0003a0 dc 2a 09 40 04 16 0f 40 26 fe 14 40 0c 95 1a 40
       2.143241 2.2357187 2.328012 2.415347
0003b0 91 2f 21 40 6d 2d 25 40 4d 92 28 40 4e 9b 2c 40
       2.5185282 2.5808976 2.6339295 2.696979
0003c0 d5 5d 85 bc ad b5 2d 3f 8e db 87 3f df 8b b0 3f
       -0.016280094 0.6785534 1.0613878 1.3792685
0003d0 17 0b cc 3f 1c ad df 3f 5a e9 f1 3f da aa 01 40
       1.5940884 1.7474704 1.8899338 2.026053
0003e0 13 31 09 40 52 cc 0f 40 38 d8 15 40 3c f6 1a 40
       2.1436203 2.2468457 2.341322 2.421279
0003f0 41 6e 20 40 b8 71 25 40 43 76 29 40 ec 22 2c 40
       2.5067294 2.5850658 2.6478431 2.6896315

mamba.layers.0.mixer.D f4 [32]
000000 a3 b9 79 3f d6 e3 78 3f 5e 40 83 3f 5a 93 88 3f
       0.97548884 0.9722265 1.0254018 1.0669968
000010 ca b8 86 3f f9 d2 79 3f eb 51 90 3f 02 ad 80 3f
       1.0525143 0.97587544 1.1274999 1.0052798
000020 8c d5 8b 3f 8b 7b 88 3f 1a ad 84 3f 23 26 82 3f
       1.0924544 1.0662702 1.0365326 1.0167888
000030 4c 6d 82 3f c4 03 88 3f 0b bb 82 3f 33 29 86 3f
       1.0189605 1.0626149 1.0213331 1.0481323
000040 71 73 7a 3f 17 61 7a 3f bf 98 84 3f 95 dd 84 3f
       0.978324 0.978044 1.0359114 1.0380121
000050 05 d5 86 3f 8b 30 85 3f 59 6a 81 3f 7c 93 86 3f
       1.0533758 1.0405439 1.011058 1.0513759
000060 af 2b 87 3f cd 6e 85 3f ee 67 84 3f fa 04 86 3f
       1.0560206 1.0424439 1.0344217 1.0470269
000070 a6 01 8b 3f 1f 41 85 3f bd cb 7c 3f 5d 20 87 3f
       1.0859878 1.0410498 0.9874838 1.0556751

mamba.layers.0.mixer.in_proj.weight f4 [64, 16]
000000 eb 87 57 3e 38 33 7f be 64 92 0d 3e f8 ec 63 be
       0.21047942 -0.24921882 0.13825375 -0.22258365
000010 c6 d5 81 be f7 50 42 be 23 04 87 3c f0 08 d9 3d
       -0.2535841 -0.18976198 0.016481465 0.10597408
000020 d0 7c c6 3d 9c 66 45 3e f6 9f 59 3e 2f d0 12 3e
       0.09691775 0.19277424 0.21252427 0.14337228
000030 bb fb 09 3d a5 65 22 3e 0f 4f c0 3d a6 97 0f 3d
       0.033687335 0.15859087 0.09390079 0.035056733
000040 0e ca cb bb 82 ed c0 bc 5a 89 61 3e 5c 0f fe bd
       -0.006219155 -0.023550753 0.22025052 -0.12405273
000050 6b 8a 32 3e 98 d2 36 be 3b f0 6f be d5 a7 3f 3d
       0.17435615 -0.17853773 -0.23431484 0.046790916
000060 50 68 8f be fe c4 1e bd d9 de 06 be f7 07 46 bd
       -0.28009272 -0.038762085 -0.13170947 -0.04834744
000070 a0 3d 25 be 5d 5b 56 3d 5d 84 29 3d 28 b7 cd bd
       -0.1613679 0.052333225 0.041385997 -0.100447
000080 e7 87 47 be db ed 94 3b 7a 65 85 be 61 da 0d 3e
       -0.19485436 0.004544956 -0.26053983 0.13852836
000090 95 4e 0c 3e ae 95 5c 3e 6b c3 0e be a5 e8 3f 3e
       0.13701852 0.21541473 -0.13941734 0.1874109
0000a0 6e ba 2c 3e 76 d8 48 be ac 9b 07 be d1 7c bf bc
       0.16867992 -0.19613823 -0.13242978 -0.023374947
0000b0 1f 93 1a be 7e 05 09 be 03 5f 78 be a3 c8 79 be
       -0.15095185 -0.13381001 -0.24254994 -0.24392943
0000c0 04 3b 10 3c c7 b3 18 bd 8d 7c bc 3c 61 8f cb bd
       0.008803133 -0.037280824 0.02300861 -0.09939457
0000d0 5f 70 9c 3e 9f d9 42 bd 44 2c 8f 3d 20 47 19 be
       0.30554482 -0.04757082 0.06990865 -0.14968538
0000e0 ec aa de 3c 66 09 a0 3e 22 bf 88 be c9 08 25 be
       0.027181111 0.3125717 -0.26708323 -0.16116633
0000f0 46 11 1b 3e b6 e9 04 3d 9c a3 97 3d d2 ec 80 3e
       0.15143308 0.032449447 0.07404253 0.2518068
000100 d3 da fb bd 7f 43 6f be 4f 91 0b 3e bd 62 21 be
       -0.12297597 -0.23365591 0.1362965 -0.15760322
000110 ec 8f e5 bd f5 de d5 3d ce f0 38 bd 5c d3 0c bd
       -0.112090915 0.10442916 -0.045151524 -0.034381256
000120 5a a3 88 3c 12 3c 00 3c 0f 28 fd be 04 7c b2 bc
       0.016679455 0.007826822 -0.49444625 -0.02178765
000130 f3 08 26 3e 2a 4c 12 3e 11 8e 67 be 50 4c 03 3d
       0.16214351 0.14286867 -0.22612788 0.0320552
000140 ea 23 98 be 11 a6 45 be 79 d0 a7 bd 1c 49 3f be
       -0.297149 -0.1930163 -0.0819406 -0.18680233
000150 47 ff 47 be 87 88 65 3e 23 d6 fa bd 7e 12 72 bd
       -0.19530974 0.22415362 -0.122478746 -0.059099667
000160 5b 2b 85 bc 15 8a 20 be fb 5a 55 be 41 5d 4f 3d
       -0.016256025 -0.15677674 -0.20835488 0.050626043
000170 04 a7 8d 3e 64 f0 c9 bd 6b 30 c4 bd d9 1f be bd
       0.27666485 -0.09860304 -0.095795475 -0.09283418
000180 5b 2f b8 bd 26 5e 75 bc 88 02 bc bd 9e 07 84 3d
       -0.08993407 -0.01497606 -0.0918017 0.06446765
000190 a2 c9 45 be 8f 98 f3 3d e3 2d f8 3d 86 90 02 be
       -0.19315198 0.118943326 0.12118127 -0.12750444
0001a0 9f e4 10 bd b0 97 50 be 94 09 98 3d 19 fd 93 bd
       -0.03537428 -0.20370364 0.07423702 -0.07226009
0001b0 ac aa 0b bb 66 9a a9 3e 39 a6 91 bb 7c 86 99 be
       -0.0021311445 0.3312561 -0.004444864 -0.29985416
0001c0 f6 ba 69 be b0 1e e8 bc e1 84 5a 3d c2 16 1c be
       -0.22825226 -0.028334945 0.05334938 -0.15243056
0001d0 71 9d 93 3c 37 d5 0d 3e 1a b2 18 3e 2d d7 14 3e
       0.01801941 0.13850866 0.1491169 0.14535208
0001e0 4e 03 cf bd a1 c1 03 3e 94 ae 9b bd 4c 4b 56 3e
       -0.10108052 0.12866832 -0.076016575 0.20927161
0001f0 ba 8d 00 3e 95 12 37 3e 3e 85 bb 3d f9 05 95 bd
       0.12554064 0.17878182 0.09156273 -0.0727653
000200 00 06 31 3e 28 12 0c bc 49 39 8d bc d5 a6 04 bb
       0.17287445 -0.008549251 -0.01723923 -0.0020241041
000210 1e bb 5f be 84 ee 37 3e 62 ed d4 bd 59 1f 63 bd
       -0.21848723 0.1796208 -0.1039684 -0.055449817
000220 1a 58 b9 3d 77 79 20 be 08 df 2c 3e 66 e7 3d 3d
       0.09050007 -0.15671335 0.16881955 0.046363257
000230 cd 86 8c 3e 22 be 3a 3e 66 45 5e 3e f6 62 4f bb
       0.27446595 0.18236592 0.21706161 -0.0031644679
000240 cf 3d 94 3e 7e 77 cc bd 8a 0d 6c bd 66 89 a5 3d
       0.28953406 -0.09983729 -0.0576301 0.08082847
000250 e5 54 7b 3d ae 02 af bd 9f e5 24 be 89 08 18 bd
       0.06136026 -0.08545433 -0.16103218 -0.037117515
000260 e9 34 db 3c 76 44 5e bd 09 90 6f 3e b5 bd 31 be
       0.026758628 -0.05426451 0.23394789 -0.17357524
000270 a1 2d 67 bc 0a 94 d2 3d c6 0b cb bd 20 77 70 3e
       -0.01411 0.102821425 -0.09914355 0.23482943
000280 d4 8c 56 3e 15 a2 7f be 0b e8 9d 3d 51 48 97 bc
       0.20952159 -0.24964173 0.07710274 -0.0184671
000290 e4 55 59 bd 80 83 0a 3d 1d c6 bb 3c 9c 1d 7d 3d
       -0.053060427 0.033816814 0.022921616 0.061795816
0002a0 ce 37 a5 bd eb 68 47 be 3e 92 1d be 88 c4 a7 3d
       -0.080672845 -0.19473617 -0.15387818 0.08191782
0002b0 14 11 6b 3e 1a e3 e2 bb 90 b8 25 3e 26 64 9d bc
       0.22955734 -0.0069240453 0.16183686 -0.019212794
0002c0 2e db 91 be 66 f8 e0 be aa 52 5b be a6 6a 78 3e
       -0.28487533 -0.43939513 -0.21418253 0.24259433
0002d0 14 43 13 be 74 9c be 3e 55 04 f1 3d dd b6 82 3d
       -0.14381057 0.3722874 0.117684044 0.06382535
0002e0 ae 71 2f 3d 2b 53 c5 bc 79 35 dc bd 59 e6 21 be
       0.042833023 -0.02408751 -0.107523866 -0.15810527
0002f0 61 65 10 3e 1c c6 8c 3e 09 7f c4 be 4a ea 55 be
       0.14101173 0.27494895 -0.3837817 -0.20890155
000300 99 fd 12 3e cb 5a 99 3d 11 c3 34 be 55 10 c2 b9
       0.14354552 0.074880205 -0.17652537 -0.00037014732
000310 b3 fb 24 3e 1e 08 6a 3c 4f a0 21 be 7e 8c 43 bc
       0.1611164 0.014284162 -0.15783809 -0.011935351
000320 08 4b 0a 3e 40 41 d1 3d 9c 9d 79 be 4a e3 3b be
       0.13505185 0.102175236 -0.2437653 -0.18348423
000330 dc ae 03 3e e0 69 46 be b5 67 41 3e 2a 27 bb 3c
       0.12859672 -0.19376326 0.18887217 0.022845823
000340 59 14 c5 3d 18 ce ba bd 9e 44 4f be ac 2e 8b 3d
       0.09623022 -0.091213405 -0.20241019 0.06796011
000350 74 12 31 3e ce aa 82 3e eb 52 46 bd 98 90 9e 3d
       0.17292196 0.2552094 -0.04841892 0.07742423
000360 f4 93 20 3e 18 ea 1b 3d c1 64 30 3d 5f bd 58 3e
       0.1568144 0.038065046 0.043064836 0.2116599
000370 09 17 29 be b4 49 9d bd 80 07 9d 3d 88 6b a2 3d
       -0.16512693 -0.076800734 0.07667446 0.07930666
000380 ce 5c c4 3d 7e 14 73 bd 4a 92 68 be 97 9b b7 bd
       0.095880136 -0.059345715 -0.22712055 -0.08965223
000390 4e 95 45 be e4 85 14 3e 92 d7 47 be 78 94 0c be
       -0.19295236 0.145042 -0.19515827 -0.13728511
0003a0 d8 b2 13 bd e4 00 49 3d 31 e1 36 3d 9f 07 80 3e
       -0.03605923 0.049073115 0.044648353 0.25005814
0003b0 2f da e6 bd bf 54 0f 3e 49 14 66 3e 5f 44 0d be
       -0.11272084 0.13997172 0.22468676 -0.13795613
0003c0 ac 1a 7c 3e e6 0b 91 3c 35 55 26 3e d3 d0 82 3d
       0.2461955 0.017705869 0.16243441 0.06387486
0003d0 47 2f 5e be a2 5a 4e 3d 6b d5 76 be cd 2c 50 be
       -0.21697722 0.050379403 -0.2410485 -0.2032959
0003e0 f9 bb f8 3d 12 e2 82 be 7f b5 b3 3d d7 1c f3 bc
       0.12145228 -0.25563103 0.08774852 -0.029676838
0003f0 6f 32 c2 3c 6a 4c 15 3e c0 43 43 be db 26 8f bd
       0.02370569 0.14579931 -0.19068813 -0.06989833

mamba.layers.0.mixer.conv1d.weight f4 [32, 1, 4]
000000 11 bf ca be 16 84 f4 be ca 54 ee 3d 66 26 95 bd
       -0.39598897 -0.47757024 0.11637266 -0.072827145
000010 e7 23 26 be 7f ad b4 bd 53 5c 4c 3e 10 4a b8 3d
       -0.16224633 -0.08822154 0.19957094 0.08998501
000020 3f 01 52 3e 05 67 a8 3e d8 f0 f0 3e c3 c9 8e be
       0.20508288 0.32891098 0.4705875 -0.27888307
000030 cc 06 c3 3d 03 c3 ae bd 7a 9e 40 bd f6 f6 c2 be
       0.09522781 -0.08533289 -0.047026135 -0.3807904
000040 97 96 c8 be f5 e4 cc 3e f4 4a 2f 3e 04 37 43 3e
       -0.3917739 0.4001843 0.17118436 0.19063956
000050 d6 fb 9d bd dc d6 89 be 15 e7 b3 bd 19 0b e9 3e
       -0.077140495 -0.26921737 -0.0878431 0.4551628
000060 da e5 78 be 6a a1 3d be 4e 94 45 be 2b ba ae 3e
       -0.24306431 -0.18518606 -0.19294855 0.3412641
000070 cd 5d 05 be 8c 32 a2 be 4e e8 6a be 0b 72 e1 bc
       -0.13024063 -0.3167919 -0.2294018 -0.0275202
000080 9c 11 73 bd f5 2f e3 bd ac a6 87 3d 9a 56 aa be
       -0.059342965 -0.110931315 0.06623587 -0.33269197
000090 1b 50 9d be c5 b3 36 3e df 58 bd be 76 3f bc bd
       -0.30725178 0.17842014 -0.36981866 -0.09191792
0000a0 c2 b5 30 be c2 ca 0a 3b 1e d6 00 be 20 06 d7 be
       -0.17256835 0.0021177982 -0.12581679 -0.4199686
0000b0 5d 36 d5 be 74 da 3e be 32 04 0b bf 10 89 8a be
       -0.41643038 -0.18638021 -0.54303277 -0.27057695
0000c0 f8 64 93 be 23 bb 4d be 95 eb be 3d 17 62 cf be
       -0.2878797 -0.20090918 0.093222775 -0.40504524
0000d0 93 b9 b8 be 4e f1 eb be d1 ce 42 3e ac 8d cf bd
       -0.36079082 -0.46082538 0.19024207 -0.10134444
0000e0 c2 7f b4 be 01 fa b7 be 3a f7 05 3c 24 d5 3e 3e
       -0.3525372 -0.35932925 0.008176619 0.18635994
0000f0 57 18 e5 3e a6 88 29 be 77 64 2e 3d 32 b9 5f be
       0.44745132 -0.16556033 0.04257628 -0.2184799
000100 f6 02 84 be 15 89 58 3d 5e c4 e6 be ea 99 21 3d
       -0.2578351 0.052865107 -0.4507169 0.039453425
000110 b1 0f 88 bd 9a bc b3 3e 6c 64 94 be 0d 07 85 3e
       -0.06643618 0.3510483 -0.28982866 0.25981942
000120 26 9f a0 3e 28 fb 9f 3e 0a fa 09 3f 54 b0 30 be
       0.3137142 0.31246305 0.53897154 -0.17254764
000130 a5 37 44 bc 75 5f 95 be f2 a3 0a 3d 20 e3 12 3e
       -0.011976157 -0.2917439 0.033847757 0.14344454
000140 1c ec 07 3f 17 85 45 be 33 f7 51 3e 25 9c 0b be
       0.5309465 -0.19289051 0.20504455 -0.13633783
000150 37 17 8d be 52 af 89 be 55 18 e0 be 3c f1 2c 3e
       -0.27556774 -0.2689157 -0.43768564 0.16888899
000160 a8 96 95 3e 82 9f c5 be 05 82 0f 3e 71 60 7f 3e
       0.29216504 -0.38598257 0.14014442 0.24939133
000170 42 a3 b7 be ac 03 0c 3e 83 58 87 3d b4 bd ce be
       -0.35866743 0.13673276 0.06608679 -0.40379107
000180 ee 38 b0 be bc 1d fb be 96 1b 88 be c4 d2 c7 3c
       -0.34418434 -0.49046123 -0.26583546 0.024392493
000190 57 a6 f9 be 8b 4c 99 be 45 0f e9 bd cc 05 c0 3e
       -0.4875972 -0.2994121 -0.113798656 0.37504423
0001a0 37 47 cf be 8a eb 03 bb a2 91 9c bd d5 6a 50 3e
       -0.4048402 -0.0020129406 -0.07644965 0.20353253
0001b0 14 56 34 be 3d 4a c5 be ad 7c 1e be 01 82 80 3e
       -0.17610961 -0.38533202 -0.15477248 0.25099185
0001c0 a9 3b 9d 3e 4f 3f b1 be dd 8b 81 3e 0d d3 f7 be
       0.3070958 -0.34618613 0.2530202 -0.48403206
0001d0 7f a9 f4 be 90 01 83 3e e3 dd db be 51 af 7e be
       -0.47785565 0.2558713 -0.42942724 -0.24871565
0001e0 8b 14 64 3b ff 4a 5d 3e e4 d2 a4 3d 80 cd be be
       0.0034802284 0.2161064 0.08048037 -0.3726616
0001f0 cc 20 b3 be 8c 4f d4 3e f1 68 9e be 4a 55 d3 be
       -0.3498596 0.4146694 -0.3093944 -0.41276008

mamba.layers.0.mixer.conv1d.bias f4 [32]
000000 8f df 69 3d 07 d8 bf 3e 0f 5a ed 3e c3 2c b3 3e
       0.057097968 0.37469503 0.46357772 0.34995088
000010 1e 08 98 3e ef 67 40 be 2e ab 4d 3e 2e 90 09 3e
       0.29693693 -0.18789648 0.20084831 0.13433906
000020 c2 cb eb bd 01 1a 78 3e 86 ce d8 be 7b 6f 18 be
       -0.11513473 0.2422867 -0.42345065 -0.14886276
000030 53 ad 03 be a7 5e eb be 15 f4 73 be 68 5a 65 be
       -0.12859087 -0.45970652 -0.23823579 -0.22397768
000040 a8 65 bf bd d6 eb 67 be 26 04 a0 3e b9 99 a4 3e
       -0.09345561 -0.22648558 0.31253165 0.3214853
000050 7b 32 af 3e ab 9d 53 be 51 5d 8c be 7c 1a a5 bc
       0.342182 -0.20665614 -0.27414945 -0.02015423
000060 80 25 0b 3f 80 c5 cb 3e a7 c0 61 be 42 af b3 be
       0.54354095 0.39799118 -0.22046147 -0.3509465
000070 90 22 e4 3d 4a 77 10 be 6b 36 a1 3e ba c5 34 be
       0.11139405 -0.14108005 0.3148683 -0.17653552

mamba.layers.0.mixer.x_proj.weight f4 [33, 32]
000000 c9 fe 77 3d ba e7 8e 3d e1 37 af bd b2 01 3d 3e
       0.060545716 0.06977792 -0.0855558 0.18457678
000010 61 24 8a bd f9 01 b9 bd 46 e9 60 3e 05 b8 91 3d
       -0.0674522 -0.090335794 0.21963987 0.07115177
000020 5c 6d db bc 09 27 ce bd 61 6a 3a 3d d1 d2 8f 3d
       -0.026785545 -0.10066039 0.045511607 0.07022632
000030 d9 1b e6 3d ce dc dd 3c 18 53 71 be b8 ca b0 bd
       0.1123578 0.027082827 -0.23566854 -0.086324155
000040 99 d1 87 3d d8 6c 36 3d 3c 7e 96 3d ef 1d 04 3e
       0.066317745 0.044537395 0.07348296 0.12902044
000050 b0 75 ab bd 13 36 88 3d f8 1c 27 be 73 9a 1a be
       -0.083720565 0.06650939 -0.16319644 -0.1509798
000060 b2 bf 65 3b 1a b7 ef 3d c8 a6 10 3c dd 0f 2f be
       0.0035056886 0.11704846 0.008828826 -0.17095895
000070 a3 13 2a 3e ec 72 15 be cf 9b 3c 3e 52 03 4c be
       0.16609053 -0.1459462 0.18418811 -0.19923142
000080 9c ea 6c 3d 06 c4 0a be 76 03 b3 bd 88 8e 11 be
       0.05784093 -0.1355134 -0.087408945 -0.14214528
000090 a9 eb 07 be f4 69 e1 3d 97 7f 24 be 74 f0 31 be
       -0.13273491 0.11006537 -0.16064297 -0.17376882
0000a0 4c 65 08 3e 38 04 cb 3c 8f 1b d7 bd d5 03 15 3e
       0.13319892 0.024782285 -0.10503303 0.14552243
0000b0 11 62 16 3d 9c 55 34 3c 67 97 37 bd b1 99 c4 3d
       0.036714617 0.011006739 -0.044822123 0.09599627
0000c0 c7 9b 8e bc 8e 1f 3a 3c 30 46 da 3d 70 2f de 3d
       -0.017408265 0.011360062 0.106579185 0.10848892
0000d0 e8 25 27 be 8f 0f 8a bb 7f 70 a8 3c 7f 6f 93 bd
       -0.16323054 -0.0042132805 0.020561455 -0.071990006
0000e0 40 c1 f9 bb b3 dd 85 b8 ad 19 d9 3d 94 81 68 bd
       -0.007621914 -6.383229e-05 0.106006004 -0.0567642
0000f0 c3 2b 54 3d 09 b3 2a be ed 8a 01 3d d5 cf 00 3d
       0.051799547 -0.16669859 0.03162663 0.031448204
000100 ca da 0b 3e 68 ee 8e 3d e2 8d ee bd 64 72 23 3e
       0.1365768 0.06979066 -0.11648156 0.15961605
000110 64 b9 0f 3e a7 4f 0b be d0 c0 04 3e 32 f6 68 bb
       0.14035565 -0.13604604 0.12964177 -0.0035547134
000120 e4 1e 1a 3d 13 29 91 bd 29 40 7b bd ec 34 37 3e
       0.037627116 -0.070879124 -0.061340485 0.17891282
000130 cc 1f d9 bd e3 6e 11 bd b6 00 38 be ac d1 20 be
       -0.10601768 -0.03550614 -0.17969021 -0.15704983
000140 35 3b 8c bd 73 fb 81 3e 49 fe d9 3d 11 b8 93 bc
       -0.0684723 0.25387153 0.10644204 -0.018032106
000150 4f 0a 79 bd 8d ed 01 3e f9 14 87 bd e8 8a 86 bd
       -0.060800847 0.12688275 -0.06595797 -0.06569463
000160 77 55 18 3d 69 62 b4 bd 90 21 0c be ec 41 67 3d
       0.03719088 -0.08807833 -0.13684678 0.056459352
000170 9b 64 bb 3d 91 c1 1b 3e 0e c2 ab bd 5d 0f 8a bc
       0.09150048 0.15210558 -0.08386622 -0.016853029
000180 15 2a 93 bd ab cc a5 bd c2 92 be 3d 39 eb d4 bd
       -0.07185761 -0.08095678 0.093053356 -0.10396428
000190 85 79 e5 3d 4f 01 5f bc d6 e5 64 3c 47 b7 0e be
       0.11204819 -0.013611152 0.013970813 -0.13937102
0001a0 a6 ba c1 bd 41 79 16 be 97 38 14 3e 63 81 73 3d
       -0.094594285 -0.14694692 0.14474712 0.059449565
0001b0 07 be aa 3c 2f 49 a3 bd e9 60 19 be af a8 33 3e
       0.020842565 -0.07972943 -0.14978375 0.17544816
0001c0 39 a5 86 3d b0 2b ea 3c 69 be cb bc 2d 03 f1 bc
       0.065744825 0.028585285 -0.024871068 -0.02942046
0001d0 cf d0 b6 bd 29 60 46 3e 41 29 21 3e 33 cf 19 be
       -0.08926546 0.1937262 0.15738393 -0.15020446
0001e0 51 7c d8 3c 29 51 cb bd b1 1e 04 3d 59 25 b5 bd
       0.026426466 -0.099275894 0.032255832 -0.08845014
0001f0 9d d7 66 bd 6a 72 1c be 88 49 df bd 12 d7 87 bb
       -0.05635797 -0.1527802 -0.10902697 -0.0041455114
000200 2e 7f 1a 3e 60 8d 35 bd e0 06 87 3d 6e 34 dc bd
       0.15087578 -0.04432428 0.06593108 -0.10752188
000210 e8 b2 1d 3d b6 6d 20 3e 16 6e 70 3c d2 03 03 be
       0.038500696 0.15666851 0.014674684 -0.12794426
000220 1c 00 f7 3d be fb 35 bd 89 d1 d2 3d ba 74 c4 3c
       0.12060568 -0.044429533 0.10293872 0.02398144
000230 42 f3 56 be 8a de 0f be a3 39 db 3d 63 5e 04 3e
       -0.20991233 -0.14049736 0.10704353 0.1292663
000240 59 f5 cb 3d 78 d4 6b bd 1e 02 2d 3a bb d0 f9 bd
       0.09958906 -0.057575673 0.0006599742 -0.12198015
000250 97 9d 14 3e 93 51 35 be 6f bc 0d 3e f5 3c 27 be
       0.14513241 -0.177069 0.13841413 -0.16331847
000260 42 29 5c bc 6c 3b 1b be ca 8e 81 bd 94 ab 70 3d
       -0.013437571 -0.15159386 -0.06326063 0.05875738
000270 71 51 95 3d 0e d2 09 3e 59 9b 1b 3d bc 2c c4 3d
       0.07290924 0.13459036 0.037989948 0.09578845
000280 b3 be 27 bd 95 d6 8c 3c 54 72 ea 3d c5 9d 63 3e
       -0.04095335 0.017192164 0.114475876 0.22228153
000290 22 06 1c 3e 9d 7c e0 3c a2 c0 4e 3b 45 3f 93 3d
       0.15236714 0.02740317 0.0031547924 0.07189802
0002a0 c5 a5 52 3d f3 01 13 3e 10 17 16 be 64 f9 93 3b
       0.05142762 0.14356212 -0.14657235 0.0045158137
0002b0 64 82 d4 3d b5 47 32 be 8b 07 b9 3d 6b 5b ed bd
       0.103764325 -0.17410167 0.09034642 -0.11589702
0002c0 9e 8c 13 be f4 f7 55 3e 04 df 4f bd e5 46 b5 bd
       -0.1440911 0.20895368 -0.050749794 -0.08851413
0002d0 31 a2 18 be aa b0 59 3d 9d b9 66 bc 9a 20 07 be
       -0.14905621 0.053146996 -0.01408234 -0.1319603
0002e0 ba 84 0c 3e 77 bd 99 3d 79 05 aa 3c f7 24 06 be
       0.13722506 0.07506841 0.020754563 -0.13100038
0002f0 82 7c 35 3e 75 64 09 3e fc 97 11 bd 6d 12 83 3d
       0.17723277 0.13417228 -0.035545334 0.06399999
000300 f4 93 03 3e d8 bb 49 3e 6b 6e 09 3e 53 a6 01 3e
       0.12849408 0.19700563 0.13421027 0.12661104
000310 25 13 11 be 06 5a 84 3d 27 6d c0 3c 2d d0 4c 3c
       -0.1416746 0.06462483 0.023489548 0.012500805
000320 0d 0c 3e be 84 10 17 3e 1d d2 de bd b5 75 2a 3d
       -0.18559285 0.14752394 -0.1087992 0.04161616
000330 c2 a0 9a bd 5f ec ab bd d6 6f 34 bd 68 9d c2 bd
       -0.07550193 -0.083946936 -0.044051968 -0.09502679
000340 4b 4a 0f be ed bb 4d be cc 2c 40 3d 70 6f 07 be
       -0.13993184 -0.20091219 0.04691772 -0.13226104
000350 fd fe 2b 3e 71 1e bd bd 1f be 77 3d 72 5d 8c bc
       0.16796489 -0.09234322 0.060484048 -0.017134402
000360 5d bd 21 3d 0a fd c6 bd d1 3e e2 3d ef 09 47 be
       0.03948723 -0.09716232 0.110471375 -0.19437383
000370 b2 a8 7d bb 3e f0 43 3d fa 64 8c 3c 38 2f 8e bd
       -0.0038705287 0.047836535 0.017137993 -0.069426
000380 ca f6 66 bd 4c db b3 3d a7 ae 32 bc 39 e0 cc 3d
       -0.0563877 0.08782062 -0.010905898 0.100037046
000390 34 14 41 3e d5 72 dd bd ef 48 6a 3e c1 c6 ca bc
       0.18855363 -0.10812918 0.22879384 -0.024752976
0003a0 ea bd 0f be 1f df d3 3d cc 62 ba bc 08 fb 98 3c
       -0.1403729 0.10345291 -0.022752188 0.018674389
0003b0 57 d8 78 bc 96 17 84 bc 2c af 10 3e df 30 37 bd
       -0.015188298 -0.016124528 0.14129323 -0.04472434
0003c0 8f ae c4 bd 4f 76 95 bd e1 3c 37 3e 2d 55 b1 3d
       -0.09603607 -0.07297956 0.17894317 0.08658824
0003d0 a5 a3 aa 3d 17 99 2c be 91 9c 2f be 36 0a 09 be
       0.08331994 -0.16855274 -0.17149569 -0.13382801
0003e0 27 0d 17 3b 1e 85 ab bd 5a 51 28 be df f6 c6 3a
       0.002304861 -0.083749995 -0.16437283 0.0015179774
0003f0 59 cc 89 bd 00 33 8a 3d 1f ea 51 3e 12 ce d2 bd
       -0.06728429 0.06748009 0.20499466 -0.10293211

mamba.layers.0.mixer.dt_proj.weight f4 [32, 1]
000000 b3 96 55 bf ae 83 25 3e 22 3a 6d 3f 47 c2 4f 3f
       -0.83433074 0.16163513 0.9266683 0.8115582
000010 5a 33 84 bd b9 4c 12 3f 8f 22 44 bf 3d 17 32 3f
       -0.06455107 0.5714832 -0.7661523 0.6956671
000020 da af 63 3f 9f 15 33 be f9 92 50 3f 29 29 5f 3f
       0.88940203 -0.17488717 0.8147426 0.8717218
000030 bc 47 15 bf 3a 68 f8 be f5 4a ef be 2a ee 71 3c
       -0.5831258 -0.4851702 -0.46736875 0.014766255
000040 c9 d2 14 3f 8b fd ed be 64 5b 86 be 66 72 53 bf
       0.5813413 -0.464825 -0.262416 -0.82596433
000050 bf 81 0e bd 63 fa 18 bc 16 7e 3b 3e af 65 32 3f
       -0.034791704 -0.009337041 0.18309817 0.69686407
000060 ce 9c 1d 3f bc 66 dc 3e c9 d3 ea bd cb 29 46 bf
       0.6156739 0.4304713 -0.11466176 -0.7740752
000070 57 3c 50 3f 70 2f 8f 3e 95 01 8c 3e c0 b7 e7 3d
       0.8134207 0.2796588 0.27344957 0.113143444

mamba.layers.0.mixer.dt_proj.bias f4 [32]
000000 5b 9e 90 c0 ab 34 8a c0 6c 3b b5 c0 1a 01 9a c0
       -4.5193305 -4.318929 -5.6635036 -4.8126345
000010 58 b3 ca c0 a2 e0 8c c0 6d c3 bf c0 b8 45 7b c0
       -6.3343925 -4.402421 -5.9926057 -3.9261303
000020 01 3f 42 c0 d8 41 9a c0 d2 33 c5 c0 b1 a1 94 c0
       -3.0350955 -4.8205376 -6.1625757 -4.6447377
000030 78 2e c6 c0 77 de 41 c0 f4 88 57 c0 16 26 5b c0
       -6.1931725 -3.0292032 -3.367734 -3.4241996
000040 b3 74 18 c0 6f e3 1f c0 99 57 19 c0 a1 05 d8 c0
       -2.3821228 -2.4982564 -2.3959715 -6.750687
000050 0a 60 d9 c0 99 96 63 c0 44 59 79 c0 5f 25 ca c0
       -6.7929735 -3.5560668 -3.8960733 -6.317062
000060 d6 eb 9c c0 32 f5 ab c0 8c 1e 90 c0 3b cd 47 c0
       -4.9037886 -5.373681 -4.503729 -3.1219013
000070 76 c7 28 c0 f4 07 93 c0 6b 83 91 c0 e2 91 c2 c0
       -2.6371741 -4.594721 -4.547292 -6.080308

mamba.layers.0.mixer.out_proj.weight f4 [16, 32]
000000 fe 8c df 3d 6e 47 51 bd ee cb f6 3d d9 c5 1b 3e
       0.10915564 -0.05109351 0.12050615 0.15212192
000010 ea e1 34 3e cb b8 89 3d 2e 14 15 3d 2d 4a d1 bc
       0.17664304 0.067246996 0.036396198 -0.025548065
000020 05 56 bc 3d b7 b4 0d be aa aa 38 3e 24 d5 9d 3d
       0.091960944 -0.13838468 0.18033853 0.07706669
000030 a4 2b 26 be 36 49 c4 3d 7b 2a 0a 3e b4 f9 fb 3d
       -0.16227585 0.095842764 0.13492768 0.123034865
000040 53 15 b9 bd f6 61 16 be c1 dd c2 3d 9d ca 01 3e
       -0.090372704 -0.14685807 0.095149525 0.12674947
000050 c6 83 3b be c6 39 f0 3d 49 e1 7f 3d 8f d0 2a be
       -0.18311986 0.117297694 0.062470708 -0.16681121
000060 cd f8 61 3d 27 6c 23 3e 87 98 fb 3d 19 25 0d be
       0.055168916 0.15959226 0.12284952 -0.13783683
000070 37 1a ef bd 9a 6c 40 3e 9f 3b f1 bc 0d 43 11 3e
       -0.11674922 0.18791428 -0.029447375 0.14185734
000080 f4 c0 ca 3d 3f 92 46 be 2b 57 13 be 8a 62 c8 3d
       0.09900084 -0.19391726 -0.1438872 0.0978442
000090 54 25 fe bc f7 ab cd bd d0 85 b4 bd 9d 77 85 bc
       -0.031023659 -0.10042565 -0.08814585 -0.016292388
0000a0 7d a0 57 3e 7b a6 72 3d f6 ec 7b 3d c0 e4 4b 3e
       0.21057315 0.0592408 0.06150528 0.1991148
0000b0 2a 0b b3 3d 97 eb 47 3c 99 8a 30 be 73 45 93 3c
       0.08742364 0.012202165 -0.17240371 0.017977452
0000c0 e6 86 00 be b9 7a ad 3c 3b 84 76 3d b9 fa 94 3d
       -0.1255146 0.021176683 0.0601847 0.07274384
0000d0 9a 0e 04 3e 85 b8 f4 bd cb 5b 10 be d4 b9 d3 3d
       0.12896195 -0.11949257 -0.14097516 0.10338178
0000e0 46 f4 80 bd 5f 58 ff bd e4 de 3d be d0 12 6d 3d
       -0.062965915 -0.12468027 -0.18542057 0.05787927
0000f0 03 88 f3 bb 41 20 c2 3c d0 f6 a1 bd 78 f2 05 3e
       -0.0074319853 0.02369702 -0.07908404 0.13080776
000100 39 e8 d8 3c f6 b2 80 bd 47 38 ac bd 7a e4 f1 bd
       0.02647792 -0.06284134 -0.084091716 -0.118111566
000110 f8 2f 8b bd e5 cd 55 bd 84 98 9d bd 54 01 1b 3e
       -0.06796259 -0.05219831 -0.07695106 0.15137225
000120 23 fc ac 3b 5f 49 04 be 85 e2 04 3e ea ed ef 3d
       0.0052790805 -0.12918614 0.12977035 0.117153004
000130 74 69 45 3e dd 4c d2 3d 57 57 9e 3d 0a 71 be bd
       0.19278508 0.10268567 0.077315025 -0.09298904
000140 85 7b 21 3e c3 68 e1 3d 72 4d 2e bc 59 35 eb bd
       0.15769775 0.1100631 -0.010638582 -0.11484785
000150 06 2e f8 3d 29 02 08 3e 05 da 86 3d 71 6a 21 bd
       0.12118153 0.13282074 0.06584553 -0.03940815
000160 4f 3d d3 bd be b3 f7 bd 7d 5e 92 bd 40 f5 d9 3d
       -0.10314428 -0.1209483 -0.071469285 0.10642481
000170 0e 86 82 3b f4 cf 45 bd 9a e3 1d bd 40 08 ec 3d
       0.0039832657 -0.048294023 -0.038547136 0.11525011
000180 75 3b d9 3d 0e 86 55 bd 6c 5b ac 3c 8f 96 04 3e
       0.10607044 -0.052129798 0.021039687 0.12948059
000190 cc dc 0b bd fc 43 03 3d 61 6b 1f be 79 c5 1b 3e
       -0.034146115 0.032047257 -0.15568306 0.15212049
0001a0 71 33 2b be 7f 18 18 bd 9e 0c 82 3d a9 70 c7 3d
       -0.16718842 -0.037132736 0.06350063 0.09738285
0001b0 af 19 39 be 3a 5c 56 bd 62 02 e8 bc cc b8 25 3e
       -0.18076204 -0.052334048 -0.028321449 0.16183776
0001c0 63 97 ab bd a1 47 9b bd eb 8a 55 3e c1 8a e2 bc
       -0.08378484 -0.075820215 0.20853774 -0.027654054
0001d0 79 3d 50 be 91 a1 b0 bd 89 51 4c bd b7 36 45 be
       -0.2033595 -0.08624566 -0.049882445 -0.19259153
0001e0 65 65 38 be a0 f4 5b 3e 11 6f c5 bd 0e 90 be bb
       -0.18007429 0.21480036 -0.09640325 -0.0058155125
0001f0 50 5b f0 bd df a7 c2 3d 5f 39 9b bd de 1c ba 3b
       -0.117361665 0.09504675 -0.07579302 0.005679711
000200 6a ec 13 be 9f b4 dd 3d 06 e3 33 be 7a 80 1b be
       -0.14445654 0.10825466 -0.17567071 -0.15185729
000210 41 74 8b 3c 94 e5 f3 3d dc 9e ad bd 9f c9 dd bd
       0.017023208 0.11909023 -0.08477566 -0.10829472
000220 61 22 a7 bd 9c ad 2c 3e e8 0c e3 3d 88 bb 05 be
       -0.08160854 0.16863102 0.11086446 -0.13059819
000230 7c a4 04 be 87 de dc b9 ca 90 fa bc 8f 64 3e 3d
       -0.12953371 -0.00042127466 -0.030586619 0.04648262
000240 f9 d7 a8 3d 08 26 00 be 90 d7 da bd ff 81 a4 bd
       0.082443185 -0.12514508 -0.106856465 -0.08032607
000250 2e 7a 0e 3e f7 30 18 3d ed 71 b4 bd 1d 75 ef 3d
       0.13913795 0.03715607 -0.08810792 0.116922595
000260 36 e5 d4 bc 44 c3 f9 bd 69 8f dc 3c 70 78 66 bd
       -0.025988203 -0.12195447 0.026923852 -0.056267202
000270 05 4e df ba 3d 76 a4 3b d1 a3 98 3d 09 49 f6 3d
       -0.0017036801 0.005018978 0.074531205 0.12025649
000280 5e 96 0e be c5 41 d8 3d ce 75 12 bd da b9 96 3d
       -0.13924548 0.105594195 -0.03575688 0.07359667
000290 c1 bc b4 bd 18 26 cd bd 91 58 f1 3d 76 2f 8b 3d
       -0.088250645 -0.100170314 0.11784471 0.06796162
0002a0 8f 27 d1 3b d8 f0 c9 3d 0f 70 47 be aa 78 69 bd
       0.0063828896 0.098603904 -0.1947634 -0.05699984
0002b0 d9 2e 1f be fd db b5 3d c2 26 fb 3b 46 4e 89 3d
       -0.15545215 0.0887985 0.0076645324 0.067043826
0002c0 7c eb ac 3d 13 53 a0 3d 1a 30 83 3c a7 21 9a 3d
       0.084433526 0.07828345 0.016014148 0.0752595
0002d0 79 77 97 bd fc 88 04 be 78 54 a7 bd 90 23 2e 3e
       -0.073958345 -0.1294288 -0.08170408 0.17005754
0002e0 93 8b d0 3d ef 42 11 be fc 67 08 be 9f 9c 6d 3c
       0.10182872 -0.1418569 -0.13320917 0.014502673
0002f0 9d ba f7 3d 98 a9 11 be bd 93 1b 3e 60 01 44 be
       0.120961405 -0.14224851 0.15193076 -0.1914115
000300 8e dd 3f be 72 47 b9 bd d8 e2 44 3e d6 72 b5 bc
       -0.1873686 -0.0904683 0.19227159 -0.022149485
000310 db 47 bc 3d 9c f2 05 3d 35 d6 96 bd a4 19 cc 3c
       0.09193393 0.032702073 -0.073650755 0.02491457
000320 eb ba 8a 3b c9 df 49 be c3 4c 1c 3e b0 70 14 3d
       0.004233708 -0.19714274 0.15263657 0.03624028
000330 c6 56 26 be 05 ed 26 3e 4c 8f 1f 3e 09 12 36 3e
       -0.16244039 0.16301353 0.15582007 0.17780317
000340 13 53 c4 3d 01 36 64 bd 07 d9 cf 3c a7 d1 4e be
       0.09586158 -0.055715565 0.025372041 -0.20197164
000350 73 d0 12 bd f1 f9 96 bd e2 00 52 3d a6 b8 6b 3d
       -0.035843324 -0.07371891 0.051270373 0.05754914
000360 87 86 07 be 8e cd d9 3d bb d6 39 3e 52 fa ef bc
       -0.13234912 0.106349096 0.1814832 -0.029294167
000370 78 62 36 be 25 30 40 3e 1c 06 ea bd 00 c0 2a 3e
       -0.17811 0.18768366 -0.114269465 0.16674805
000380 a8 ee 2a be 8e 14 37 3e c1 d9 15 3c 87 37 23 3e
       -0.16692603 0.17878935 0.009146155 0.15939151
000390 8a 57 01 3e ba 8d 00 3e 15 ce 16 be cb 66 0a bb
       0.1263105 0.12554064 -0.14727052 -0.0021118398
0003a0 91 a4 81 bd 58 d1 4a bd f4 7e 4f 3d 14 0c fa bd
       -0.06330217 -0.049516052 0.05065818 -0.12209335
0003b0 bd 76 06 be 53 61 23 3e 8f 87 ba bd 42 18 11 3e
       -0.13131233 0.15955095 -0.09107887 0.1416941
0003c0 34 07 07 3e c4 bc 8c 3d a0 31 5d 3d 48 22 01 3e
       0.13186342 0.06871942 0.054002404 0.12610734
0003d0 42 54 06 be 8b ea 60 bd e4 98 28 be 64 13 ea 3d
       -0.1311808 -0.054911178 -0.16464573 0.1142948
0003e0 fd 35 e5 3d 27 73 cb 3c d3 a4 e2 3c 6e 81 19 be
       0.11191938 0.024835182 0.027666485 -0.1499078
0003f0 10 43 04 be 0f fe 61 bc bd 8b 21 be f8 b5 d5 3c
       -0.12916207 -0.013793482 -0.15775962 0.026087746

mamba.layers.0.norm.weight f4 [16]
000000 0e 47 84 3f 8d 87 81 3f 3b e0 82 3f 8a 1f 76 3f
       1.0334184 1.0119492 1.022468 0.96141875
000010 b4 18 87 3f d3 92 7e 3f d5 14 86 3f 47 19 84 3f
       1.0554414 0.99442786 1.0475107 1.0320214
000020 3d ff 85 3f ee e9 83 3f 94 ad 92 3f ca 2e 87 3f
       1.0468518 1.0305765 1.1459222 1.0561154
000030 81 10 80 3f c4 db 84 3f 49 d7 80 3f db 83 82 3f
       1.0005037 1.0379567 1.00657 1.0196489

norm.weight f4 [16]
000000 c6 ce 82 3f 52 db 78 3f 1c 44 77 3f ad 04 78 3f
       1.0219352 0.97209656 0.965883 0.96882135
000010 42 29 77 3f 60 64 82 3f b3 12 78 3f 0d de 77 3f
       0.9654733 1.0186882 0.9690353 0.968232
000020 09 79 77 3f e8 d3 77 3f 10 c6 81 3f 6a c3 7b 3f
       0.9666906 0.9680772 1.0138569 0.98345053
000030 b8 9b 83 3f 29 99 77 3f 03 09 80 3f 6a b0 83 3f
       1.0281897 0.9671808 1.000275 1.0288212

output_head.weight f4 [1, 16]
000000 36 ee d8 bd 91 d1 0b 3e 10 bf cd 3d 8e 0a 04 be
       -0.1059231 0.13654162 0.10046208 -0.12894651
000010 0c 91 16 3e 98 88 e1 3d 06 16 44 be 7d aa 91 bd
       0.14703768 0.11012381 -0.19149026 -0.07112596
000020 f3 b2 23 be 1b 3c 34 3e 8d 21 34 be bb 2a 86 3c
       -0.15986232 0.17601053 -0.17590924 0.016377797
000030 0c 4b 51 3e 76 0f 0f be f2 b0 30 3d 71 19 28 bd
       0.20438784 -0.13970742 0.0431375 -0.041039888

exp_avg f4 [16, 3]
000000 f0 ef 16 b8 be 10 fc b7 5e ab 1a 36 48 ba 39 37
       -3.5986246e-05 -3.0048537e-05 2.3047537e-06 1.1070231e-05
000010 76 86 89 37 97 46 ea b5 b8 63 76 37 33 db 8e 37
       1.6394286e-05 -1.7454903e-06 1.468596e-05 1.7029792e-05
000020 2b 3d 94 34 92 e9 e8 b7 51 9a e6 b7 19 3e ef 35
       2.7611654e-07 -2.776532e-05 -2.7489996e-05 1.782496e-06
000030 64 86 9b 37 2d b3 ab 37 c2 ec 8c b5 9e fe 08 38
       1.854002e-05 2.0468224e-05 -1.0499718e-06 3.2662057e-05
000040 95 fc e9 37 8c 2c 47 b6 85 a8 bd b7 65 fd f0 b7
       2.7893382e-05 -2.967924e-06 -2.2609029e-05 -2.8728226e-05
000050 64 59 ad 35 51 22 0e b7 dd bc bb b6 12 f0 fc b3
       1.291552e-06 -8.4718495e-06 -5.595021e-06 -1.1778333e-07
000060 5e b3 cc b7 e4 9f 94 b7 67 3f b9 35 56 0e e2 37
       -2.440222e-05 -1.771743e-05 1.3802027e-06 2.6947975e-05
000070 a1 6e c6 37 ee 2a d5 b5 36 56 47 b8 96 8c 52 b8
       2.3654955e-05 -1.5882231e-06 -4.7525587e-05 -5.0198832e-05
000080 0d 46 46 36 79 52 ac 37 91 d6 b9 37 b5 72 fb b5
       2.9545074e-06 2.0542402e-05 2.2153634e-05 -1.8734341e-06
000090 8e 14 86 38 19 95 7a 38 56 22 4e b6 e4 a7 7c b7
       6.3934465e-05 5.9743503e-05 -3.0716378e-06 -1.5059461e-05
0000a0 2a ec 94 b7 a4 a0 8f 35 94 0b 33 37 33 29 08 37
       -1.7752947e-05 1.0701083e-06 1.0671927e-05 8.115824e-06
0000b0 7e 22 76 b4 93 94 90 b7 85 58 96 b7 36 98 d4 35
       -2.2923084e-07 -1.7235323e-05 -1.7922614e-05 1.583953e-06

exp_avg_sq f4 [16, 3]
000000 e2 bf 65 34 d5 d2 63 37 9d 30 97 34 30 0a ee 34
       2.1397094e-07 1.35793425e-05 2.8161313e-07 4.4338367e-07
000010 d0 a0 c9 36 1a 67 05 34 f1 a0 ee 32 95 4c 39 33
       6.008988e-06 1.2424098e-07 2.7780034e-08 4.314332e-08
000020 c1 ae 4e 30 e4 3c 5f 34 6c 31 f3 36 a6 4d 1b 34
       7.5190704e-10 2.0790645e-07 7.247718e-06 1.4463748e-07
000030 91 7a 41 33 57 af 65 36 3e 65 8e 33 61 4b f0 34
       4.5047788e-08 3.422572e-06 6.630806e-08 4.475833e-07
000040 26 71 b3 37 3d b2 e6 34 05 dd 0f 35 50 8e d8 36
       2.1391152e-05 4.2970524e-07 5.3593277e-07 6.453869e-06
000050 73 c2 0e 34 2a e9 f5 31 ff 12 97 33 a4 cd 9e 30
       1.3295521e-07 7.156946e-09 7.034941e-08 1.155446e-09
000060 f6 e0 d9 33 35 bd 0c 37 2b e0 35 34 3b 93 85 34
       1.014577e-07 8.3887035e-06 1.693849e-07 2.4880305e-07
000070 2d 10 49 37 93 73 84 34 2f 68 70 34 3a 16 34 37
       1.19843e-05 2.4671007e-07 2.2389644e-07 1.0734011e-05
000080 b2 01 71 34 a8 2c cb 32 87 e4 e5 34 cc 6e 26 32
       2.2445491e-07 2.3652618e-08 4.282085e-07 9.687664e-09
000090 a9 a9 3f 35 2a e1 c2 37 3c 9a 01 35 cc 80 fe 33
       7.139993e-07 2.3231452e-05 4.8280685e-07 1.1851225e-07
0000a0 90 23 25 36 3b f6 52 33 51 d9 bf 33 bc 79 d2 34
       2.4607616e-06 4.911838e-08 8.93366e-08 3.9204122e-07
0000b0 2f 84 0c 32 21 7c c5 33 12 af 1c 36 e9 a2 48 33
       8.179128e-09 9.196106e-08 2.3347716e-06 4.6714295e-08

exp_avg f4 [16]
000000 84 4a 0c b7 c2 1b a4 36 df 4e 9a 36 f5 a3 01 b7
       -8.362e-06 4.8908123e-06 4.5987395e-06 -7.727173e-06
000010 53 d8 c1 36 16 b4 05 37 95 03 08 b7 03 53 bc b5
       5.7770317e-06 7.969347e-06 -8.107066e-06 -1.4031251e-06
000020 ed f1 a3 b6 d4 13 dd 36 99 e9 6c b7 34 04 d5 36
       -4.8859424e-06 6.5886215e-06 -1.4121085e-05 6.348384e-06
000030 69 4e 8a 37 61 b7 a9 b6 5d 81 0f 36 22 48 ac b6
       1.6487395e-05 -5.0579406e-06 2.138396e-06 -5.134397e-06

exp_avg_sq f4 [16]
000000 8d e4 84 35 02 f8 f0 34 dd 1e 57 31 26 67 0f 35
       9.901283e-07 4.4883933e-07 3.1304161e-09 5.342175e-07
000010 ee 1f 86 34 9c d3 d2 35 05 ba 01 35 cf 63 b9 31
       2.4982677e-07 1.5707806e-06 4.832694e-07 5.3955556e-09
000020 9c 26 24 35 e4 83 6b 35 62 49 52 35 41 57 06 33
       6.1150945e-07 8.773625e-07 7.833788e-07 3.1278663e-08
000030 d7 0e e5 35 7c 64 44 34 1e a4 01 33 eb ae 39 34
       1.7066149e-06 1.8290478e-07 3.0184417e-08 1.7293102e-07

exp_avg f4 [16]
000000 3e 51 79 37 f7 2c 22 b7 c4 a8 41 b6 bb 7f 65 b5
       1.4860472e-05 -9.666422e-06 -2.8857476e-06 -8.549502e-07
000010 c0 01 6d 35 ca 19 96 37 9e 1a f5 b7 0c ee 0f b6
       8.8291927e-07 1.7893402e-05 -2.921867e-05 -2.1447222e-06
000020 35 d2 0d 37 ba b8 c8 b4 16 c5 95 36 5f 65 0d b5
       8.453198e-06 -3.738731e-07 4.46349e-06 -5.267411e-07
000030 f4 16 5c b6 bc d4 e2 b6 bf 46 d1 b6 6a 26 52 36
       -3.2795915e-06 -6.7600904e-06 -6.2369213e-06 3.1314798e-06

exp_avg_sq f4 [16]
000000 72 2d 15 36 f6 67 0b 34 ae 66 8f 33 17 3a 82 34
       2.2229183e-06 1.2983205e-07 6.677634e-08 2.4256653e-07
000010 86 93 78 35 de 3d c6 36 74 fe e2 35 7a b0 52 33
       9.2601874e-07 5.908062e-06 1.6912368e-06 4.905494e-08
000020 80 8a ae 34 f0 0d 56 35 11 ca e5 31 25 4f 09 31
       3.2510798e-07 7.9741494e-07 6.6877495e-09 1.9981112e-09
000030 26 b6 88 34 5d 84 2a 35 2c a9 8d 31 de 20 5a 34
       2.5464504e-07 6.352255e-07 4.1228727e-09 2.0314789e-07

exp_avg f4 [16]
000000 bd 0e 7a b7 5e e1 48 37 b7 f4 1e 37 68 33 82 b7
       -1.4904593e-05 1.1973401e-05 9.474511e-06 -1.5521146e-05
000010 02 1e 40 37 8f 90 64 37 5b a2 a0 b7 1a 85 b7 b6
       1.14510785e-05 1.3623517e-05 -1.9149089e-05 -5.46932e-06
000020 a6 84 41 b7 f7 12 79 37 8c f9 df b7 eb 8d 20 37
       -1.1534581e-05 1.4845972e-05 -2.6699876e-05 9.569786e-06
000030 92 fc 00 38 cc 26 35 b7 03 dc bb 36 39 e6 14 b7
       3.0752803e-05 -1.0797474e-05 5.598647e-06 -8.87509e-06

exp_avg_sq f4 [16]
000000 c9 ef 05 36 23 3a 67 35 e2 d5 89 32 79 7f ac 35
       1.9958118e-06 8.6138806e-07 1.6046162e-08 1.2852098e-06
000010 30 99 fb 34 3b ab 2f 36 e2 89 b2 35 31 4b 5a 33
       4.6863852e-07 2.6176701e-06 1.3302163e-06 5.0825467e-08
000020 28 10 bf 35 56 2c dc 35 f8 2f ed 35 80 fd 0c 33
       1.4235311e-06 1.6404181e-06 1.7671837e-06 3.2826847e-08
000030 38 b8 4c 36 ab b8 13 35 93 ff 23 33 ec 64 d3 34
       3.0505598e-06 5.5030495e-07 3.818384e-08 3.9375243e-07
