saves_ar/soc_mamba_v2/model.pth (torch, 59642 bytes, 48 tensors)

input_proj.weight f4 [16, 3]
0	0xbe2789cf	-0.16361164
1	0xbec5a856	-0.38604993
2	0xbeb3ebf1	-0.35140947
3	0xbf0191ab	-0.50612897
4	0xbd7e2a83	-0.06205226
5	0xbe9836d5	-0.29729334
6	0x3edb1dc3	0.42796144
7	0xbf0513d7	-0.519834
8	0xbed42bb2	-0.41439587
9	0xbd53bca8	-0.05169359
10	0x3d06675d	0.03281342
11	0x3ee5958c	0.44840658
12	0x3eecdefe	0.4626388
13	0xbef80e2a	-0.48448306
14	0xbea7e3eb	-0.32791075
15	0xbcd835be	-0.026392814
16	0x3f178b21	0.5919667
17	0xbeba7e9d	-0.36424723
18	0x3efdbc44	0.49557698
19	0x3f0377ff	0.51354975
20	0x3eebd170	0.46058226
21	0xbdaa364a	-0.08311136
22	0x3f08e3e8	0.5347276
23	0x3e4def3e	0.20110795
24	0xbefd1d7c	-0.49436557
25	0x3ea417d3	0.32049426
26	0xbe1e7888	-0.15475667
27	0x3e316d31	0.1732681
28	0xbe90080c	-0.2813114
29	0x3e8256c8	0.25456834
30	0xbe508ef9	-0.2036704
31	0x3de50f11	0.11184514
32	0xbefee3be	-0.49783128
33	0xbdf03fe0	-0.11730933
34	0x3d93e442	0.07221271
35	0x3e8b0459	0.27151754
36	0xbe328252	-0.17432526
37	0x3e958b32	0.2920776
38	0x3ddc9b6a	0.107718304
39	0xbc9b31d7	-0.018944664
40	0x3eb4c51d	0.35306635
41	0x3ec3f0f3	0.38269767
42	0xbeeccee9	-0.4625161
43	0xbe329c9f	-0.17442559
44	0xbd6be000	-0.05758667
45	0x3e17f807	0.14840709
46	0xbe314980	-0.17313194
47	0x3e88e602	0.26737982

input_proj.bias f4 [16]
0	0x3e5fc2cb	0.21851651
1	0xbe95341a	-0.29141313
2	0x3e52bc6b	0.20579688
3	0x3ebab615	0.36467043
4	0x3f04ca1f	0.5187091
5	0x3ee58966	0.4483139
6	0x3e03faa6	0.12888584
7	0xbf116530	-0.56795025
8	0xbefd1b85	-0.49435058
9	0x3ebe9b43	0.3722783
10	0xbd14a070	-0.036285818
11	0x3e84584f	0.25848624
12	0xbeeb4794	-0.45953047
13	0x3e2df540	0.16988087
14	0x3f183a90	0.5946436
15	0xbe93caf0	-0.28865767

input_norm.weight f4 [16]
0	0x3f82700f	1.0190448
1	0x3f75ddd4	0.9604161
2	0x3f74d7e0	0.956419
3	0x3f7658e8	0.9622941
4	0x3f74858e	0.9551629
5	0x3f821cae	1.0165002
6	0x3f767d62	0.9628507
7	0x3f75980a	0.9593512
8	0x3f751155	0.9572957
9	0x3f77424f	0.96585554
10	0x3f80490b	1.0022291
11	0x3f876458	1.0577497
12	0x3f834255	1.0254618
13	0x3f765eca	0.96238387
14	0x3f787489	0.9705282
15	0x3f82b7d3	1.0212349

input_norm.bias f4 [16]
0	0xbcc72729	-0.024310665
1	0x3c9c6d00	0.019094944
2	0xbbe00f6d	-0.0068377764
3	0xbcb31041	-0.021858336
4	0x3cad4c32	0.021154497
5	0x3cb997ac	0.02265533
6	0xbcac9608	-0.021067634
7	0xbca98fe8	-0.020698503
8	0xbcab0e30	-0.020880789
9	0x3ca83940	0.020535111
10	0xbcb7c9a4	-0.022435017
11	0x3d1c566e	0.038168363
12	0x3cbb47c8	0.022861376
13	0xbcba8504	-0.022768505
14	0x3c985815	0.018596688
15	0xbcdc6f42	-0.02690852

mamba.layers.0.mixer.A_log f4 [32, 16]
0	0x3cc5f651	0.024165304
1	0x3f312ea8	0.69211817
2	0x3f8dd0dd	1.1079365
3	0x3fae442b	1.3614553
4	0x3fcaad16	1.5834072
5	0x3fe56f75	1.7924639
6	0x3ff9b9af	1.9509791
7	0x4005ac2e	2.088634
8	0x400c8845	2.1958172
9	0x40139e38	2.306532
10	0x401934cd	2.3938477
11	0x401f80b5	2.4922307
12	0x40240425	2.562753
13	0x4027e64f	2.623432
14	0x402d82cf	2.711109
15	0x4031f975	2.7808506
16	0x3cd7fdf7	0.026366217
17	0x3f32e471	0.69879824
18	0x3f8ed838	1.1159735
19	0x3fae61b0	1.3623562
20	0x3fcae363	1.5850643
21	0x3fe66804	1.8000493
22	0x3ffa89b1	1.957327
23	0x40063881	2.0971987
24	0x400d3c32	2.206799
25	0x40142278	2.3146038
26	0x4019e504	2.404603
27	0x401ff4e6	2.4993224
28	0x402462da	2.5685334
29	0x4028b7e0	2.6362228
30	0x402e3523	2.7219932
31	0x4032990d	2.7905915
32	0xbc09e805	-0.008417134
33	0x3f345a4a	0.7045027
34	0x3f8dda0d	1.1082169
35	0x3fb6dfd5	1.4287058
36	0x3fcd60c3	1.6045154
37	0x3fe30ae1	1.7737695
38	0x3ff3f706	1.905976
39	0x40032f14	2.0497484
40	0x400b2cfa	2.1746202
41	0x4010da7d	2.2633355
42	0x40173a09	2.3629172
43	0x401c39b0	2.441021
44	0x4020686f	2.5063741
45	0x40277480	2.6164856
46	0x402b01cd	2.671985
47	0x402e2893	2.7212265
48	0xbad2e1a7	-0.0016088978
49	0x3f36e310	0.7144022
50	0x3f8b0a93	1.0862602
51	0x3fb8314f	1.4390048
52	0x3fd6cbe1	1.6780969
53	0x3fdf156f	1.7428416
54	0x3ff42318	1.907321
55	0x4002bd9e	2.0428233
56	0x400ae378	2.1701336
57	0x400ff502	2.249329
58	0x4016b063	2.3545158
59	0x401b41de	2.4258952
60	0x4022407a	2.5351853
61	0x40266f7c	2.6005545
62	0x40294023	2.6445396
63	0x402c5004	2.6923838
64	0xbc4d6bd9	-0.01253792
65	0x3f33a1b5	0.7016862
66	0x3f904e70	1.1273937
67	0x3fba97e5	1.4577605
68	0x3fc9df44	1.577126
69	0x3fe3e500	1.780426
70	0x3ff749ac	1.9319358
71	0x400460e5	2.068414
72	0x400cfd70	2.2029686
73	0x4011ee69	2.2801764
74	0x4018793a	2.382399
75	0x401cf927	2.452707
76	0x40226f4c	2.538043
77	0x4029c341	2.6525424
78	0x402c0378	2.6877117
79	0x402f3a3a	2.7379289
80	0x3cdb6ef1	0.0267863
81	0x3f338bd0	0.7013521
82	0x3f8ec37a	1.1153405
83	0x3fae7f37	1.3632573
84	0x3fcc92a2	1.5982249
85	0x3fe60cab	1.7972616
86	0x3ffb1530	1.9615841
87	0x40067b61	2.1012805
88	0x400d590c	2.20856
89	0x40146cfd	2.319152
90	0x401a22b7	2.4083688
91	0x401fda4f	2.4976995
92	0x4024c5fa	2.5745835
93	0x4028a3e9	2.6350043
94	0x402e200a	2.7207055
95	0x4032f432	2.7961545
96	0xbc81b011	-0.015831025
97	0x3f2ae701	0.66758734
98	0x3f8c8b3c	1.0979991
99	0x3fb18faf	1.3871974
100	0x3fb4f868	1.4138308
101	0x3fe38d0a	1.7777417
102	0x3ff7f038	1.9370184
103	0x40030195	2.0469716
104	0x400c41cb	2.1915157
105	0x40128936	2.2896247
106	0x4018151a	2.376288
107	0x401c8034	2.445325
108	0x4021e2a1	2.5294573
109	0x4028401c	2.628913
110	0x402b1d2e	2.673656
111	0x402fe8d0	2.7485847
112	0xbb9ecb70	-0.004846029
113	0x3f3066c0	0.68906784
114	0x3f89de48	1.077096
115	0x3fb275c0	1.3942184
116	0x3fd0b0d4	1.6303964
117	0x3fe127b1	1.7590238
118	0x3ff44428	1.90833
119	0x40026a4b	2.0377376
120	0x400a50b5	2.161176
121	0x4010df10	2.2636147
122	0x401642f0	2.3478355
123	0x401bbf3e	2.4335475
124	0x4020e0b3	2.5137146
125	0x40259e83	2.5877998
126	0x402a1613	2.6575973
127	0x402e4747	2.7231004
128	0xbca7aeca	-0.020469088
129	0x3f29f45e	0.663885
130	0x3f8906df	1.0705222
131	0x3fb27a42	1.394356
132	0x3fbe8c23	1.4886516
133	0x3fdd843b	1.7305979
134	0x3ff23b35	1.8924319
135	0x40015e7a	2.0213914
136	0x40097455	2.1477253
137	0x400f00d7	2.2344263
138	0x40151041	2.329117
139	0x401a299f	2.4087903
140	0x4021178e	2.5170627
141	0x40269ca8	2.6033115
142	0x4028a5ca	2.635119
143	0x402bad90	2.6824684
144	0xbb3d6023	-0.0028896413
145	0x3f33a9d3	0.70181006
146	0x3f8c98fd	1.0984188
147	0x3fb4bb8c	1.4119735
148	0x3fcc78ab	1.5974325
149	0x3fe34e50	1.7758274
150	0x3ff5422b	1.9160818
151	0x4003703f	2.053726
152	0x400b866a	2.180079
153	0x4011b078	2.2763958
154	0x401799b5	2.3687565
155	0x401ccc2d	2.449962
156	0x4021aaeb	2.526057
157	0x40277393	2.616429
158	0x402b440d	2.6760285
159	0x402e9c1e	2.7282786
160	0x3a624dc8	0.0008632806
161	0x3f359aee	0.7093953
162	0x3f8c95df	1.0983237
163	0x3fb52d47	1.4154443
164	0x3fd34ef2	1.6508467
165	0x3fe4ca50	1.7874241
166	0x3ff6fe1b	1.9296297
167	0x40044dcb	2.067248
168	0x400c8129	2.1953833
169	0x4012b489	2.292269
170	0x40189fcb	2.384753
171	0x401da5af	2.4632375
172	0x4022a283	2.541169
173	0x40286869	2.6313727
174	0x402c00dd	2.6875527
175	0x40301b1b	2.7516544
176	0x3d05fbe0	0.03271091
177	0x3f2e9d47	0.68208736
178	0x3f8f3ec6	1.1191032
179	0x3fb01338	1.3755865
180	0x3fbb91a7	1.4653825
181	0x3fe81daa	1.8134053
182	0x3ff958b0	1.948019
183	0x40048960	2.0708847
184	0x400c107a	2.1885056
185	0x40133e34	2.3006716
186	0x40187305	2.3820202
187	0x401e9b03	2.4782112
188	0x402316e1	2.5482714
189	0x4026faf3	2.6090667
190	0x402cf48b	2.7024257
191	0x402f7f4f	2.7421453
192	0x3d269898	0.04067287
193	0x3f2bdf66	0.67137754
194	0x3f9c2ccd	1.2201172
195	0x3fae6f21	1.3627664
196	0x3fa964cf	1.3233889
197	0x3ff13726	1.8844955
198	0x40059ae9	2.08758
199	0x400587f0	2.086422
200	0x4014bcea	2.3240304
201	0x401b1453	2.4231155
202	0x40210d35	2.516431
203	0x401fa8aa	2.4946694
204	0x4029e94f	2.654865
205	0x402e8f43	2.727494
206	0x402e93e0	2.7277756
207	0x4034353e	2.8157496
208	0xbca409a2	-0.020024125
209	0x3f29b58d	0.6629265
210	0x3f87d3d0	1.0611515
211	0x3fb05441	1.3775712
212	0x3fc53dfa	1.5409539
213	0x3fdff4d1	1.7496587
214	0x3ff133fa	1.8843987
215	0x400142e0	2.0197067
216	0x4008d359	2.1378996
217	0x400f5dc4	2.240098
218	0x4014e100	2.326233
219	0x401ae4b2	2.4202085
220	0x4020015d	2.5000832
221	0x4025e5a7	2.5921419
222	0x40294565	2.6448605
223	0x402b22d4	2.6740007
224	0xbc89cdbf	-0.01682174
225	0x3f28716a	0.65798056
226	0x3f87bef7	1.0605153
227	0x3fae300b	1.3608412
228	0x3fc4ae08	1.536561
229	0x3fe01bb4	1.7508454
230	0x3ff357a7	1.9011124
231	0x40012a2a	2.0181985
232	0x40092207	2.1427019
233	0x400f1024	2.2353601
234	0x4014f51e	2.3274608
235	0x401a8eb1	2.4149592
236	0x40212189	2.5176718
237	0x40251e2d	2.5799668
238	0x40288878	2.6333294
239	0x402c9264	2.696435
240	0xbc839273	-0.016061043
241	0x3f2dd115	0.6789716
242	0x3f87df64	1.0615048
243	0x3fb04e2d	1.3773857
244	0x3fcbe48a	1.592912
245	0x3fdfa6fb	1.7472833
246	0x3ff1eca3	1.8900341
247	0x4001a2ca	2.0255609
248	0x40092f5d	2.1435158
249	0x400fcacc	2.2467527
250	0x4015d41c	2.3410711
251	0x401af008	2.4209003
252	0x40206a73	2.5064971
253	0x402567cb	2.58446
254	0x402967fb	2.6469715
255	0x402c1ae8	2.6891422

mamba.layers.0.mixer.D f4 [32]
0	0x3f79a373	0.9751503
1	0x3f78ce0a	0.9718939
2	0x3f833150	1.0249424
3	0x3f889d00	1.0672913
4	0x3f86bc3a	1.0526192
5	0x3f79c2ec	0.9756305
6	0x3f904d3c	1.127357
7	0x3f80a7b6	1.0051181
8	0x3f8c04d2	1.0938971
9	0x3f88763f	1.0661086
10	0x3f84a5ed	1.0363137
11	0x3f825038	1.0180731
12	0x3f824954	1.0178628
13	0x3f880186	1.0625465
14	0x3f82b0dc	1.0210223
15	0x3f861c66	1.0477417
16	0x3f7a5e1d	0.97799855
17	0x3f7a5856	0.9779104
18	0x3f849603	1.035828
19	0x3f84d7f9	1.037841
20	0x3f86cfdb	1.0532182
21	0x3f852aab	1.0403646
22	0x3f816865	1.0109984
23	0x3f86b097	1.0522641
24	0x3f871fb9	1.0556556
25	0x3f856a4f	1.0423068
26	0x3f845ee9	1.0341464
27	0x3f86103a	1.0473702
28	0x3f8af08d	1.085466
29	0x3f852dfa	1.0404656
30	0x3f7cb859	0.9871879
31	0x3f871acf	1.0555056

mamba.layers.0.mixer.in_proj.weight f4 [64, 16]
0	0x3e576fab	0.21038692
1	0xbe7f37cd	-0.2492363
2	0x3e0d8b47	0.13822661
3	0xbe63dcae	-0.22252151
4	0xbe81c82a	-0.25348026
5	0xbe423b1f	-0.18967865
6	0x3c876cba	0.016531337
7	0x3dd8fd21	0.105951555
8	0x3dc6442c	0.096809715
9	0x3e4559f0	0.1927259
10	0x3e595b74	0.21226293
11	0x3e12b7ba	0.14327899
12	0x3d09cac4	0.033640638
13	0x3e225c4c	0.15855521
14	0x3dbfb5ee	0.09360872
15	0x3d0f8bdb	0.035045486
16	0xbbb67a25	-0.00556876
17	0xbcc54a92	-0.02408341
18	0x3e6284b2	0.22120932
19	0xbdff6bcd	-0.12471733
20	0x3e33afa6	0.17547473
21	0xbe37686f	-0.17910932
22	0xbe6ff68d	-0.23433895
23	0x3d3cbac9	0.04607657
24	0xbe903ec6	-0.28172892
25	0xbd1af121	-0.037827615
26	0xbe084198	-0.13306272
27	0xbd530384	-0.051517025
28	0xbe27122c	-0.16315526
29	0x3d53abaa	0.051677383
30	0x3d1e4571	0.038640443
31	0xbdcb62bf	-0.09930944
32	0xbe472054	-0.19445926
33	0x3b8f31de	0.0043699583
34	0xbe851949	-0.25995854
35	0x3e0d33cc	0.1378929
36	0x3e0cdec2	0.1375685
37	0x3e5c5161	0.21515419
38	0xbe0ed95d	-0.13950105
39	0x3e3f70b2	0.18695334
40	0x3e2be58d	0.16786785
41	0xbe486a54	-0.19571811
42	0xbe06ba02	-0.13156894
43	0xbcc7cc8c	-0.024389528
44	0xbe1b52d4	-0.15168315
45	0xbe095eb1	-0.13415028
46	0xbe798a57	-0.24369179
47	0xbe79608f	-0.2435324
48	0x3bfaf098	0.0076580755
49	0xbd2064f8	-0.03915879
50	0x3cb99db4	0.022658207
51	0xbdc9422c	-0.098270744
52	0x3e9c4670	0.3052249
53	0xbd407ae8	-0.046992213
54	0x3d923997	0.07139891
55	0xbe18580c	-0.14877337
56	0x3cd59c70	0.026075572
57	0x3ea003ee	0.31252998
58	0xbe8b5c54	-0.27218878
59	0xbe242628	-0.1603018
60	0x3e1b855d	0.15187593
61	0x3d08b4e5	0.03337564
62	0x3d926ffa	0.07150264
63	0x3e80e3a1	0.25173667
64	0xbdf7b2a8	-0.12094623
65	0xbe6f90e6	-0.23395118
66	0x3e0e531b	0.1389889
67	0xbe23a1e3	-0.15979724
68	0xbddf477b	-0.10902306
69	0x3dd16a21	0.102253206
70	0xbd3ca7c9	-0.04605845
71	0xbd15ec68	-0.036602408
72	0x3c5a352f	0.013318344
73	0x3c2d97f7	0.010595313
74	0xbefe0925	-0.49616352
75	0xbcd5809b	-0.0260623
76	0x3e227385	0.1586438
77	0x3e100d22	0.1406751
78	0xbe69ff76	-0.22851357
79	0x3d0f3f3b	0.03497241
80	0xbe989cb9	-0.2980707
81	0xbe472854	-0.19448978
82	0xbda7d5f9	-0.08195109
83	0xbe3ecd08	-0.186329
84	0xbe47b6cb	-0.19503324
85	0x3e66356e	0.2248132
86	0xbdf83000	-0.1211853
87	0xbd6fb97d	-0.058526505
88	0xbc950af3	-0.018193698
89	0xbe205a37	-0.15659414
90	0xbe58680f	-0.21133445
91	0x3d50bba1	0.050960187
92	0x3e8d7dd0	0.2763505
93	0xbdc88706	-0.09791379
94	0xbdc8300f	-0.097747914
95	0xbdbe5d50	-0.09295142
96	0xbdb77278	-0.0895738
97	0xbc76c25a	-0.015060985
98	0xbdbb129d	-0.091344096
99	0x3d84b41a	0.06479664
100	0xbe4561d0	-0.19275594
101	0x3df21c16	0.11821763
102	0x3df7e9aa	0.12105115
103	0xbe02b1a7	-0.12763081
104	0xbd128381	-0.035769943
105	0xbe4fec2f	-0.2030494
106	0x3d9593d8	0.073035896
107	0xbd952e9c	-0.07284281
108	0xbb24a758	-0.0025124159
109	0x3ea972fe	0.33095545
110	0xbba4f000	-0.005033493
111	0xbe99021b	-0.2988442
112	0xbe69bf0f	-0.2282679
113	0xbce6b9b7	-0.028164728
114	0x3d5975d2	0.053090878
115	0xbe1be386	-0.15223512
116	0x3c91390a	0.017727394
117	0x3e0dee31	0.13860394
118	0x3e189d62	0.14903787
119	0x3e14ee05	0.14543922
120	0xbdce0181	-0.100588806
121	0x3e037305	0.12836845
122	0xbd9ac45f	-0.07556986
123	0x3e569d82	0.20958522
124	0x3e00d254	0.12580234
125	0x3e3724ce	0.17885134
126	0x3dbc529e	0.091954455
127	0xbd9586eb	-0.07301124
128	0x3e313433	0.17305069
129	0xbbf2be4d	-0.0074079395
130	0xbc900986	-0.017582666
131	0xbae5b1e1	-0.0017524326
132	0xbe602ee4	-0.21892887
133	0x3e37ad72	0.17937258
134	0xbdd62a6f	-0.10457312
135	0xbd630b45	-0.05543067
136	0x3dbbe949	0.09175355
137	0xbe20b900	-0.15695572
138	0x3e2e3e8c	0.17016047
139	0x3d4060b7	0.046967234
140	0x3e8cc5f9	0.2749479
141	0x3e3aa34f	0.1822636
142	0x3e607c05	0.2192231
143	0xbb5a271f	-0.0033287478
144	0x3e942f1e	0.28942198
145	0xbdcb2de1	-0.0992086
146	0xbd6d3479	-0.05791137
147	0x3da5db64	0.08098486
148	0x3d79aa44	0.060953394
149	0xbdaec9ae	-0.08534561
150	0xbe250eaf	-0.16118883
151	0xbd175945	-0.03695037
152	0x3ce1d67e	0.027568098
153	0xbd5f989a	-0.05458889
154	0x3e71afe7	0.23602258
155	0xbe314ee2	-0.17315248
156	0xbc603fce	-0.013687087
157	0x3dd2bce2	0.10289933
158	0xbdc62036	-0.096741125
159	0x3e701f96	0.23449549
160	0x3e5672af	0.20942186
161	0xbe7fa15c	-0.24963897
162	0x3d9dd67a	0.07706924
163	0xbc971a8f	-0.018445281
164	0xbd5948cd	-0.053047944
165	0x3d0a9f78	0.033843488
166	0x3cbc1d3e	0.022963163
167	0x3d7d1ab8	0.06179306
168	0xbda53f9c	-0.08068773
169	0xbe475b7f	-0.19468497
170	0xbe1dbcd2	-0.1540406
171	0x3da7cc2a	0.08193238
172	0x3e6afd03	0.22948079
173	0xbbe1f9d8	-0.006896239
174	0x3e2589ff	0.16165923
175	0xbc9d95f5	-0.019236544
176	0xbe944a7f	-0.28963086
177	0xbee42d66	-0.44565886
178	0xbe5cc4d8	-0.21559465
179	0x3e7c572a	0.24642625
180	0xbe1432fc	-0.14472574
181	0x3ec023d3	0.37527332
182	0x3dfd9e82	0.123837486
183	0x3d89ed77	0.06734746
184	0x3d26dd1c	0.04073821
185	0xbcc9d19f	-0.024636088
186	0xbdeb9e26	-0.11504774
187	0xbe1f7dcf	-0.15575336
188	0x3e11b99b	0.14230959
189	0x3e8ec624	0.27885544
190	0xbec72beb	-0.38900694
191	0xbe56e290	-0.20984864
192	0x3e124ed0	0.14287877
193	0x3d97ee2f	0.07418477
194	0xbe350282	-0.17676738
195	0xb8a26d2a	-7.745095e-05
196	0x3e24c02e	0.16088936
197	0x3c76756d	0.015042645
198	0xbe20e225	-0.15711267
199	0xbc3c88e7	-0.011507249
200	0x3e0a0d0f	0.13481544
201	0x3dd076cf	0.10178911
202	0xbe79a8ee	-0.24380848
203	0xbe3b79c0	-0.18308163
204	0x3e039fc7	0.12853919
205	0xbe45c964	-0.19315106
206	0x3e40e80f	0.18838523
207	0x3cb5baee	0.022183862
208	0x3dc590ac	0.096467346
209	0xbdb93f9c	-0.09045336
210	0xbe4f2af6	-0.20231232
211	0x3d8ab415	0.06772629
212	0x3e310460	0.17286825
213	0x3e8292e1	0.25502685
214	0xbd480a91	-0.048838202
215	0x3d9e3024	0.07724026
216	0x3e20cde0	0.15703535
217	0x3d1b9602	0.037984855
218	0x3d36ade1	0.044599418
219	0x3e588012	0.21142605
220	0xbe291cb3	-0.16514854
221	0xbd9da03c	-0.07696578
222	0x3d9f2d6a	0.07772334
223	0x3da24aaa	0.07924397
224	0x3dc2f9ec	0.09520325
225	0xbd789b82	-0.06069518
226	0xbe68817a	-0.22705641
227	0xbdb6f685	-0.089337386
228	0xbe455d08	-0.1927377
229	0x3e14ed4d	0.14543648
230	0xbe46c8c2	-0.1941252
231	0xbe0c2973	-0.13687687
232	0xbd191e24	-0.03738226
233	0x3d497719	0.049185846
234	0x3d298c11	0.041393343
235	0x3e800fe8	0.25012136
236	0xbde6f4c4	-0.11277154
237	0x3e0fbd47	0.14037047
238	0x3e63cd67	0.22246324
239	0xbe0d4622	-0.13796285
240	0x3e7a6626	0.24453029
241	0x3c70e269	0.014702418
242	0x3e269a2c	0.1626975
243	0x3d835414	0.06412521
244	0xbe5d5c33	-0.21617202
245	0x3d54bedf	0.05193984
246	0xbe743716	-0.23849139
247	0xbe4f2b30	-0.20231318
248	0x3df3c842	0.119034305
249	0xbe82da2e	-0.25557083
250	0x3dafc0b6	0.085816786
251	0xbcfe07f4	-0.031009652
252	0x3cb706c9	0.022342103
253	0x3e167392	0.14692524
254	0xbe4694a6	-0.19392642
255	0xbd8fd414	-0.070228726

mamba.layers.0.mixer.conv1d.weight f4 [32, 1, 4]
0	0xbecaa8f0	-0.39582014
1	0xbef46d8b	-0.47739825
2	0x3dee4f57	0.116362266
3	0xbd94fc88	-0.07274729
4	0xbe25fb8a	-0.16209236
5	0xbdb44e05	-0.088039435
6	0x3e4c888d	0.19973965
7	0x3db88200	0.090091705
8	0x3e52386f	0.2052934
9	0x3ea825de	0.3284139
10	0x3ef0b966	0.47016448
11	0xbe8eaf0c	-0.27867925
12	0x3dc35248	0.09537178
13	0xbdada23c	-0.084782094
14	0xbd3ebb9e	-0.046565644
15	0xbec2fa97	-0.3808181
16	0xbec8fdaa	-0.3925603
17	0x3ecc149d	0.39859477
18	0x3e2fa566	0.17152938
19	0x3e43b7e0	0.19113111
20	0xbd9d4873	-0.07679834
21	0xbe89c55e	-0.26908392
22	0xbdb3b6c1	-0.08775092
23	0x3ee91385	0.45522705
24	0xbe76f09b	-0.24115221
25	0xbe3dff14	-0.18554336
26	0xbe457ae1	-0.19285156
27	0x3eaf017b	0.34180817
28	0xbe05909c	-0.13043445
29	0xbea23a57	-0.31685135
30	0xbe6ab7ec	-0.22921723
31	0xbce193aa	-0.027536232
32	0xbd71bdba	-0.059018828
33	0xbde5e8b4	-0.11226025
34	0x3d848962	0.06471516
35	0xbeaae7ef	-0.33380076
36	0xbe9d5b66	-0.30733794
37	0x3e36b224	0.17841393
38	0xbebd2082	-0.36938864
39	0xbdbc6a6b	-0.09199985
40	0xbe30c9e3	-0.17264514
41	0x3b055a7c	0.0020348122
42	0xbe00b531	-0.12569119
43	0xbed6fc8c	-0.41989553
44	0xbed6c088	-0.41943765
45	0xbe43ffad	-0.19140501
46	0xbf0c862d	-0.54892236
47	0xbe8c60d7	-0.27417633
48	0xbe92a644	-0.28642476
49	0xbe4b465a	-0.19851056
50	0x3dc0742e	0.093971595
51	0xbecf7b44	-0.40523732
52	0xbeb8c62b	-0.3608869
53	0xbeebc11b	-0.46045765
54	0x3e4307e2	0.19045976
55	0xbdcf7add	-0.10130856
56	0xbeb44a64	-0.35213006
57	0xbeb7a5fe	-0.3586883
58	0x3c06506c	0.008197885
59	0x3e3eef72	0.18646029
60	0x3ee4aa24	0.44661057
61	0xbe296f20	-0.16546297
62	0x3d2a1e21	0.04153264
63	0xbe5fd47a	-0.21858397
64	0xbe83edee	-0.25767463
65	0x3d59a887	0.053139236
66	0xbee6db57	-0.45089218
67	0x3d22b404	0.039722458
68	0xbd888ec2	-0.06667854
69	0x3eb3820a	0.3506015
70	0xbe943486	-0.28946322
71	0x3e84eb84	0.25960934
72	0x3ea0a1e6	0.3137352
73	0x3ea0037a	0.31252652
74	0x3f09f3f9	0.538879
75	0xbe308fa3	-0.17242293
76	0xbc3c7cbe	-0.01150435
77	0xbe952ed9	-0.29137304
78	0x3d0921ca	0.03347949
79	0x3e12e3c1	0.14344694
80	0x3f07dc19	0.5307022
81	0xbe45dd1d	-0.1932263
82	0x3e511cfd	0.20421214
83	0xbe0bfa6f	-0.13669752
84	0xbe8d4512	-0.2759176
85	0xbe89adbe	-0.26890367
86	0xbee0232e	-0.4377684
87	0x3e2c8e4d	0.16851158
88	0x3e956cac	0.29184473
89	0xbec598ad	-0.38593045
90	0x3e0ea044	0.13928324
91	0x3e7f2908	0.24917996
92	0xbeb7da6c	-0.3590883
93	0x3e0b0e8b	0.13579766
94	0x3d85bba4	0.0652993
95	0xbecf13b6	-0.40444726
96	0xbeb00349	-0.34377506
97	0xbefaed27	-0.49009058
98	0xbe87d42d	-0.26529065
99	0x3cc9a2b1	0.02461371
100	0xbef9ad9b	-0.48765263
101	0xbe99489f	-0.29938218
102	0xbdea3870	-0.11436546
103	0x3ebfa095	0.37427202
104	0xbecf348f	-0.40469787
105	0xbb09133e	-0.002091601
106	0xbd9cc2a5	-0.07654313
107	0x3e504c2b	0.20341556
108	0xbe341347	-0.17585479
109	0xbec50916	-0.38483495
110	0xbe1dcd35	-0.15410312
111	0x3e80c146	0.25147456
112	0x3e9cdd14	0.3063742
113	0xbeb119f4	-0.34590113
114	0x3e81aa36	0.25325173
115	0xbef7c7f2	-0.48394734
116	0xbef3b2e5	-0.47597423
117	0x3e8296b1	0.25505593
118	0xbedbd197	-0.42933342
119	0xbe7ee9c9	-0.2489387
120	0x3b70e0aa	0.0036755004
121	0x3e5d777f	0.21627615
122	0x3da66944	0.081255466
123	0xbebe9464	-0.37222588
124	0xbeb32c9c	-0.34994972
125	0x3ed42ea8	0.41441846
126	0xbe9e1921	-0.30878547
127	0xbed32abc	-0.4124354

mamba.layers.0.mixer.conv1d.bias f4 [32]
0	0x3d69c329	0.057070885
1	0x3ebfb91e	0.3744592
2	0x3eed5b6b	0.4635881
3	0x3eb34385	0.3501245
4	0x3e9825d9	0.29716375
5	0xbe404593	-0.1877654
6	0x3e4e008b	0.20117395
7	0x3e096f6e	0.13421413
8	0xbdeb7f78	-0.11498922
9	0x3e780429	0.24220337
10	0xbed8bffe	-0.42333978
11	0xbe174703	-0.14773183
12	0xbe0395d0	-0.12850118
13	0xbeeb5bab	-0.45968375
14	0xbe7441d2	-0.23853233
15	0xbe65235b	-0.22376768
16	0xbdbf1da5	-0.09331826
17	0xbe67d0b6	-0.2263821
18	0x3ea01633	0.31266937
19	0x3ea49553	0.32145175
20	0x3eaf2183	0.34205255
21	0xbe53aab7	-0.20670591
22	0xbe8c4765	-0.2739822
23	0xbca7994a	-0.020458836
24	0x3f0b19f0	0.5433645
25	0x3ecbc447	0.39798185
26	0xbe61af96	-0.22039637
27	0xbeb3f5d7	-0.35148498
28	0x3de53fc8	0.11193806
29	0xbe108d4a	-0.14116398
30	0x3ea10d50	0.3145547
31	0xbe34b93b	-0.17648785

mamba.layers.0.mixer.x_proj.weight f4 [33, 32]
0	0x3d78bcea	0.060727037
1	0x3d8f5700	0.06999016
2	0xbdaf04a1	-0.08545805
3	0x3e3d3957	0.18478905
4	0xbd89546c	-0.06705555
5	0xbdb8317e	-0.08993815
6	0x3e61d8e0	0.22055387
7	0x3d917957	0.07103222
8	0xbcdc22e0	-0.026872098
9	0xbdcd8ba7	-0.10036402
10	0x3d38e8c9	0.045143876
11	0x3d8f3a7e	0.069935784
12	0x3de70f35	0.112821974
13	0x3cdb9928	0.026806429
14	0xbe714268	-0.23560488
15	0xbdb16105	-0.08661083
16	0x3d873a8b	0.06602963
17	0x3d343f6d	0.0440058
18	0x3d967e03	0.073482536
19	0x3e04665f	0.12929676
20	0xbdab1c2b	-0.08354982
21	0x3d87e258	0.066349685
22	0xbe278ed9	-0.16363086
23	0xbe1ac750	-0.15115094
24	0x3b6ed6c7	0.0036443935
25	0x3df05319	0.117345996
26	0x3c093e66	0.008376693
27	0xbe2f43bc	-0.17115682
28	0x3e2abe03	0.16674046
29	0xbe15a4a6	-0.1461359
30	0x3e3cf2f6	0.18452057
31	0xbe4c4ac4	-0.19950396
32	0x3d6f5492	0.058430262
33	0xbe09df12	-0.13464001
34	0xbdb17f94	-0.08666912
35	0xbe105c51	-0.14097716
36	0xbe0727c7	-0.13198768
37	0x3ddf7866	0.10911636
38	0xbe25576e	-0.16146633
39	0xbe32a1f9	-0.174446
40	0x3e078575	0.13234504
41	0x3cd249b2	0.025669906
42	0xbdd9069c	-0.10596964
43	0x3e147a7a	0.14499846
44	0x3d1b73a5	0.037952084
45	0x3c248f19	0.010043883
46	0xbd3b9e0c	-0.045805022
47	0x3dc29f0a	0.095029905
48	0xbc95a232	-0.018265817
49	0x3c812a46	0.015767228
50	0x3ddc11fc	0.10745618
51	0x3ddf6d56	0.10909526
52	0xbe260669	-0.16213383
53	0xbba7a5b2	-0.005116188
54	0x3c9f9b48	0.019483224
55	0xbd961604	-0.07328418
56	0xbbd9b38f	-0.0066437195
57	0x3a45c352	0.00075440586
58	0x3dd744d0	0.10511172
59	0xbd6b6caa	-0.057476677
60	0x3d5cc81f	0.053901788
61	0xbe2b93cc	-0.16755599
62	0x3d04b776	0.032401524
63	0x3cfa9116	0.03058676
64	0x3e0aeadb	0.13566153
65	0x3d8eb735	0.06968538
66	0xbdef7635	-0.11692468
67	0x3e2328f0	0.15933585
68	0x3e0f28a6	0.1398035
69	0xbe0b302b	-0.13592593
70	0x3e05eefd	0.13079448
71	0xbb14e0d5	-0.0022717018
72	0x3d1c3522	0.03813661
73	0xbd927f06	-0.07153134
74	0xbd7a42e1	-0.061098937
75	0x3e367e7d	0.17821689
76	0xbdde4622	-0.108532205
77	0xbd105c25	-0.035244126
78	0xbe3723e1	-0.1788478
79	0xbe2090b2	-0.15680197
80	0xbd8ab7a4	-0.06773308
81	0x3e7e91d3	0.24860315
82	0x3dd95dc7	0.1061359
83	0xbc94d8a4	-0.018169709
84	0xbd793e99	-0.060850713
85	0x3e01dde3	0.126823
86	0xbd864b3a	-0.06557317
87	0xbd84c30d	-0.064825155
88	0x3d18306f	0.037155565
89	0xbdb51256	-0.08841388
90	0xbe0beb28	-0.13663924
91	0x3d67875d	0.056525577
92	0x3db9a7de	0.09065221
93	0x3e1c23f4	0.1524809
94	0xbdabec45	-0.08394674
95	0xbc8619f5	-0.0163698
96	0xbd938ac7	-0.07204204
97	0xbda499ed	-0.080371715
98	0x3dbeb3f2	0.093116656
99	0xbdd3f24e	-0.1034895
100	0x3de60cb7	0.11232894
101	0xbc69f41f	-0.014279394
102	0x3c6abc1a	0.0143270735
103	0xbe0e471c	-0.13894314
104	0xbdc16083	-0.09442236
105	0xbe1645d0	-0.14675069
106	0x3e139b39	0.14414681
107	0x3d7017a6	0.058616303
108	0x3ca60445	0.020265708
109	0xbda42f9b	-0.080168925
110	0xbe192be9	-0.14958157
111	0x3e32fbb3	0.17478828
112	0x3d865848	0.06559807
113	0x3cd3479b	0.02579098
114	0xbcc823b8	-0.024431095
115	0xbced3621	-0.028956475
116	0xbdb55203	-0.08853533
117	0x3e4572e2	0.19282106
118	0x3e2082e5	0.15674932
119	0xbe19a944	-0.15005976
120	0x3cdd0a0c	0.02698233
121	0xbdca56bc	-0.098798245
122	0x3d020059	0.031738613
123	0xbdb640b9	-0.088990636
124	0xbd636eac	-0.055525467
125	0xbe1cab16	-0.15299639
126	0xbdde31b4	-0.10849324
127	0xbb916bcf	-0.0044379006
128	0x3e1a9192	0.15094593
129	0xbd3756c1	-0.04476047
130	0x3d863b63	0.06554296
131	0xbdddfe7a	-0.10839553
132	0x3d1df509	0.03856376
133	0x3e2103ab	0.15724055
134	0x3c7a5d51	0.015281037
135	0xbe0318ce	-0.12802431
136	0x3df85a29	0.12126572
137	0xbd3713f5	-0.044696767
138	0x3dd3bb09	0.103384085
139	0x3cc943b7	0.024568422
140	0xbe557845	-0.2084666
141	0xbe0f4213	-0.13990049
142	0x3ddc69e3	0.10762384
143	0x3e04c267	0.12964784
144	0x3dcc5792	0.0997764
145	0xbd698998	-0.057015985
146	0x3792a308	1.7480474e-05
147	0xbdfa09fa	-0.12208934
148	0x3e13c777	0.14431559
149	0xbe34bb09	-0.17649473
150	0x3e0e1c47	0.13877974
151	0xbe263a66	-0.16233215
152	0xbc6ac772	-0.014329778
153	0xbe1b543f	-0.15168856
154	0xbd80c38a	-0.06287296
155	0x3d71ec29	0.05906311
156	0x3d93facc	0.0722557
157	0x3e0a31f2	0.13495615
158	0x3d19cfad	0.03755157
159	0x3dc4d4b7	0.09610885
160	0xbd2b9c78	-0.041897267
161	0x3c914971	0.017735215
162	0x3de9d5dd	0.11417744
163	0x3e641999	0.2227539
164	0x3e1c39a3	0.15256362
165	0x3cdc500e	0.026893642
166	0x3baaeb9c	0.005216075
167	0x3d957aff	0.0729885
168	0x3d5572e3	0.052111518
169	0x3e12d293	0.1433814
170	0xbe16c573	-0.14723758
171	0x3b29068f	0.0025791263
172	0x3dd1a709	0.102369376
173	0xbe32af7c	-0.17449754
174	0x3dbb30dc	0.091401786
175	0xbdef48bd	-0.116837956
176	0xbe136352	-0.14393356
177	0x3e529f19	0.20568503
178	0xbd4dd38a	-0.050250567
179	0xbdb3a39c	-0.087714404
180	0xbe17addd	-0.14812417
181	0x3d53635e	0.051608436
182	0xbc728bd1	-0.014803843
183	0xbe063e7c	-0.13109773
184	0x3e0d2890	0.13785005
185	0x3d9ad91f	0.07560944
186	0x3ca3f42c	0.020013891
187	0xbe0718ef	-0.13193105
188	0x3e36658b	0.17812173
189	0x3e094e7e	0.13408849
190	0xbd0e2106	-0.034699462
191	0x3d826aa3	0.063679956
192	0x3e039809	0.12850966
193	0x3e4968e1	0.19668914
194	0x3e0933d2	0.13398674
195	0x3e0129c2	0.12613586
196	0xbe113202	-0.14179233
197	0x3d84d74f	0.06486379
198	0x3cc16858	0.023609325
199	0x3c4d4550	0.012528732
200	0xbe3dd10e	-0.1853678
201	0x3e16cb6a	0.14726034
202	0xbdde13c3	-0.10843613
203	0x3d2bd1d2	0.041948147
204	0xbd99c978	-0.0750913
205	0xbdab39ac	-0.083606094
206	0xbd339c0f	-0.04385
207	0xbdc216d9	-0.09477014
208	0xbe0f06e0	-0.13967466
209	0xbe4cbe54	-0.1999448
210	0x3d3ea2e1	0.046542052
211	0xbe0781c9	-0.13233103
212	0x3e2b7a09	0.16745771
213	0xbdbc49aa	-0.09193738
214	0x3d7936ae	0.060843162
215	0xbc89691d	-0.016773755
216	0x3d1fc149	0.03900269
217	0xbdc7287c	-0.09724519
218	0x3de2b05d	0.11068795
219	0xbe46ba68	-0.19407046
220	0xbb978143	-0.0046235635
221	0x3d44a7e6	0.048011683
222	0x3c89e88d	0.016834522
223	0xbd8d7fc1	-0.06909133
224	0xbd6705f4	-0.05640216
225	0x3db2f55f	0.08738207
226	0xbc358eb0	-0.011081383
227	0x3dcc2a00	0.09968948
228	0x3e40bb0a	0.1882135
229	0xbddc1cef	-0.10747706
230	0x3e6a9d67	0.22911607
231	0xbcca684c	-0.024707936
232	0xbe0fc88c	-0.14041346
233	0x3dd351ab	0.10318311
234	0xbcb72567	-0.022356702
235	0x3c9c5451	0.019083174
236	0xbc7a080a	-0.015260706
237	0xbc812149	-0.015762942
238	0x3e10b169	0.14130177
239	0xbd35ab06	-0.044352554
240	0xbdc41e88	-0.09576136
241	0xbd92255a	-0.071360305
242	0x3e36ce4a	0.1785213
243	0x3db0cbb7	0.086326055
244	0x3da983fc	0.08277127
245	0xbe2c0bc0	-0.16801357
246	0xbe2f1827	-0.17099057
247	0xbe08d38f	-0.13361953
248	0x3af2f5f1	0.0018536431
249	0xbdac0e99	-0.08401222
250	0xbe27f5cf	-0.16402362
251	0x3af30ff1	0.001854418
252	0xbd8ad316	-0.06778543
253	0x3d8a9199	0.06766052
254	0x3e518ca2	0.20463803
255	0xbdd21432	-0.10257758

mamba.layers.0.mixer.dt_proj.weight f4 [32, 1]
0	0xbf55afea	-0.8347155
1	0x3e251c26	0.16124019
2	0x3f6d6cbf	0.9274406
3	0x3f4ff9ee	0.8124074
4	0xbd83f0e6	-0.06442432
5	0x3f12202c	0.5708034
6	0xbf40e7e7	-0.75353855
7	0x3f321954	0.695699
8	0x3f64dd6d	0.8940037
9	0xbe311ff5	-0.17297347
10	0x3f501655	0.81284076
11	0x3f601199	0.8752685
12	0xbf13583a	-0.575565
13	0xbef7155a	-0.48258477
14	0xbeeef657	-0.46672317
15	0x3c910350	0.017701775
16	0x3f14d9e0	0.5814495
17	0xbeed6cea	-0.46372157
18	0xbe85f2fa	-0.2616194
19	0xbf53f26a	-0.8279177
20	0xbd1be42a	-0.03805939
21	0xbbf44857	-0.0074549126
22	0x3e3e725c	0.18598312
23	0x3f3183ba	0.69341624
24	0x3f1e72c3	0.6189386
25	0x3edcff0e	0.4316334
26	0xbde523bc	-0.111884564
27	0xbf45994c	-0.7718704
28	0x3f50d8f2	0.8158103
29	0x3e8f6c9b	0.28012547
30	0x3e8c4340	0.27395058
31	0x3de1eaeb	0.11031135

mamba.layers.0.mixer.dt_proj.bias f4 [32]
0	0xc0909479	-4.518124
1	0xc08a2b2d	-4.3177705
2	0xc0b52af4	-5.6614933
3	0xc099f15f	-4.8107142
4	0xc0caa3d4	-6.3324986
5	0xc08cd90f	-4.4014964
6	0xc0bf950a	-5.9869432
7	0xc07b31df	-3.924919
8	0xc0420f53	-3.0321853
9	0xc09a3367	-4.8187747
10	0xc0c5287b	-6.1611915
11	0xc0948918	-4.641735
12	0xc0c5d613	-6.182382
13	0xc041c490	-3.0276222
14	0xc057760e	-3.3665805
15	0xc05b05f1	-3.4222376
16	0xc018693c	-2.381423
17	0xc01fcbb7	-2.4968088
18	0xc019467c	-2.394927
19	0xc0d7fbfc	-6.74951
20	0xc0d9568a	-6.791814
21	0xc0637c43	-3.5544593
22	0xc07930ef	-3.8936117
23	0xc0ca1f3f	-6.316314
24	0xc09cd9be	-4.90158
25	0xc0abe5f0	-5.3718185
26	0xc0900dd7	-4.5016894
27	0xc047b244	-3.1202555
28	0xc028a4c0	-2.6350555
29	0xc092f986	-4.5929594
30	0xc0916ca6	-4.5445127
31	0xc0c289a2	-6.079301

mamba.layers.0.mixer.out_proj.weight f4 [16, 32]
0	0x3ddf6d97	0.109095745
1	0xbd5106e9	-0.05103198
2	0x3df68eb5	0.12038938
3	0x3e1bca20	0.15213823
4	0x3e34e11c	0.17663997
5	0x3d89d1f6	0.067295
6	0x3d140e6a	0.03614656
7	0xbcd007a2	-0.025394265
8	0x3dbb5660	0.09147334
9	0xbe0dbe86	-0.1384221
10	0x3e38a780	0.18032646
11	0x3d9d33b7	0.076758794
12	0xbe252e87	-0.1613103
13	0x3dc473c6	0.095923945
14	0x3e0a3209	0.1349565
15	0x3dfbda6b	0.12297519
16	0xbdb8ffa7	-0.09033137
17	0xbe16bbc1	-0.1472006
18	0x3dc2e518	0.095163524
19	0x3e01b5ed	0.12667055
20	0xbe3b876b	-0.18313377
21	0x3df042f4	0.1173152
22	0x3d8033fc	0.06259915
23	0xbe2b301d	-0.16717573
24	0x3d625462	0.055256255
25	0x3e2376cd	0.15963288
26	0x3dfb9715	0.12284676
27	0xbe0d33b8	-0.1378926
28	0xbdeedaae	-0.116628036
29	0x3e40203e	0.187623
30	0xbcf10673	-0.02942202
31	0x3e114568	0.14186633
32	0x3dcab04a	0.09896906
33	0xbe4691a0	-0.19391489
34	0xbe133d89	-0.14378943
35	0x3dc79b55	0.09746424
36	0xbd001250	-0.031267464
37	0xbdcdbdb6	-0.1004595
38	0xbdb4321a	-0.087986186
39	0xbc85b8eb	-0.016323527
40	0x3e585673	0.21126728
41	0x3d726ae8	0.059183985
42	0x3d7bde57	0.061491337
43	0x3e4c4e30	0.19951701
44	0x3db1c151	0.0867945
45	0x3c46aca5	0.012126123
46	0xbe308843	-0.1723948
47	0x3c9375be	0.01800048
48	0xbe007421	-0.125443
49	0x3cb267fa	0.021778096
50	0x3d760c45	0.060070295
51	0x3d94d775	0.07267658
52	0x3e0410a4	0.12896973
53	0xbdf4bdb5	-0.11950246
54	0xbe10590a	-0.14096466
55	0x3dd5b45c	0.104347914
56	0xbd8105f1	-0.06299961
57	0xbdff5dc5	-0.12469057
58	0xbe3dccf0	-0.18535209
59	0x3d6dc725	0.058051247
60	0xbc010543	-0.00787479
61	0x3cc577c8	0.024104968
62	0xbda1de05	-0.07903675
63	0x3e05f9ac	0.13083524
64	0x3cd90a76	0.026494246
65	0xbd80c6c8	-0.062879145
66	0xbdab030f	-0.08350193
67	0xbdf3f95e	-0.119127974
68	0xbd8d298e	-0.068926916
69	0xbd57f2fb	-0.05272196
70	0xbd9c752a	-0.07639535
71	0x3e1abad3	0.1511033
72	0x3be09edc	0.006854875
73	0xbe046c83	-0.12932019
74	0x3e05091c	0.12991756
75	0x3df31074	0.118683726
76	0x3e4526b9	0.19253053
77	0x3dd25387	0.10269838
78	0x3d9e0bae	0.077170715
79	0xbdbddbf1	-0.09270466
80	0x3e21a23d	0.15784545
81	0x3de43736	0.11143343
82	0xbc360c84	-0.011111382
83	0xbdebfbb3	-0.11522617
84	0x3df831fd	0.121189095
85	0x3e07cb80	0.13261223
86	0x3d872889	0.06599528
87	0xbd1bf071	-0.0380711
88	0xbdd4019e	-0.10351871
89	0xbdf7a97a	-0.12092872
90	0xbd91eb20	-0.07124925
91	0x3dda88da	0.106706336
92	0x3b854b2d	0.0040677995
93	0xbd421da8	-0.047391564
94	0xbd1bb6f1	-0.038016263
95	0x3dec759c	0.1154587
96	0x3dd92342	0.10602428
97	0xbd554515	-0.052067835
98	0x3cab76c9	0.020930665
99	0x3e04c8c2	0.12967208
100	0xbd0af8e8	-0.03392878
101	0x3d039355	0.03212293
102	0xbe1f8fd9	-0.15582217
103	0x3e1bd9e2	0.15219834
104	0xbe2bd5a3	-0.16780715
105	0xbd18076d	-0.037116457
106	0x3d82030b	0.06348237
107	0x3dc68a13	0.09694304
108	0xbe38569a	-0.18001786
109	0xbd56047f	-0.05225038
110	0xbce77ac8	-0.028256789
111	0x3e259ee9	0.161739
112	0xbdab927d	-0.0837755
113	0xbd9c4f5c	-0.07632324
114	0x3e55933b	0.20856945
115	0xbce245e0	-0.02762121
116	0xbe503a80	-0.20334816
117	0xbdb07428	-0.08615905
118	0xbd4c0975	-0.049813706
119	0xbe45dd76	-0.19322762
120	0xbe383790	-0.17989945
121	0x3e5bf71d	0.21480985
122	0xbdc5627e	-0.096379265
123	0xbbc31636	-0.0059535755
124	0xbdefeb81	-0.11714841
125	0x3dc1dde0	0.094661474
126	0xbd9b3af6	-0.07579605
127	0x3bb93619	0.005652201
128	0xbe13d938	-0.14438331
129	0x3ddd87a4	0.10816887
130	0xbe339d32	-0.17540434
131	0xbe1be1b3	-0.15222816
132	0x3c8842f2	0.016633485
133	0x3df36738	0.11884922
134	0xbdaccd7e	-0.08437632
135	0xbdde17de	-0.10844396
136	0xbda530aa	-0.080659226
137	0x3e2c9803	0.16854863
138	0x3de30917	0.11085718
139	0xbe050a9e	-0.12992331
140	0xbe0541d9	-0.130134
141	0xb9f64d74	-0.00046978483
142	0xbcfb32b9	-0.030663835
143	0x3d3ebf3e	0.0465691
144	0x3da8e1be	0.08246182
145	0xbdfe5bf7	-0.12419885
146	0xbddb29b2	-0.10701312
147	0xbda4b193	-0.08041682
148	0x3e0e7f2d	0.13915701
149	0x3d17bfac	0.037048027
150	0xbdb468b8	-0.08809036
151	0x3df1095c	0.11769363
152	0xbcd6b8b7	-0.026211126
153	0xbdf9d74c	-0.12199268
154	0x3cdcce4b	0.026953837
155	0xbd65af76	-0.056075536
156	0xbada2dd8	-0.0016645743
157	0x3bb4adc9	0.005513881
158	0x3d98c966	0.07460289
159	0x3df6540d	0.1202775
160	0xbe0e84cb	-0.13917844
161	0x3dd81b4b	0.10552081
162	0xbd1234b3	-0.03569479
163	0x3d96714f	0.07345831
164	0xbdb4cefb	-0.08828541
165	0xbdcd3133	-0.1001915
166	0x3df17eea	0.11791785
167	0x3d8ae219	0.06781406
168	0x3be1a940	0.0068866313
169	0x3dca1810	0.09867871
170	0xbe476cc9	-0.19475092
171	0xbd6857c4	-0.056724325
172	0xbe1fde5c	-0.15612167
173	0x3db58f69	0.08865244
174	0x3bf8af54	0.00758926
175	0x3d894a15	0.06703583
176	0x3dacd867	0.08439713
177	0x3da1080c	0.07862863
178	0x3c82a495	0.01594762
179	0x3d9a3509	0.07529647
180	0xbd974249	-0.0738569
181	0xbe04907f	-0.12945746
182	0xbda7954a	-0.081827715
183	0x3e2e924d	0.17047997
184	0x3dd04e38	0.10171169
185	0xbe1155e3	-0.1419292
186	0xbe086778	-0.1332072
187	0x3c6f3d91	0.014602081
188	0x3df7bbd4	0.12096372
189	0xbe11677a	-0.1419963
190	0x3e1b83ae	0.1518695
191	0xbe440299	-0.19141616
192	0xbe3fccb1	-0.18730427
193	0xbdb917fa	-0.09037776
194	0x3e44c057	0.19213997
195	0xbcb1db89	-0.021711128
196	0x3dbce23e	0.0922284
197	0x3d06435c	0.032779083
198	0xbd9717d1	-0.073775895
199	0x3ccc51c5	0.024941335
200	0x3b5ec24b	0.003399032
201	0xbe49bfdb	-0.19702093
202	0x3e1c3b60	0.15257025
203	0x3d120eeb	0.035658758
204	0xbe25a407	-0.16175853
205	0x3e26efcb	0.16302411
206	0x3e1f8dab	0.15581386
207	0x3e35f98b	0.17770974
208	0x3dc4295c	0.09578201
209	0xbd6735ec	-0.05644791
210	0x3cd0c0df	0.025482593
211	0xbe4eae58	-0.20183694
212	0xbd12f150	-0.035874665
213	0xbd96d588	-0.073649466
214	0x3d51f790	0.051261485
215	0x3d672a42	0.056436785
216	0xbe0767fa	-0.13223258
217	0x3dd9d3e8	0.10636121
218	0x3e39c1f8	0.181404
219	0xbcf1b88a	-0.02950694
220	0xbe35d521	-0.17757083
221	0x3e3f9d71	0.18712403
222	0xbdea0bce	-0.11428033
223	0x3e2a992d	0.16659994
224	0xbe2ae157	-0.16687523
225	0x3e3718c9	0.17880549
226	0x3c127b86	0.008940583
227	0x3e23cb3e	0.159955
228	0x3e01d7ed	0.12680025
229	0x3e00ba02	0.12570956
230	0xbe16f708	-0.14742672
231	0xbb02adb2	-0.0019939956
232	0xbd83b95e	-0.0643184
233	0xbd4a5b14	-0.049403265
234	0x3d4f2758	0.05057463
235	0xbdfbafcc	-0.1228939
236	0xbe05c8a7	-0.13064824
237	0x3e2358b2	0.15951803
238	0xbdba5a8c	-0.09099302
239	0x3e10f470	0.14155746
240	0x3e06e6a2	0.13173917
241	0x3d8a3f62	0.067503706
242	0x3d5dffab	0.054198902
243	0x3e014547	0.12624083
244	0xbe065325	-0.13117655
245	0xbd608655	-0.05481561
246	0xbe289e41	-0.16466619
247	0x3de7a6e6	0.1131113
248	0x3de587ce	0.11207543
249	0x3ccb9ec1	0.024855973
250	0x3ce1f058	0.027580425
251	0xbe19b947	-0.15012084
252	0xbe03ec01	-0.12882997
253	0xbc6c9560	-0.014439911
254	0xbe21adec	-0.15789002
255	0x3cd47e67	0.02593918

mamba.layers.0.norm.weight f4 [16]
0	0x3f843c0e	1.0330827
1	0x3f8183cd	1.0118347
2	0x3f82d412	1.0220969
3	0x3f760b2a	0.96110785
4	0x3f870982	1.0549777
5	0x3f7e6a28	0.9938073
6	0x3f860a06	1.0471809
7	0x3f840ae9	1.031583
8	0x3f85ecf1	1.0462934
9	0x3f83cf67	1.0297669
10	0x3f92bfd8	1.1464796
11	0x3f872e01	1.0560914
12	0x3f800593	1.0001701
13	0x3f84df66	1.0380676
14	0x3f80e49e	1.0069768
15	0x3f826739	1.0187751

norm.weight f4 [16]
0	0x3f82c5bf	1.0216597
1	0x3f78c6f5	0.97178584
2	0x3f772f21	0.9655629
3	0x3f77ed15	0.96846133
4	0x3f7713a0	0.9651432
5	0x3f8259d1	1.018366
6	0x3f77fdca	0.96871626
7	0x3f77c9a6	0.96792066
8	0x3f776469	0.9663759
9	0x3f77c19c	0.967798
10	0x3f81cba1	1.0140268
11	0x3f7bb8e6	0.9832901
12	0x3f839382	1.0279391
13	0x3f778415	0.96685916
14	0x3f80035a	1.0001023
15	0x3f83a63e	1.0285108

output_head.weight f4 [1, 16]
0	0xbdd8f27d	-0.10593126
1	0x3e0bc523	0.1364942
2	0x3dcd99e1	0.10039116
3	0xbe03ea9d	-0.12882467
4	0x3e167899	0.14694442
5	0x3de176f5	0.110090174
6	0xbe43fdaf	-0.19139741
7	0xbd918eb9	-0.071073
8	0xbe239dc6	-0.15978155
9	0x3e342feb	0.17596404
10	0xbe348642	-0.1762934
11	0x3c8727e8	0.016498521
12	0x3e514bc9	0.20439066
13	0xbe0efa73	-0.13962726
14	0x3d311fce	0.043243222
15	0xbd28132a	-0.0410339

exp_avg f4 [16, 3]
0	0xb5d3b79a	-1.577416e-06
1	0xb7be4fb7	-2.2686885e-05
2	0xb50e24f3	-5.295289e-07
3	0xb7037df2	-7.837532e-06
4	0x377e88bd	1.5171417e-05
5	0x33c46a72	9.1463235e-08
6	0x35df92a9	1.6657478e-06
7	0x37488347	1.1951494e-05
8	0x353aea50	6.963137e-07
9	0xb51a6810	-5.75209e-07
10	0xb7a8ed6b	-2.0137717e-05
11	0xb385ec5e	-6.23629e-08
12	0x35858e6a	9.95072e-07
13	0x3795a058	1.783685e-05
14	0x350b175e	5.181554e-07
15	0x33980a59	7.079934e-08
16	0x37a72c5e	1.9928611e-05
17	0xb530be6a	-6.58422e-07
18	0x36d242d1	6.266266e-06
19	0xb7a4449c	-1.9582272e-05
20	0xb47ace07	-2.3358017e-07
21	0xb618be05	-2.276037e-06
22	0xb608e701	-2.0400041e-06
23	0xaeb42e5e	-8.193689e-11
24	0xb5f3eee6	-1.817444e-06
25	0xb717321d	-9.011969e-06
26	0x354807f2	7.451737e-07
27	0x351af17e	5.772089e-07
28	0x379553aa	1.7801143e-05
29	0x34bdd5f5	3.5359668e-07
30	0x36528ed7	3.1375582e-06
31	0xb83509aa	-4.3162763e-05
32	0xb5f98731	-1.8591292e-06
33	0xb66140ea	-3.3565398e-06
34	0x3797ab09	1.8080247e-05
35	0x34a4c86f	3.0693215e-07
36	0x36135cd2	2.1958735e-06
37	0x3834453a	4.2979816e-05
38	0x359dbf0c	1.1753013e-06
39	0xb4af2f36	-3.263064e-07
40	0xb798b117	-1.8202276e-05
41	0xb5842ee5	-9.848414e-07
42	0x351dc132	5.8768194e-07
43	0x3687325c	4.029176e-06
44	0x344a3528	1.8832054e-07
45	0x36185b06	2.2702748e-06
46	0xb75958b4	-1.2954861e-05
47	0x3487a9a4	2.526914e-07

exp_avg_sq f4 [16, 3]
0	0x342c5439	1.6049388e-07
1	0x3728e1c5	1.0066146e-05
2	0x346022ad	2.087424e-07
3	0x34b0ba31	3.2918027e-07
4	0x36956f43	4.4534986e-06
5	0x33c5bb8c	9.207642e-08
6	0x32b28969	2.0784414e-08
7	0x330b29c7	3.2401456e-08
8	0x301b4e16	5.649964e-10
9	0x34269f44	1.5517895e-07
10	0x36b44448	5.372367e-06
11	0x33e63a2d	1.0720792e-07
12	0x3311b03e	3.3920735e-08
13	0x362a45e6	2.537266e-06
14	0x33531e07	4.9154576e-08
15	0x34b2f057	3.3329954e-07
16	0x3784f60e	1.5850204e-05
17	0x34aaef84	3.1839238e-07
18	0x34d5d3ba	3.9828393e-07
19	0x36a0845f	4.7837816e-06
20	0x33d39f4f	9.854431e-08
21	0x31b79901	5.3433955e-09
22	0x335ff79f	5.2146444e-08
23	0x306b6685	8.563819e-10
24	0x33a2f595	7.588384e-08
25	0x36d0879d	6.2146705e-06
26	0x3406bd47	1.2548581e-07
27	0x34470991	1.85368e-07
28	0x3714fe78	8.880736e-06
29	0x34444b89	1.8281402e-07
30	0x343721f1	1.7055551e-07
31	0x3705b91d	7.970518e-06
32	0x3432ecab	1.6663641e-07
33	0x32a17b2b	1.8798877e-08
34	0x34ac8e38	3.2140974e-07
35	0x31f9699e	7.258861e-09
36	0x350f98b5	5.349387e-07
37	0x3790858d	1.7228327e-05
38	0x34c0349a	3.580106e-07
39	0x33bd9987	8.828925e-08
40	0x35f503ff	1.8255085e-06
41	0x331c7d7e	3.6435715e-08
42	0x338e6ad9	6.631826e-08
43	0x349c1d0f	2.9078407e-07
44	0x31d06882	6.065478e-09
45	0x3393bb0e	6.879246e-08
46	0x35e85dee	1.7312684e-06
47	0x3314c4be	3.463787e-08

exp_avg f4 [16]
0	0xb6d6e6f4	-6.4045835e-06
1	0x3699365e	4.5660845e-06
2	0x365e516f	3.3127978e-06
3	0xb6c319a7	-5.814439e-06
4	0x36aac6ec	5.0895524e-06
5	0x36c60faf	5.9026856e-06
6	0xb6c16170	-5.7631914e-06
7	0xb5110531	-5.4024264e-07
8	0xb6361dd0	-2.7137467e-06
9	0x36aa1219	5.0685017e-06
10	0xb74ccdb4	-1.22072415e-05
11	0x36b008fe	5.2462556e-06
12	0x374b5a9b	1.2120839e-05
13	0xb6ab72ed	-5.1095763e-06
14	0x35932d95	1.096562e-06
15	0xb6813170	-3.850255e-06

exp_avg_sq f4 [16]
0	0x354505d8	7.339672e-07
1	0x34b29757	3.3265198e-07
2	0x31218979	2.3506728e-09
3	0x34d497e3	3.959859e-07
4	0x3446dd28	1.8520643e-07
5	0x359c375c	1.1639017e-06
6	0x34c04f64	3.582055e-07
7	0x31896888	3.9991086e-09
8	0x34f337c0	4.530284e-07
9	0x352e861e	6.501522e-07
10	0x351c2664	5.8170394e-07
11	0x32c9ac9e	2.3477977e-08
12	0x35a9dd9e	1.265598e-06
13	0x3411b0fb	1.3568562e-07
14	0x32c04b35	2.2385942e-08
15	0x3409af62	1.2822923e-07

exp_avg f4 [16]
0	0x370aa353	8.263468e-06
1	0xb4b0a116	-3.289976e-07
2	0xb717ec5c	-9.055333e-06
3	0xb60707b3	-2.012105e-06
4	0xb71ad486	-9.228597e-06
5	0x372ef4c8	1.0428201e-05
6	0xb71a6f8e	-9.205089e-06
7	0xb61dfb78	-2.3541197e-06
8	0xb5d59744	-1.5913761e-06
9	0xb68a34a8	-4.1188505e-06
10	0xb5b43b41	-1.342829e-06
11	0x35a88338	1.2555165e-06
12	0x365cdc54	3.2910802e-06
13	0xb711a20d	-8.680404e-06
14	0xb5b3a42b	-1.3384318e-06
15	0x369e55b1	4.7187427e-06

exp_avg_sq f4 [16]
0	0x35dd2799	1.6477308e-06
1	0x33cf21c6	9.645332e-08
2	0x3356e468	5.0033492e-08
3	0x3441045b	1.797611e-07
4	0x35386613	6.869388e-07
5	0x3692de9a	4.3770533e-06
6	0x35a87ca4	1.2553251e-06
7	0x331c4ee6	3.6393338e-08
8	0x348166a4	2.4102803e-07
9	0x351e9e6d	5.9090127e-07
10	0x31aec708	5.0866937e-09
11	0x30d152f1	1.5230325e-09
12	0x344ad5e0	1.8890523e-07
13	0x34fd09f4	4.7132164e-07
14	0x3154a7c2	3.094542e-09
15	0x3421b667	1.5060651e-07

exp_avg f4 [16]
0	0xb730db2e	-1.0541449e-05
1	0x3739d22e	1.1075796e-05
2	0x370beebd	8.340631e-06
3	0xb74ac43e	-1.2085829e-05
4	0x3732b13b	1.0650891e-05
5	0x3713545b	8.781523e-06
6	0xb7803290	-1.5282334e-05
7	0xb69a11cf	-4.591631e-06
8	0xb70a26ed	-8.234504e-06
9	0x3744c79b	1.1728985e-05
10	0xb7c06fcb	-2.2940241e-05
11	0x36d80d57	6.4388546e-06
12	0x37b0a357	2.1056896e-05
13	0xb736cc0b	-1.0895553e-05
14	0x362d6755	2.5839156e-06
15	0xb6d13b2c	-6.235574e-06

exp_avg_sq f4 [16]
0	0x35c68bb5	1.479281e-06
1	0x352b6657	6.385139e-07
2	0x324fc34e	1.2093393e-08
3	0x357fc5b0	9.5282576e-07
4	0x34baa62e	3.476611e-07
5	0x36022690	1.9393956e-06
6	0x358462c8	9.863516e-07
7	0x3321fcbb	3.771559e-08
8	0x358d9183	1.0547668e-06
9	0x35a32d30	1.2157598e-06
10	0x35b01e5f	1.3121861e-06
11	0x32d4cfcb	2.4774542e-08
12	0x3617d1cd	2.2622874e-06
13	0x34db41d8	4.0839836e-07
14	0x32f36ac7	2.833748e-08
15	0x349cb7e6	2.9191068e-07

exp_avg f4 [32, 16]
0	0x2f97c237	2.7604738e-10
1	0x3085723c	9.709491e-10
2	0x319c6284	4.5513975e-09
3	0xb0894b33	-9.989435e-10
4	0xb1751a1c	-3.5667034e-09
5	0x3111a501	2.119407e-09
6	0x3149b534	2.9352352e-09
7	0x309dea13	1.1489781e-09
8	0x30b88d4f	1.3427924e-09
9	0x312eb121	2.5421019e-09
10	0x31295350	2.4640094e-09
11	0x2ff3f67a	4.4376575e-10
12	0x30698eae	8.4967666e-10
13	0x30dba477	1.5981091e-09
14	0x2fa6088b	3.0201294e-10
15	0x3089de62	1.0031267e-09
16	0x300c13ed	5.096002e-10
17	0x2fd5ed27	3.891298e-10
18	0x306850e0	8.451604e-10
19	0xaf93c792	-2.6880947e-10
20	0xb146ded8	-2.8939464e-09
21	0x3088dfe5	9.958937e-10
22	0x30efa530	1.7436488e-09
23	0x2f2633cf	1.5116018e-10
24	0x30894226	9.986862e-10
25	0x30869760	9.792807e-10
26	0x308cb823	1.0238675e-09
27	0x30027348	4.745755e-10
28	0x30a2c120	1.1841941e-09
29	0x303acda8	6.795866e-10
30	0x2f0ef0b9	1.3000347e-10
31	0x2fa2f87b	2.9644184e-10
32	0x30ca1405	1.4703124e-09
33	0xb2025fa8	-7.588746e-09
34	0xb2decc4d	-2.5937107e-08
35	0xb1659526	-3.3408667e-09
36	0xb3a74137	-7.788406e-08
37	0x313321e7	2.60672e-09
38	0x32fd8716	2.9514506e-08
39	0xb1ed8f38	-6.91389e-09
40	0x32875b38	1.575755e-08
41	0x3219fea4	8.963671e-09
42	0x3152d882	3.0682092e-09
43	0x31736997	3.5421175e-09
44	0x332af80a	3.98068e-08
45	0x31b852e7	5.3645297e-09
46	0xb0b85daa	-1.3414383e-09
47	0xafd75f6b	-3.917607e-10
48	0xb1a9a984	-4.937819e-09
49	0xb2e27031	-2.6360881e-08
50	0x2fe05dad	4.0811923e-10
51	0xb200f381	-7.505947e-09
52	0xb35fca84	-5.210542e-08
53	0x32d84e9c	2.5181457e-08
54	0xaeda5441	-9.928459e-11
55	0xb032fccc	-6.511527e-10
56	0xb1ce0ce9	-5.996857e-09
57	0x31a7d358	4.8843667e-09
58	0xb07ca37a	-9.190938e-10
59	0xb093c553	-1.0751741e-09
60	0xb2569e97	-1.2492499e-08
61	0xb1253ea6	-2.4046272e-09
62	0x3140c28d	2.8050267e-09
63	0x305fd190	8.1424734e-10
64	0xaf0f0442	-1.3007287e-10
65	0xafe0de7a	-4.0903442e-10
66	0xb238799f	-1.0737863e-08
67	0xb0f7a274	-1.8017787e-09
68	0x3298f55b	1.7806704e-08
69	0xb00e8dd9	-5.1860877e-10
70	0xb245ac7b	-1.1506127e-08
71	0xb1761ae7	-3.5813004e-09
72	0xb1f245b5	-7.0510517e-09
73	0xb18346c4	-3.820647e-09
74	0xb1e135cd	-6.5544783e-09
75	0x2cbf07cb	5.4294117e-12
76	0xb233a9f4	-1.0457814e-08
77	0xb2135e73	-8.578001e-09
78	0xae74c858	-5.5657118e-11
79	0xafd381c3	-3.8472878e-10
80	0x2fc9c688	3.6702752e-10
81	0xafaab241	-3.1049477e-10
82	0x30d6a2bd	1.5616802e-09
83	0xafdf0d12	-4.057275e-10
84	0xb1828ba9	-3.7993755e-09
85	0x30da8fd7	1.5902469e-09
86	0x30d1a721	1.5254252e-09
87	0x2f16ef51	1.3727443e-10
88	0x30551da9	7.75311e-10
89	0x309cea30	1.1417054e-09
90	0x308a1430	1.0046559e-09
91	0x300774a6	4.927848e-10
92	0x2ff80b41	4.5118934e-10
93	0x301938b8	5.574168e-10
94	0x2f54843a	1.9328264e-10
95	0x2fcbfbb5	3.7104333e-10
96	0x2fa2b2e7	2.9594746e-10
97	0x314ce857	2.9817977e-09
98	0xb18c8590	-4.0897206e-09
99	0x30a3a0cb	1.1905511e-09
100	0x335f74fb	5.2027627e-08
101	0xb19f37e3	-4.6338626e-09
102	0xb1e69765	-6.7110926e-09
103	0x30eb89b8	1.7137642e-09
104	0xb1a7a52e	-4.8791184e-09
105	0xb1a7f711	-4.888428e-09
106	0xb1a6d224	-4.855126e-09
107	0xadbf3de1	-2.1741666e-11
108	0xaf896e1f	-2.49984e-10
109	0xb12d88c9	-2.5252567e-09
110	0xaf6b849a	-2.1420235e-10
111	0xb090419a	-1.0496024e-09
112	0xb0cec69c	-1.5044921e-09
113	0xb1f182a1	-7.028874e-09
114	0xb11f2da0	-2.316348e-09
115	0x3077fd91	9.0218416e-10
116	0x32648cae	1.33033335e-08
117	0xaff889f3	-4.5208956e-10
118	0xb1fef7b3	-7.420533e-09
119	0xb0a6a262	-1.2124242e-09
120	0xb1bdcfd7	-5.5242526e-09
121	0xb17db836	-3.6921057e-09
122	0xb1a650fd	-4.840443e-09
123	0xb0996932	-1.1162113e-09
124	0xb202b202	-7.60747e-09
125	0xb19f851d	-4.6426423e-09
126	0x2db31c2a	2.0362451e-11
127	0xb08c1981	-1.0193589e-09
128	0xb1c530b2	-5.7389906e-09
129	0xb11d6a75	-2.290702e-09
130	0xb20ae540	-8.084783e-09
131	0xb10d8a5b	-2.0596846e-09
132	0xb12cc9a2	-2.514391e-09
133	0x30df3cf9	1.6242715e-09
134	0xb1802dff	-3.7305194e-09
135	0x301a42b3	5.611966e-10
136	0xb10e2691	-2.0685642e-09
137	0x30170b6d	5.4949717e-10
138	0xaf382cf7	-1.6750677e-10
139	0x2eacfdf5	7.866766e-11
140	0xb0e2a8fc	-1.6491692e-09
141	0xafeb2fb1	-4.2780138e-10
142	0x30394ebb	6.741449e-10
143	0x306f848c	8.7136054e-10
144	0xb21404f8	-8.615864e-09
145	0xb2aa9038	-1.9856188e-08
146	0xb2d1c2de	-2.4419418e-08
147	0x31f8a948	7.236995e-09
148	0x32074a6e	7.874958e-09
149	0xb2db8a8f	-2.5557965e-08
150	0xb3388196	-4.2958696e-08
151	0xb22623c9	-9.670608e-09
152	0xb2d7ddb4	-2.5130113e-08
153	0xb30d8ad1	-3.2955374e-08
154	0xb312283c	-3.4029867e-08
155	0xb278f4ec	-1.4491189e-08
156	0xb301e19e	-3.024035e-08
157	0xb2c50b01	-2.2938822e-08
158	0xb1ad6936	-5.0469238e-09
159	0xb262c409	-1.3199505e-08
160	0xb09357cf	-1.0720614e-09
161	0xb1cd1422	-5.968574e-09
162	0x30b1d6fd	1.2939548e-09
163	0xaf73fade	-2.2189847e-10
164	0xb33298e8	-4.1582922e-08
165	0x313625d4	2.6505989e-09
166	0xb165e015	-3.3451262e-09
167	0xb1959e9c	-4.3545025e-09
168	0xb14140c1	-2.8122005e-09
169	0xb152a224	-3.0651188e-09
170	0xb1acff0e	-5.034855e-09
171	0xb18812ae	-3.9602446e-09
172	0xb236c4a2	-1.0638503e-08
173	0xb1d428b3	-6.174639e-09
174	0xb01ce27e	-5.7074334e-10
175	0xb1886afd	-3.970284e-09
176	0xb0647a4d	-8.3119717e-10
177	0x30e25c80	1.6469954e-09
178	0xb184c8f8	-3.864553e-09
179	0x302ba889	6.244894e-10
180	0x324e9ca0	1.20263906e-08
181	0xb171893d	-3.5148127e-09
182	0xb162ed87	-3.3022347e-09
183	0xae5d571e	-5.0326958e-11
184	0xb0dcb6d9	-1.6059075e-09
185	0xb1134f55	-2.143641e-09
186	0xb1071ba4	-1.9660797e-09
187	0xb07e033d	-9.2409264e-10
188	0xb0a4b88e	-1.1985024e-09
189	0xb069b799	-8.5025814e-10
190	0xaff6fd9a	-4.4927334e-10
191	0xafea6b99	-4.2640805e-10
192	0xae2234a0	-3.6881276e-11
193	0x3087c53a	9.878598e-10
194	0xb15759bf	-3.1337632e-09
195	0x2f908045	2.6284588e-10
196	0x3267a9e4	1.3484598e-08
197	0xb18ebf77	-4.154511e-09
198	0xb1acdafa	-5.0307536e-09
199	0x2fbb6d96	3.4092967e-10
200	0xb116ff5a	-2.1973023e-09
201	0xb16fabef	-3.487681e-09
202	0xb12b5a9c	-2.493528e-09
203	0xb0b44c16	-1.3118349e-09
204	0xb09e2650	-1.1506902e-09
205	0xb05de408	-8.0723384e-10
206	0xb078797e	-9.0394525e-10
207	0xb0633b87	-8.266671e-10
208	0xb26195a3	-1.3130747e-08
209	0x3288f968	1.59459e-08
210	0xb2d3be5e	-2.4650202e-08
211	0x32096481	7.9973015e-09
212	0x33a2cd59	7.5810654e-08
213	0xb2e9abd4	-2.7202908e-08
214	0xb2ce7b22	-2.403755e-08
215	0x30ce7eff	1.5024567e-09
216	0xb2399b67	-1.0803752e-08
217	0xb2933df3	-1.7141224e-08
218	0xb263c14f	-1.3257092e-08
219	0xb1f792be	-7.205329e-09
220	0xb20ea6a3	-8.303377e-09
221	0xb195ed32	-4.3634367e-09
222	0xb163719a	-3.3097423e-09
223	0xb154803e	-3.0922958e-09
224	0xb10b6ef3	-2.029023e-09
225	0x311f6f1c	2.3200704e-09
226	0xb0810d52	-9.389771e-10
227	0x3082b42e	9.509955e-10
228	0x31d67ef2	6.2426517e-09
229	0xb1a41828	-4.7757744e-09
230	0xb1563883	-3.1173222e-09
231	0x3047e39d	7.2719236e-10
232	0xb0be0d08	-1.3828023e-09
233	0xb13c8d1d	-2.7437814e-09
234	0xb106d6d8	-1.962169e-09
235	0xb0e12657	-1.6381801e-09
236	0xaff178fe	-4.3923615e-10
237	0xaf3fe03e	-1.7451016e-10
238	0xb03c5b72	-6.8523953e-10
239	0xb06cbff9	-8.612911e-10
240	0xb1e26410	-6.5888415e-09
241	0xb1883a69	-3.9647614e-09
242	0xb292e508	-1.7100788e-08
243	0x31771972	3.5957695e-09
244	0x3337c092	4.278315e-08
245	0xb2150fd2	-8.676539e-09
246	0xb29073ac	-1.6816408e-08
247	0xb08abe44	-1.0094898e-09
248	0xb21e94e8	-9.230668e-09
249	0xb21137ea	-8.452824e-09
250	0xb219de83	-8.956365e-09
251	0xb136c3a9	-2.6595706e-09
252	0xb22ef867	-1.0184613e-08
253	0xb1bf0d8e	-5.5603726e-09
254	0xafeddb40	-4.3265835e-10
255	0xb1099d6e	-2.0025612e-09
